models/hourly/model.onnx (onnx, 471918 bytes, 17 tensors)

model/quant_dense_2/LastValueQuant/FakeQuantWithMinMaxVars__56 f4 [32, 1]
0	0xbe7f0f6f	-0.24908231
1	0x3e5c1edb	0.21496145
2	0x3e32315c	0.17401642
3	0xbe8684a2	-0.26273066
4	0xbc8bc252	-0.017060433
5	0x00000000	0.0
6	0xbd7b90fa	-0.061417557
7	0x3ec7281b	0.38897786
8	0x3eb3f096	0.3514449
9	0x3e6d9725	0.23202188
10	0x3ea7b5fc	0.3275603
11	0xbd19bc27	-0.03753295
12	0x3d99bc27	0.0750659
13	0x3eddde15	0.43333498
14	0x3db5afd1	0.08871425
15	0x3e32315c	0.17401642
16	0xbe35afd1	-0.1774285
17	0x3e8843dd	0.26614276
18	0x3ec02b31	0.37532952
19	0x3ed6e12b	0.41968665
20	0xbd27b5fc	-0.04094504
21	0xbded9725	-0.11601094
22	0xbe99bc27	-0.3002636
23	0x3dbcacbc	0.09212634
24	0x3e58a066	0.21154937
25	0xbe12bf3c	-0.14330763
26	0xbd6d9725	-0.05800547
27	0xbe04c568	-0.1296593
28	0xbeab3471	-0.33438447
29	0xbe47281b	-0.19448893
30	0x3ed8a066	0.42309874
31	0x3ed521f0	0.41627455

model/quant_dense_1/LastValueQuant/FakeQuantWithMinMaxVars__55 f4 [64, 32]
0	0xbdd0155c	-0.10160324
1	0x3e27e2b0	0.16395068
2	0x3b97555a	0.004618329
3	0xbd630007	-0.055419948
4	0xbe54d007	-0.20782481
5	0xbdaefab0	-0.085439086
6	0x3d046aaf	0.032328304
7	0x3e3f8806	0.18704233
8	0xbd9c1005	-0.07620243
9	0x3e655d5c	0.22398895
10	0x3daefab0	0.085439086
11	0x3dec755d	0.11545823
12	0xbbe30007	-0.0069274935
13	0xbcbd2ab0	-0.023091644
14	0x3e6a1807	0.22860728
15	0xbdf5eab2	-0.12007655
16	0xbe738d5d	-0.23784395
17	0xbe046aaf	-0.12931322
18	0xbe09255a	-0.13393155
19	0xbdaefab0	-0.085439086
20	0x3e6c755d	0.23091646
21	0xbd6c755d	-0.057729114
22	0x3d598ab1	0.053110782
23	0xbe7d02b2	-0.2470806
24	0xbe3f8806	-0.18704233
25	0xbe4db806	-0.2008973
26	0x3dbd2ab0	0.092366576
27	0x00000000	0.0
28	0xbe0b82af	-0.1362407
29	0x3b97555a	0.004618329
30	0xbe33b55b	-0.1754965
31	0x3d7f6008	0.062347442
32	0x3e17555a	0.14778653
33	0x3e06c804	0.13162237
34	0xbe33b55b	-0.1754965
35	0xbdec755d	-0.11545823
36	0xbd33b55b	-0.043874126
37	0xbe784808	-0.24246228
38	0x3daa4005	0.08312992
39	0x3e784808	0.24246228
40	0xbdd4d007	-0.103912406
41	0xbd20cab0	-0.039255798
42	0x3e784808	0.24246228
43	0x3db87006	0.09005742
44	0x3de30007	0.110839896
45	0xbdfaa55d	-0.12238572
46	0x3d0de004	0.034637466
47	0x3e784808	0.24246228
48	0xbe713007	-0.23553477
49	0xbd046aaf	-0.032328304
50	0xbe572d5c	-0.21013397
51	0x3d33b55b	0.043874126
52	0xbbe30007	-0.0069274935
53	0x3e2a4005	0.16625984
54	0x3b97555a	0.004618329
55	0xbd598ab1	-0.053110782
56	0xbe315805	-0.17318733
57	0x3e2a4005	0.16625984
58	0xbe738d5d	-0.23784395
59	0xbd630007	-0.055419948
60	0x3ce30007	0.027709974
61	0x3de7bab2	0.11314906
62	0x3e6c755d	0.23091646
63	0x3e60a2b2	0.21937063
64	0xbe48fd5c	-0.19627899
65	0xbe54d007	-0.20782481
66	0x3e3612b0	0.17780566
67	0xbe630007	-0.22167979
68	0xbd89255a	-0.06696577
69	0xbce30007	-0.027709974
70	0xbd75eab2	-0.060038276
71	0xbe820d59	-0.25400808
72	0xbe2c9d5b	-0.16856901
73	0x3e713007	0.23553477
74	0xbd89255a	-0.06696577
75	0x3d75eab2	0.060038276
76	0xbe3d2ab0	-0.18473315
77	0xbe387006	-0.18011484
78	0xbdaefab0	-0.085439086
79	0x3e33b55b	0.1754965
80	0xbe60a2b2	-0.21937063
81	0xbcbd2ab0	-0.023091644
82	0x3b17555a	0.0023091645
83	0x3d33b55b	0.043874126
84	0x3d2a4005	0.04156496
85	0xbd929aaf	-0.0715841
86	0xbdd0155c	-0.10160324
87	0xbe20cab0	-0.15702319
88	0xbe4db806	-0.2008973
89	0xbe67bab2	-0.22629812
90	0x3d46a006	0.048492454
91	0x3e0b82af	0.1362407
92	0x3d2a4005	0.04156496
93	0xbdd4d007	-0.103912406
94	0x3e3612b0	0.17780566
95	0xbe17555a	-0.14778653
96	0x3e046aaf	0.12931322
97	0xbe50155c	-0.20320648
98	0x3dd98ab1	0.106221564
99	0xbe3d2ab0	-0.18473315
100	0xbe75eab2	-0.2401531
101	0x3e54d007	0.20782481
102	0x3d046aaf	0.032328304
103	0x3e232805	0.15933235
104	0x3e4442b1	0.19166066
105	0xbcd0155c	-0.02540081
106	0x3c97555a	0.018473316
107	0x3e630007	0.22167979
108	0xbe2c9d5b	-0.16856901
109	0xbe27e2b0	-0.16395068
110	0xbe630007	-0.22167979
111	0xbd9c1005	-0.07620243
112	0x3c3d2ab0	0.011545822
113	0xbe06c804	-0.13162237
114	0x3e27e2b0	0.16395068
115	0x3e5e455c	0.21706146
116	0xbe20cab0	-0.15702319
117	0x3de7bab2	0.11314906
118	0x3d33b55b	0.043874126
119	0x3de7bab2	0.11314906
120	0x3d6c755d	0.057729114
121	0xbe7aa55d	-0.24477144
122	0xbb17555a	-0.0023091645
123	0xbe7d02b2	-0.2470806
124	0xbdd4d007	-0.103912406
125	0x3e6c755d	0.23091646
126	0x3e3acd5b	0.182424
127	0xbe17555a	-0.14778653
128	0x3e738d5d	0.23784395
129	0x3ce30007	0.027709974
130	0xbe80deaf	-0.25169894
131	0x3e5e455c	0.21706146
132	0x3e4442b1	0.19166066
133	0x3e75eab2	0.2401531
134	0xbe315805	-0.17318733
135	0x3e25855a	0.16164151
136	0xbe315805	-0.17318733
137	0x3e54d007	0.20782481
138	0xbe1e6d5a	-0.15471402
139	0xbe1e6d5a	-0.15471402
140	0x3c3d2ab0	0.011545822
141	0xbde7bab2	-0.11314906
142	0x3dc6a006	0.09698491
143	0x3caa4005	0.02078248
144	0x3d75eab2	0.060038276
145	0xbe48fd5c	-0.19627899
146	0xbe14f805	-0.14547737
147	0x3c846aaf	0.016164152
148	0xbe17555a	-0.14778653
149	0xbe7d02b2	-0.2470806
150	0xbd20cab0	-0.039255798
151	0x3daa4005	0.08312992
152	0xbe387006	-0.18011484
153	0x3daa4005	0.08312992
154	0x3e33b55b	0.1754965
155	0xbe655d5c	-0.22398895
156	0xbe7aa55d	-0.24477144
157	0x3e09255a	0.13393155
158	0x3d3d2ab0	0.046183288
159	0xbe129aaf	-0.1431682
160	0x3d630007	0.055419948
161	0x3c630007	0.013854987
162	0xbdc6a006	-0.09698491
163	0xbd97555a	-0.073893264
164	0x3e020d59	0.12700404
165	0x3cf5eab2	0.030019138
166	0xbd20cab0	-0.039255798
167	0xbda5855a	-0.080820754
168	0xbe09255a	-0.13393155
169	0xbdbd2ab0	-0.092366576
170	0xbe6a1807	-0.22860728
171	0xbd9c1005	-0.07620243
172	0x3e5e455c	0.21706146
173	0xbe33b55b	-0.1754965
174	0xbe232805	-0.15933235
175	0xbe3f8806	-0.18704233
176	0xbe67bab2	-0.22629812
177	0x3dde455c	0.10853073
178	0xbe25855a	-0.16164151
179	0xbe27e2b0	-0.16395068
180	0x3e54d007	0.20782481
181	0xbdec755d	-0.11545823
182	0x3e7d02b2	0.2470806
183	0x3e54d007	0.20782481
184	0x3e4db806	0.2008973
185	0x3e5e455c	0.21706146
186	0xbe20cab0	-0.15702319
187	0x3e25855a	0.16164151
188	0xbe5272b1	-0.20551564
189	0xbbe30007	-0.0069274935
190	0xbe232805	-0.15933235
191	0x3c846aaf	0.016164152
192	0xbd20cab0	-0.039255798
193	0xbe60a2b2	-0.21937063
194	0xbce30007	-0.027709974
195	0xbe33b55b	-0.1754965
196	0x3e5be807	0.2147523
197	0xbe103d5a	-0.14085904
198	0x3e1c1005	0.15240486
199	0xbe0de004	-0.13854986
200	0x3e2a4005	0.16625984
201	0x3e2efab0	0.17087817
202	0x3e46a006	0.19396982
203	0xbda0cab0	-0.078511596
204	0x3e846aaf	0.25862643
205	0x3d630007	0.055419948
206	0x3d929aaf	0.0715841
207	0xbe48fd5c	-0.19627899
208	0x3db87006	0.09005742
209	0xbd598ab1	-0.053110782
210	0x3dff6008	0.124694884
211	0xbd46a006	-0.048492454
212	0x3d17555a	0.036946632
213	0x3c17555a	0.009236658
214	0xbe4b5ab1	-0.19858815
215	0xbe67bab2	-0.22629812
216	0xbe2c9d5b	-0.16856901
217	0x3daefab0	0.085439086
218	0xbc97555a	-0.018473316
219	0x3e387006	0.18011484
220	0xbd8de004	-0.06927493
221	0xbe129aaf	-0.1431682
222	0xbe5e455c	-0.21706146
223	0xbd8de004	-0.06927493
224	0x3dd0155c	0.10160324
225	0x3e4db806	0.2008973
226	0x3e7f6008	0.24938977
227	0x3c630007	0.013854987
228	0x3e25855a	0.16164151
229	0x3e17555a	0.14778653
230	0xbe87f6af	-0.26555392
231	0xbe129aaf	-0.1431682
232	0xbe09255a	-0.13393155
233	0xbd33b55b	-0.043874126
234	0x3d50155c	0.05080162
235	0xbdec755d	-0.11545823
236	0xbe06c804	-0.13162237
237	0xbcd0155c	-0.02540081
238	0x3e0de004	0.13854986
239	0x3d0de004	0.034637466
240	0xbd97555a	-0.073893264
241	0x3e820d59	0.25400808
242	0xbe3d2ab0	-0.18473315
243	0x3e2a4005	0.16625984
244	0xbe2a4005	-0.16625984
245	0x3e06c804	0.13162237
246	0x3caa4005	0.02078248
247	0x3e6a1807	0.22860728
248	0x3cd0155c	0.02540081
249	0xbe7f6008	-0.24938977
250	0x3e3acd5b	0.182424
251	0x3dde455c	0.10853073
252	0x3caa4005	0.02078248
253	0x3e0b82af	0.1362407
254	0xbe3d2ab0	-0.18473315
255	0xbe2c9d5b	-0.16856901

model/quant_dense_1/BiasAdd/ReadVariableOp:0 f4 [32]
0	0xbc08606b	-0.008323769
1	0x3cc743fc	0.02432441
2	0x3d67ba63	0.056574237
3	0xbcc6ea77	-0.024281723
4	0xbc83dfa3	-0.01609785
5	0xbc921cdb	-0.017836025
6	0xbcbcba0a	-0.02303793
7	0x3c42fa52	0.011900501
8	0x3c92543e	0.017862435
9	0x3d24e5af	0.040258106
10	0x3c94918f	0.018135814
11	0xbcc4ef0f	-0.024039773
12	0x3cfa7109	0.030571477
13	0x3cb1eee9	0.021720367
14	0x3cdf782f	0.027278988
15	0x3cccf023	0.02501685
16	0xbcda7b14	-0.026670016
17	0x3cc181f1	0.023621531
18	0x3bbf968c	0.005846804
19	0x3c99063c	0.01867973
20	0xbc8e6fcb	-0.017387291
21	0xbca54edc	-0.020179205
22	0xbcaa3447	-0.02077688
23	0x3cec7fe2	0.028869573
24	0x3ce2d3a4	0.027688809
25	0xbccab213	-0.024743116
26	0xbc0eaa8b	-0.008707653
27	0xbcaacfd4	-0.020851053
28	0xbca01785	-0.019542465
29	0xba7232f8	-0.00092391623
30	0x3cb7314b	0.022362372
31	0x3c8e6007	0.017379774

model/quant_dense/LastValueQuant/FakeQuantWithMinMaxVars__54 f4 [32, 64]
0	0x3e56991d	0.20956846
1	0xbe6976c0	-0.22799206
2	0x3d46172e	0.04836195
3	0x3d205be8	0.03915015
4	0x3d754145	0.0598767
5	0x3debd274	0.1151475
6	0xbe56991d	-0.20956846
7	0xbd3ca85d	-0.046059
8	0xbe0fd9fa	-0.14047995
9	0xbe4f8600	-0.2026596
10	0x3e33398b	0.1750242
11	0x3d8d7e46	0.0690885
12	0xbdddac3a	-0.10823865
13	0x3e64bf57	0.22338615
14	0xbb96ed17	-0.0046059
15	0xbe754145	-0.2395068
16	0x3d7eb017	0.06217965
17	0x3ca9caba	0.02072655
18	0xbdebd274	-0.1151475
19	0x3d4f8600	0.0506649
20	0x3ce263a2	0.0276354
21	0x3dc15fc5	0.09442095
22	0xbda9caba	-0.0829062
23	0x3e4d2a4b	0.20035665
24	0xbdd8f4d1	-0.1059357
25	0xbd58f4d1	-0.05296785
26	0x3da05be8	0.0783003
27	0xbe5dac3a	-0.2164773
28	0x3e0fd9fa	0.14047995
29	0x3e22b79d	0.15890355
30	0xbe72e591	-0.23720385
31	0x3e1ba480	0.1519947
32	0xbdae8223	-0.08520915
33	0xbe276f06	-0.16350946
34	0x3e7eb017	0.2487186
35	0x3e6bd274	0.230295
36	0xbd0d7e46	-0.03454425
37	0x3e3a4ca8	0.18193305
38	0xbe16ed17	-0.1473888
39	0x3d4f8600	0.0506649
40	0x3e56991d	0.20956846
41	0x3db3398b	0.0875121
42	0xbe3a4ca8	-0.18193305
43	0xbdfeb017	-0.1243593
44	0x3e543d68	0.2072655
45	0xbdae8223	-0.08520915
46	0x3df9f8ae	0.12205635
47	0xbe5dac3a	-0.2164773
48	0x3e6007ee	0.21878025
49	0xbe29caba	-0.1658124
50	0xbe30ddd7	-0.17272125
51	0x3e22b79d	0.15890355
52	0x3df9f8ae	0.12205635
53	0xbe79f8ae	-0.2441127
54	0xbe08c6dd	-0.1335711
55	0xbe6976c0	-0.22799206
56	0xbc16ed17	-0.0092118
57	0xbd46172e	-0.04836195
58	0xbe840f74	-0.2579304
59	0xbdb3398b	-0.0875121
60	0xbe64bf57	-0.22338615
61	0xbdae8223	-0.08520915
62	0x3e4ace97	0.1980537
63	0x3e72e591	0.23720385
64	0x3dfeb017	0.1243593
65	0xbdf089dd	-0.11745045
66	0xbca9caba	-0.02072655
67	0xbc16ed17	-0.0092118
68	0xbdc6172e	-0.0967239
69	0x3e359540	0.17732716
70	0xbe4872e3	-0.19575076
71	0xbe276f06	-0.16350946
72	0xbdf9f8ae	-0.12205635
73	0xbdddac3a	-0.10823865
74	0x3e6bd274	0.230295
75	0x3e29caba	0.1658124
76	0x3debd274	0.1151475
77	0x3e251351	0.1612065
78	0x3e16ed17	0.1473888
79	0x3e066b28	0.13126814
80	0xbdcace97	-0.09902685
81	0xbce263a2	-0.0276354
82	0x3dc6172e	0.0967239
83	0xbe4f8600	-0.2026596
84	0xbbe263a2	-0.00690885
85	0xbb96ed17	-0.0046059
86	0x3e5b5085	0.21417435
87	0xbe72e591	-0.23720385
88	0x3e0b2291	0.13587405
89	0xbe0b2291	-0.13587405
90	0x3e5dac3a	0.2164773
91	0xbe56991d	-0.20956846
92	0xbdcf8600	-0.1013298
93	0xbd4f8600	-0.0506649
94	0xbe6bd274	-0.230295
95	0x3e6e2e28	0.23259795
96	0x3e251351	0.1612065
97	0xbca9caba	-0.02072655
98	0xbe56991d	-0.20956846
99	0x3e3ca85d	0.184236
100	0x3e066b28	0.13126814
101	0x3da9caba	0.0829062
102	0xbb16ed17	-0.00230295
103	0xbe4872e3	-0.19575076
104	0xbe205be8	-0.1566006
105	0xbe29caba	-0.1658124
106	0xbd040f74	-0.0322413
107	0xbe4f8600	-0.2026596
108	0x3e415fc5	0.1888419
109	0xbe30ddd7	-0.17272125
110	0xbe4872e3	-0.19575076
111	0xbe1948cb	-0.14969175
112	0xbdf54145	-0.1197534
113	0x3df9f8ae	0.12205635
114	0xbe29caba	-0.1658124
115	0xbe29caba	-0.1658124
116	0xbe415fc5	-0.1888419
117	0x3e1e0034	0.15429765
118	0xbe43bb7a	-0.19114485
119	0x3e29caba	0.1658124
120	0xbd58f4d1	-0.05296785
121	0xbd840f74	-0.0644826
122	0xbdf9f8ae	-0.12205635
123	0xbd9ba480	-0.07599735
124	0x3c96ed17	0.0184236
125	0x3e149163	0.14508586
126	0x3e7c5462	0.24641564
127	0xbd88c6dd	-0.06678555
128	0xbe43bb7a	-0.19114485
129	0x3e7c5462	0.24641564
130	0xbdc15fc5	-0.09442095
131	0x00000000	0.0
132	0xbdc6172e	-0.0967239
133	0xbca9caba	-0.02072655
134	0xbccf8600	-0.02533245
135	0x3debd274	0.1151475
136	0x3dd8f4d1	0.1059357
137	0x3be263a2	0.00690885
138	0x3e33398b	0.1750242
139	0xbe5dac3a	-0.2164773
140	0xbd96ed17	-0.0736944
141	0xbdf54145	-0.1197534
142	0x3df54145	0.1197534
143	0x3de71b0b	0.11284455
144	0x3cbca85d	0.0230295
145	0x3dfeb017	0.1243593
146	0x3df54145	0.1197534
147	0xbdf54145	-0.1197534
148	0xbe4d2a4b	-0.20035665
149	0xbe43bb7a	-0.19114485
150	0x3e1948cb	0.14969175
151	0xbd58f4d1	-0.05296785
152	0xbd040f74	-0.0322413
153	0x3e251351	0.1612065
154	0xbdc6172e	-0.0967239
155	0x3e2c266e	0.16811535
156	0x3df089dd	0.11745045
157	0xbdbca85d	-0.092118
158	0x3dfeb017	0.1243593
159	0x3cf54145	0.02993835
160	0xbdf089dd	-0.11745045
161	0xbe08c6dd	-0.1335711
162	0xbd4f8600	-0.0506649
163	0xbe46172e	-0.1934478
164	0xbdae8223	-0.08520915
165	0x3dae8223	0.08520915
166	0x3e1ba480	0.1519947
167	0xbe33398b	-0.1750242
168	0xbe7c5462	-0.24641564
169	0xbdebd274	-0.1151475
170	0xbd0d7e46	-0.03454425
171	0xbdfeb017	-0.1243593
172	0x3e0b2291	0.13587405
173	0x3da05be8	0.0783003
174	0x3da05be8	0.0783003
175	0x3e37f0f4	0.1796301
176	0xbe7089dd	-0.2349009
177	0xbdd43d68	-0.10363275
178	0xbe1ba480	-0.1519947
179	0xbe33398b	-0.1750242
180	0x3e754145	0.2395068
181	0x3e0d7e46	0.138177
182	0xbe6bd274	-0.230295
183	0xbe0fd9fa	-0.14047995
184	0xbde71b0b	-0.11284455
185	0x3cbca85d	0.0230295
186	0xbe2c266e	-0.16811535
187	0x3e3f0411	0.18653895
188	0x3e149163	0.14508586
189	0xbd16ed17	-0.0368472
190	0x3d88c6dd	0.06678555
191	0x3dc15fc5	0.09442095
192	0x3c3ca85d	0.01151475
193	0x3e066b28	0.13126814
194	0x3e359540	0.17732716
195	0x3e840f74	0.2579304
196	0xbda51351	-0.08060325
197	0x3d3ca85d	0.046059
198	0x3e29caba	0.1658124
199	0x3e6976c0	0.22799206
200	0xbdb3398b	-0.0875121
201	0xbe149163	-0.14508586
202	0xbca9caba	-0.02072655
203	0x3da51351	0.08060325
204	0x3e1e0034	0.15429765
205	0x3e5dac3a	0.2164773
206	0xbe1e0034	-0.15429765
207	0x3d33398b	0.04375605
208	0xbcf54145	-0.02993835
209	0x3e5b5085	0.21417435
210	0x3de71b0b	0.11284455
211	0x3e6976c0	0.22799206
212	0x3e6007ee	0.21878025
213	0x3d8d7e46	0.0690885
214	0x3e5b5085	0.21417435
215	0x3da51351	0.08060325
216	0x3e4d2a4b	0.20035665
217	0xbe4872e3	-0.19575076
218	0x3dfeb017	0.1243593
219	0x3df089dd	0.11745045
220	0xbe51e1b4	-0.20496255
221	0xbe43bb7a	-0.19114485
222	0xbdcace97	-0.09902685
223	0x3e0b2291	0.13587405
224	0x3be263a2	0.00690885
225	0xbde263a2	-0.1105416
226	0x3dd8f4d1	0.1059357
227	0x3dfeb017	0.1243593
228	0xbde263a2	-0.1105416
229	0x3e22b79d	0.15890355
230	0x3d46172e	0.04836195
231	0x3e359540	0.17732716
232	0xbe0fd9fa	-0.14047995
233	0xbc840f74	-0.01612065
234	0xbb16ed17	-0.00230295
235	0x3c96ed17	0.0184236
236	0x3d58f4d1	0.05296785
237	0x3e7c5462	0.24641564
238	0xbe0d7e46	-0.138177
239	0x3e1948cb	0.14969175
240	0x3d9ba480	0.07599735
241	0x3e543d68	0.2072655
242	0x3e754145	0.2395068
243	0xbe4ace97	-0.1980537
244	0x3dbca85d	0.092118
245	0xbe0d7e46	-0.138177
246	0x3dfeb017	0.1243593
247	0xbe6263a2	-0.2210832
248	0x3d16ed17	0.0368472
249	0x3e6e2e28	0.23259795
250	0x3d6263a2	0.0552708
251	0xbc96ed17	-0.0184236
252	0xbd0d7e46	-0.03454425
253	0x3e08c6dd	0.1335711
254	0xbc16ed17	-0.0092118
255	0x3e7eb017	0.2487186

model/quant_dense/BiasAdd/ReadVariableOp:0 f4 [64]
0	0x00000000	0.0
1	0x3be3a4ec	0.0069471505
2	0xbc4edf74	-0.012626518
3	0xbac84e46	-0.0015282116
4	0x3cb9a66a	0.02266236
5	0xbc04a93d	-0.00809699
6	0xbcbbe3da	-0.022935797
7	0x3a754731	0.00093566166
8	0x3c481733	0.012212562
9	0x3c63a1bf	0.013893544
10	0x3c4010fa	0.0117227975
11	0x3c8d376f	0.017238347
12	0x3ca0a8ed	0.0196118
13	0xbbfaa8f3	-0.007649535
14	0x3c95ab4c	0.018270157
15	0xbb4ceb8b	-0.0031268324
16	0x3c4fc209	0.012680539
17	0xbc8a93bf	-0.016916154
18	0xbc285b85	-0.010275726
19	0xbba52cf3	-0.0050407588
20	0x3ba3c900	0.0049983263
21	0xbc274562	-0.010209413
22	0x3c423a96	0.011854788
23	0x3c999eae	0.018752422
24	0xba57b2c5	-0.0008228238
25	0xbb8faafe	-0.0043843975
26	0xbbc96149	-0.0061456305
27	0x3c2c5b0c	0.010519754
28	0xbc231a3f	-0.009954988
29	0xb9a11171	-0.00030721308
30	0x3c47a6dd	0.012185779
31	0x3c9dcfdf	0.01926416
32	0x3c1f625a	0.009728039
33	0x3c019d44	0.00791103
34	0x3bc60f9c	0.0060443413
35	0xbc0bfde5	-0.00854442
36	0x3c42cf08	0.01189018
37	0x00000000	0.0
38	0x39d268cc	0.000401324
39	0xbc447cea	-0.011992672
40	0xbc6e20b0	-0.0145341605
41	0x3d568a86	0.0523782
42	0x3c65fdf2	0.014037596
43	0x3c6ea473	0.014565575
44	0xbc33e6df	-0.010980337
45	0xbb1b632a	-0.002371023
46	0xbb2869a7	-0.002569774
47	0x3b01e205	0.0019818556
48	0xbc9f1acb	-0.019421956
49	0xbc8f50c0	-0.01749456
50	0x00000000	0.0
51	0x3be31fdb	0.0069312877
52	0x3bc23077	0.0059261876
53	0xbc326468	-0.0108881965
54	0xbc8c664f	-0.017138628
55	0xbc66265b	-0.014047231
56	0xbb8dc6db	-0.004326684
57	0x3c96fcb4	0.018431045
58	0x3ca36569	0.019945817
59	0x00000000	0.0
60	0x3c58ab1d	0.01322439
61	0x3c8724e1	0.016497077
62	0xbc066df5	-0.008204927
63	0x3b758d9e	0.0037468444

model/gru_3/gru_cell/ReadVariableOp/resource:0 f4 [2, 96]
0	0xbbd3b958	-0.0064613037
1	0x3700a54d	7.667882e-06
2	0x3ceab0e8	0.028648809
3	0xbc84eafd	-0.016225332
4	0xbc1af5fe	-0.009458063
5	0xbc38b1c3	-0.01127285
6	0x3b025639	0.0019887818
7	0x3b71e362	0.0036909212
8	0xbc7840f6	-0.015152207
9	0xbd16a147	-0.0367749
10	0xbd0cd5c5	-0.034383554
11	0x3c510dec	0.012759667
12	0x3b1a0fa5	0.002350786
13	0x3cc33dd6	0.023833197
14	0x3c2c1512	0.01050307
15	0x3b834972	0.004006558
16	0x3c234263	0.009964558
17	0x3cb5eb66	0.022206973
18	0xbb517b0d	-0.0031964213
19	0x3b7c9636	0.003854168
20	0x3ac8da39	0.0015323824
21	0x3c93d605	0.018046388
22	0x3b3272f5	0.0027229164
23	0xbae0234a	-0.0017100361
24	0xbb39ab64	-0.0028330917
25	0xbccdb6ff	-0.025111673
26	0xbbbeb145	-0.005819472
27	0x3bbf4ba2	0.0058378736
28	0xbcea8428	-0.02862747
29	0xbc678d73	-0.014132845
30	0xb7f42c51	-2.9107703e-05
31	0xbbccc2ee	-0.0062488234
32	0x3b37242e	0.0027945149
33	0x3859e84a	5.1953168e-05
34	0x3bae32ef	0.0053161304
35	0xbc0ac49c	-0.008469727
36	0xbbc49169	-0.0059987796
37	0x3b070101	0.0020599964
38	0x3b704852	0.00366642
39	0x3bdc44ee	0.0067220842
40	0x3b758590	0.0037463643
41	0xbc75fcc1	-0.0150138745
42	0xbcd1f0c3	-0.0256275
43	0xbc16533d	-0.009175119
44	0x3c1523eb	0.009102802
45	0x3c3fdb98	0.01171007
46	0xbaa5730c	-0.0012622788
47	0x3bb9dd77	0.0056721526
48	0x3bbea221	0.005817667
49	0xbb18c5ee	-0.0023311335
50	0x3c8b8ec6	0.017035853
51	0xbc6d7f48	-0.014495678
52	0x3d0db1ef	0.03459352
53	0xbc7d4f43	-0.015460792
54	0x3c2f75fd	0.010709283
55	0xbc660204	-0.0140385665
56	0x3c2641ee	0.010147555
57	0xbbcf60da	-0.0063286843
58	0x3b10662b	0.0022033553
59	0x3c40bb38	0.011763386
60	0xbc9b8787	-0.018985523
61	0xbc82f9f0	-0.01598832
62	0xb9574486	-0.00020529525
63	0x3bbf9ba0	0.0058474094
64	0xbc18e549	-0.00933201
65	0xbba8a1dc	-0.0051462483
66	0x3c28c70c	0.010301363
67	0x3c4970a7	0.012294925
68	0xbc0b0567	-0.008485175
69	0xba85bfd6	-0.0010204266
70	0xbbda589d	-0.0066633956
71	0x3c2c964a	0.010533879
72	0x3af1827a	0.0018425726
73	0xbc0e3b0b	-0.008681069
74	0x3c8a880e	0.016910579
75	0xbc60301c	-0.013683345
76	0x3c49d1b9	0.012318068
77	0x3c5de09c	0.013542321
78	0xbb84448f	-0.004036493
79	0x3c0d3081	0.008617521
80	0x3c2619f1	0.010138021
81	0x391c4884	0.00014904334
82	0xbc669f1c	-0.014076021
83	0xbc1d6d46	-0.009608572
84	0x3cdebc1b	0.027189305
85	0x3c2cfb37	0.010557941
86	0xbc48041c	-0.012208011
87	0xbc5e2503	-0.013558629
88	0xbc27a3a6	-0.010231888
89	0x3ca3cf51	0.019996317
90	0xbbf6dea1	-0.0075338637
91	0xbc413767	-0.011792994
92	0x3b426ac6	0.0029665693
93	0xbc851694	-0.016246118
94	0xbc5abee2	-0.013351174
95	0x3c31dbba	0.01085561
96	0xbbd3b958	-0.0064613037
97	0x3700a54d	7.667882e-06
98	0x3ceab0e8	0.028648809
99	0xbc84eafd	-0.016225332
100	0xbc1af5fe	-0.009458063
101	0xbc38b1c3	-0.01127285
102	0x3b025639	0.0019887818
103	0x3b71e362	0.0036909212
104	0xbc7840f6	-0.015152207
105	0xbd16a147	-0.0367749
106	0xbd0cd5c5	-0.034383554
107	0x3c510dec	0.012759667
108	0x3b1a0fa5	0.002350786
109	0x3cc33dd6	0.023833197
110	0x3c2c1512	0.01050307
111	0x3b834972	0.004006558
112	0x3c234263	0.009964558
113	0x3cb5eb66	0.022206973
114	0xbb517b0d	-0.0031964213
115	0x3b7c9636	0.003854168
116	0x3ac8da39	0.0015323824
117	0x3c93d605	0.018046388
118	0x3b3272f5	0.0027229164
119	0xbae0234a	-0.0017100361
120	0xbb39ab64	-0.0028330917
121	0xbccdb6ff	-0.025111673
122	0xbbbeb145	-0.005819472
123	0x3bbf4ba2	0.0058378736
124	0xbcea8428	-0.02862747
125	0xbc678d73	-0.014132845
126	0xb7f42c51	-2.9107703e-05
127	0xbbccc2ee	-0.0062488234
128	0x3b37242e	0.0027945149
129	0x3859e84a	5.1953168e-05
130	0x3bae32ef	0.0053161304
131	0xbc0ac49c	-0.008469727
132	0xbbc49169	-0.0059987796
133	0x3b070101	0.0020599964
134	0x3b704852	0.00366642
135	0x3bdc44ee	0.0067220842
136	0x3b758590	0.0037463643
137	0xbc75fcc1	-0.0150138745
138	0xbcd1f0c3	-0.0256275
139	0xbc16533d	-0.009175119
140	0x3c1523eb	0.009102802
141	0x3c3fdb98	0.01171007
142	0xbaa5730c	-0.0012622788
143	0x3bb9dd77	0.0056721526
144	0x3bbea221	0.005817667
145	0xbb18c5ee	-0.0023311335
146	0x3c8b8ec6	0.017035853
147	0xbc6d7f48	-0.014495678
148	0x3d0db1ef	0.03459352
149	0xbc7d4f43	-0.015460792
150	0x3c2f75fd	0.010709283
151	0xbc660204	-0.0140385665
152	0x3c2641ee	0.010147555
153	0xbbcf60da	-0.0063286843
154	0x3b10662b	0.0022033553
155	0x3c40bb38	0.011763386
156	0xbc9b8787	-0.018985523
157	0xbc82f9f0	-0.01598832
158	0xb9574486	-0.00020529525
159	0x3bbf9ba0	0.0058474094
160	0xbc18be8b	-0.009322773
161	0xbb73b0a2	-0.0037184139
162	0x3c258540	0.01010257
163	0x3c416b47	0.011805362
164	0xbc09ff72	-0.008422719
165	0xba919425	-0.0011106773
166	0xbbce55f4	-0.0062968675
167	0x3c28d9ba	0.010305816
168	0x3b0018b6	0.001954598
169	0xbc104eee	-0.008807881
170	0x3c83adca	0.01607408
171	0xbc6024a0	-0.013680607
172	0x3c4590d8	0.012058459
173	0x3c64791f	0.013944893
174	0xbb7c07ae	-0.0038456726
175	0x3c083fd3	0.008315998
176	0x3c223f12	0.009902732
177	0x392e2e5f	0.00016611208
178	0xbc655eae	-0.013999624
179	0xbc1e2f09	-0.009654769
180	0x3cdfae4f	0.027304797
181	0x3c2f1d13	0.010688084
182	0xbc45f228	-0.01208166
183	0xbc5e2c97	-0.013560436
184	0xbc2724b9	-0.010201626
185	0x3ca7a918	0.020466372
186	0xbbfcf0e2	-0.007719145
187	0xbc429277	-0.01187574
188	0x3b0ed523	0.002179452
189	0xbc832cf1	-0.01601264
190	0xbc5c9933	-0.01346426
191	0x3c30e952	0.010797815

model/gru_3/gru_cell/MatMul_1/ReadVariableOp/resource:0 f4 [32, 96]
0	0x3e8dbac0	0.2768154
1	0x3df2eed6	0.118619606
2	0x3e06e1ee	0.13172123
3	0x3b67a22a	0.003534446
4	0xbaaca5d1	-0.0013171976
5	0xbdd9b155	-0.106295265
6	0xbd8a19ef	-0.06743228
7	0xbe18a93b	-0.14908306
8	0x3d2ea18f	0.042634543
9	0x3db16e6e	0.08663641
10	0xbd527d0a	-0.051388778
11	0xbdb1a9b1	-0.08674944
12	0x3d475a3d	0.048670042
13	0x3d9bff76	0.07617085
14	0xbe8c390d	-0.27387276
15	0x3b7f0e9d	0.0038918622
16	0x3dbc6dad	0.092006065
17	0x3d8bca1a	0.06825657
18	0x3cfc2bb3	0.030782556
19	0x3ce006dc	0.02734702
20	0xbdb577eb	-0.08860763
21	0xbd709f5d	-0.05874573
22	0xbd20af52	-0.0392297
23	0xbd8ab037	-0.067718916
24	0xbd5e8319	-0.054324243
25	0xbd3a9131	-0.04554862
26	0x3aa42a9c	0.0012524906
27	0x3d4f6f27	0.050643113
28	0x3bb47fd5	0.005508403
29	0x3e48e8b9	0.19620027
30	0x3be87c75	0.0070949146
31	0x3d68829d	0.056765188
32	0xbd44aa40	-0.048013926
33	0xbc4924bf	-0.012276827
34	0x3de0d622	0.109783426
35	0xbd5920f2	-0.053009935
36	0xbd47a43e	-0.048740618
37	0x3c6f6da8	0.014613546
38	0xbdd7a871	-0.105301745
39	0xbd9940a7	-0.074830346
40	0xbca7a136	-0.020462614
41	0xbd841a94	-0.06450382
42	0xbca6c55e	-0.020357784
43	0xbdc87a6b	-0.097889744
44	0xbd8c6e49	-0.06856973
45	0x3dae625c	0.08514854
46	0xbd6f5c38	-0.058437556
47	0xbd51129f	-0.05104315
48	0xbd56ea1b	-0.052469354
49	0x3d3a73da	0.04552064
50	0xbe1625d3	-0.14662866
51	0xbd0904e9	-0.03345195
52	0xbd18d7ef	-0.037315305
53	0x3d85cb03	0.06532862
54	0x3d734a0f	0.0593968
55	0xbd06bede	-0.03289687
56	0x3e41357d	0.1886806
57	0x3dc681c2	0.09692718
58	0x3e0fb87d	0.1403522
59	0xbdbaab78	-0.09114736
60	0x3db45d83	0.088068984
61	0x3d88983e	0.06669663
62	0xbe6e1cd7	-0.23253189
63	0x3e03f25d	0.12885423
64	0x3e02ab3c	0.12760633
65	0xbe11a830	-0.14224315
66	0xbd6dc6a5	-0.05805077
67	0x3dce176e	0.100630626
68	0x3e25c1fe	0.16187283
69	0x3ce1cdf9	0.027564036
70	0xbdf96fae	-0.12179504
71	0x3b762c44	0.0037563005
72	0x3d2cf0b6	0.042221747
73	0xbe0d08b3	-0.1377285
74	0x3d945ddc	0.07244465
75	0x3c84f19e	0.016228493
76	0x3e3e079a	0.18557587
77	0x3e865837	0.26239178
78	0x3e125fa3	0.14294295
79	0x3da27a3f	0.07933473
80	0x3d7f1633	0.06227703
81	0xbd05074d	-0.032477666
82	0x3e3c2b04	0.18375784
83	0x3dd81fa5	0.10552911
84	0x3c5b8db3	0.013400483
85	0x3e5e0550	0.21681714
86	0xbcadf8af	-0.021236746
87	0xbddcbd4f	-0.10778295
88	0x3d2f2775	0.04276224
89	0xbd730216	-0.05932816
90	0x3e28d17a	0.16486159
91	0xbda6a246	-0.0813642
92	0x3dffc4b5	0.12488691
93	0xbd889380	-0.066687584
94	0xbdaf1b38	-0.085501134
95	0x3d8819d1	0.06645549
96	0xbdc0735e	-0.093970045
97	0x3d0d1294	0.034441546
98	0x3e431c24	0.19053704
99	0xbd6dee79	-0.058088753
100	0xbd41b3a7	-0.04729047
101	0xbdc22812	-0.09480299
102	0xbd001ff7	-0.031280484
103	0xbe193ffb	-0.14965813
104	0x3e38ed02	0.18059161
105	0xbd5078e5	-0.050896544
106	0xbd4b63fc	-0.0496559
107	0x3e0afadb	0.13572256
108	0x3d2e0f6f	0.042495187
109	0x3c63ddea	0.013907889
110	0xbd576e96	-0.052595697
111	0xbe856b8a	-0.26058608
112	0x3c4843ad	0.012223166
113	0x3dfcead1	0.12349475
114	0xbc850fc0	-0.016242862
115	0x3e316510	0.17323709
116	0xbcf044fe	-0.029329773
117	0xbc455140	-0.012043297
118	0x3e0c266f	0.13686536
119	0xbbbfabf3	-0.0058493554
120	0x3d3b11b2	0.045671172
121	0xbd11cd7e	-0.035596363
122	0xbe1f713d	-0.1557054
123	0x3d5a169e	0.053244226
124	0xbded4cdd	-0.11586926
125	0xbd8c6edf	-0.068570845
126	0x3da05ba9	0.07829983
127	0x3dc79e8d	0.09747038
128	0x3dc31400	0.09525299
129	0x3e455e7f	0.19274329
130	0x3d5408ea	0.051766314
131	0x3d4c053b	0.049809676
132	0xbd995fe0	-0.0748899
133	0xbd646aa8	-0.055765778
134	0x3de2cd57	0.11074322
135	0xbceffc67	-0.02929516
136	0x3e4107d7	0.18850647
137	0x3e0959db	0.13413183
138	0x3c9d4fdf	0.019203125
139	0xbd55a7d9	-0.052162025
140	0x3d6ce6b7	0.057837214
141	0xbe1697bd	-0.14706321
142	0xbdc21ddc	-0.094783515
143	0xbe276f99	-0.16351165
144	0xbde1639e	-0.110053286
145	0xbdf7f4ca	-0.12107237
146	0xbe274ac2	-0.16337112
147	0xbd82918d	-0.06375418
148	0xbcb2b717	-0.02181582
149	0xbd511e05	-0.05105402
150	0x3d444c3d	0.04792427
151	0xbe07e2da	-0.13270131
152	0xbc0e13ce	-0.008671714
153	0xbe15b4f1	-0.14619805
154	0x3d169840	0.03676629
155	0x3e31d282	0.17365459
156	0xbe1e5009	-0.15460218
157	0x3c9c8294	0.019105233
158	0x3e04c7c0	0.12966824
159	0x3bcedafd	0.0063127265
160	0x3c14ba2f	0.009077593
161	0x3d685215	0.056718905
162	0x3d2e6b48	0.04258278
163	0x3da1c1c6	0.078982875
164	0x3c8e2ed6	0.017356317
165	0x3c6983a6	0.014252579
166	0xbe508725	-0.20364054
167	0x3e22d8e6	0.15903053
168	0x3e3fc402	0.18727115
169	0x3d85fc0d	0.065422155
170	0xbda549e2	-0.08070733
171	0x3e660af4	0.22465116
172	0xba8ecdc6	-0.0010895065
173	0xbd61a8ff	-0.055092808
174	0x3d95af12	0.07308783
175	0xbda75613	-0.08170714
176	0xbc6ee36e	-0.014580591
177	0xbd9cc502	-0.07654764
178	0xbdee6e11	-0.11642087
179	0x3dfa4f9c	0.122222155
180	0x3d08b586	0.03337624
181	0x3d0f082d	0.034919906
182	0x3cef2a88	0.029195085
183	0xbda8144a	-0.08206995
184	0xbc9b52f7	-0.01896046
185	0xbdcd7d39	-0.1003365
186	0xbd27d802	-0.040977485
187	0x3e51fe49	0.20507158
188	0x3d1196cf	0.035544213
189	0x3d1bc595	0.038030226
190	0x3c43684e	0.011926724
191	0xbccf8b49	-0.025334971
192	0x3d2c70de	0.042099826
193	0x3e078bc8	0.13236916
194	0x3d8cdfca	0.06878622
195	0xbc6c641a	-0.014428163
196	0x3c6f5fe3	0.0146102635
197	0x3e1a32da	0.15058461
198	0xbe04e23a	-0.12976924
199	0x3c26c329	0.010178366
200	0x3d745d9e	0.059659593
201	0x3e695b0d	0.2278864
202	0x3ddff7df	0.109359495
203	0xbc41d39b	-0.011830236
204	0x3d852dd1	0.065028794
205	0x3d996e49	0.07491738
206	0xbd5af98e	-0.05346065
207	0xbd8e41e6	-0.06946163
208	0x3d280db1	0.041028682
209	0x3e33a7ce	0.17544481
210	0xbd7541b1	-0.0598771
211	0xbd84247a	-0.0645227
212	0x3dd95c89	0.10613353
213	0xbe21a267	-0.15784608
214	0x3da8ea77	0.082478456
215	0xbdd92626	-0.10602979
216	0xbc2bfd9c	-0.010497477
217	0x3de7c527	0.11316901
218	0x3db59c80	0.08867741
219	0x3c7fb000	0.0156059265
220	0xbda81511	-0.08207143
221	0xbd9ec0dc	-0.07751629
222	0xbdb8ebfe	-0.09029387
223	0xbe7c8cfe	-0.24663159
224	0x3c9fe035	0.01951609
225	0xbc0a16e3	-0.008428308
226	0xbce60183	-0.028076893
227	0xbdc7d634	-0.09757653
228	0xbd116a21	-0.035501603
229	0xbd8c8edb	-0.06863185
230	0xbd46fb4b	-0.048579495
231	0xbc916380	-0.01774764
232	0xbde7ede1	-0.11324669
233	0xbd0ae3ae	-0.03390854
234	0x3e1c98f0	0.15292716
235	0xbe5398e1	-0.20663787
236	0x3d9484e4	0.072519094
237	0x3dc84f60	0.097807646
238	0x3dde0896	0.108414814
239	0x3d56d00a	0.052444495
240	0x3cfd83b3	0.030946588
241	0xbb2bf2d5	-0.0026237268
242	0x3c7e3726	0.015516078
243	0x3db0585b	0.086106025
244	0x3db96bef	0.0905379
245	0x3d084aef	0.033274587
246	0x3d82cf23	0.063871644
247	0xbd5d7f8c	-0.054076716
248	0xbd617500	-0.05504322
249	0x3df6de6a	0.12054141
250	0xbe901d06	-0.28147143
251	0x3c45114b	0.012028049
252	0xbe0e04c2	-0.13869002
253	0xbe27a72a	-0.16372362
254	0x3e71733e	0.23579118
255	0xbd950dcc	-0.07278022

model/gru_3/gru_cell/MatMul/ReadVariableOp/resource:0 f4 [32, 96]
0	0x3e06b17e	0.13153645
1	0x3de04e32	0.109524146
2	0x3d9e1769	0.07719309
3	0xbe456246	-0.1927577
4	0xbd1c536f	-0.038165506
5	0x3e57f76c	0.21090478
6	0xbdc69968	-0.09697229
7	0xbe06f344	-0.13178736
8	0x3e096551	0.13417555
9	0xbb30395a	-0.0026889653
10	0x3da1d01a	0.0790102
11	0x3ddca51e	0.10773681
12	0xbd1c6520	-0.038182378
13	0xbdc3d2dc	-0.095617026
14	0x3e30313f	0.17206286
15	0xbe1d04f3	-0.15333919
16	0x3c75ff3c	0.015014466
17	0x3dd7d924	0.10539463
18	0xbdbeaf39	-0.09310765
19	0x3c99c999	0.018772887
20	0x3cad2dc2	0.021139983
21	0xbd102f19	-0.035201166
22	0xbe22d837	-0.15902792
23	0xbe427d5e	-0.18993136
24	0xbe13e4f8	-0.14442813
25	0xbe52c21b	-0.20581858
26	0xbdbdb232	-0.09262504
27	0x3e3a8bc0	0.18217373
28	0x3e57d0c2	0.21075729
29	0x3e2fb58b	0.17159097
30	0x3dc43107	0.09579664
31	0xbe1b4191	-0.1516173
32	0xbc117dcf	-0.008880093
33	0x3e1c56bd	0.15267463
34	0xbdf42431	-0.119209655
35	0x3e1a1ec8	0.15050805
36	0x3d2bc88c	0.041939303
37	0x3e23cfce	0.1599724
38	0x3df8b661	0.12144161
39	0x3e58572b	0.21127002
40	0xbe0616e9	-0.13094677
41	0xbd1196f4	-0.03554435
42	0xbe49b6b3	-0.196986
43	0xbd1d8066	-0.03845253
44	0x3c8e0bd7	0.01733963
45	0xbdd2254d	-0.10261021
46	0xbe3546d9	-0.17702807
47	0xbe0d099b	-0.13773195
48	0xbe484ffa	-0.19561759
49	0xbc7a5049	-0.015277931
50	0x3dc9797b	0.09837624
51	0x3e1b60e3	0.15173678
52	0x3e444e27	0.19170438
53	0xbdd92698	-0.10603064
54	0xbc01604b	-0.007896493
55	0xbe3231bd	-0.17401786
56	0x3e5c4c13	0.21513395
57	0xbe20d69a	-0.15706864
58	0x3e0d73c3	0.13813691
59	0x3e3720c6	0.17883596
60	0xbe14c918	-0.14529836
61	0x3d729622	0.05922521
62	0x3e3a6017	0.18200718
63	0x3e44b68b	0.1921026
64	0x3c8e124d	0.01734271
65	0x3d39973c	0.045310244
66	0x3e3a0592	0.18166187
67	0x3d31c82e	0.043403797
68	0x3d539f50	0.051665604
69	0xbe267d2a	-0.16258684
70	0x3e308f44	0.17242151
71	0xbe0480a3	-0.12939696
72	0xbcff803d	-0.031189078
73	0x3e60bdef	0.21947454
74	0xbdf7d41f	-0.12101006
75	0xbd78b8c8	-0.060723096
76	0xbe0b2c72	-0.13591173
77	0xbe3ab087	-0.18231402
78	0xbc50c3df	-0.012742012
79	0xbd7908fb	-0.06079958
80	0xbd90079a	-0.070327
81	0xbcf93b1b	-0.030423691
82	0xbdcc9b43	-0.09990551
83	0xbd66be21	-0.056333665
84	0x3d8a2ad5	0.06746451
85	0xbd82527b	-0.06363388
86	0x3c04fdc9	0.008117148
87	0xbe137e7e	-0.14403722
88	0xbdd4e6f1	-0.10395611
89	0x3e49d777	0.197111
90	0x3e1cb912	0.15304974
91	0xbe3a794a	-0.1821033
92	0xbe4135b7	-0.18868147
93	0x3e05e940	0.13077259
94	0x3e30fe14	0.17284423
95	0xbdad6487	-0.0846644
96	0x3e03e30f	0.12879585
97	0x3ca43438	0.020044431
98	0xbe41efbc	-0.18939108
99	0xbd648c7e	-0.055798046
100	0xbe0e1e72	-0.13878801
101	0x3da7c6f5	0.08192245
102	0xbe23c541	-0.15993215
103	0x3e1f49d9	0.15555514
104	0x3d131feb	0.03591911
105	0xbd44824b	-0.04797582
106	0x3e124909	0.14285673
107	0xbe463057	-0.19354378
108	0xbdd988f9	-0.106218286
109	0xbe4d22d6	-0.2003282
110	0x3d664477	0.056217637
111	0x3dfc3d40	0.1231637
112	0xbdabc1dd	-0.08386586
113	0xbe38b44e	-0.18037531
114	0xbda1d471	-0.07901848
115	0xbe11b619	-0.14229621
116	0xbe158c69	-0.14604343
117	0x3d30c622	0.043157704
118	0xbb9f75b7	-0.0048663276
119	0x3e15eec1	0.14641859
120	0xbe397568	-0.18111193
121	0x3df71181	0.120638855
122	0x3e12a220	0.14319658
123	0xbdf74f3a	-0.12075658
124	0x3d547ad6	0.051874958
125	0x3e05cf95	0.13067468
126	0xbe35c965	-0.17752607
127	0xbe10e0a9	-0.14148201
128	0x3e4faabe	0.20279977
129	0x3d0147f8	0.031562775
130	0x3e529288	0.2056371
131	0x3e1ee99f	0.15518807
132	0x3e4f62e8	0.20252573
133	0xbe22a3d0	-0.15882802
134	0xbe2dfac7	-0.16990195
135	0x3db80019	0.089843936
136	0x3d518f6b	0.051162165
137	0x3bb168a0	0.0054140836
138	0x3d24d384	0.04024078
139	0x3df07765	0.11741523
140	0x3df02c9a	0.11727257
141	0xbe537d9e	-0.20653388
142	0x3e22381d	0.15841718
143	0x3d5e4eb4	0.054274276
144	0xbd1f84d5	-0.038945038
145	0xbe365765	-0.17806776
146	0xbd9980bc	-0.07495257
147	0xbd2b4ee0	-0.041823268
148	0x3e13cd9c	0.14433903
149	0xbbc38354	-0.0059665833
150	0x3de70ce7	0.11281758
151	0x3cecdfb5	0.028915266
152	0x3e2fd058	0.1716932
153	0x3dd52d2c	0.104090065
154	0x3dc558f1	0.09636105
155	0xbe59b680	-0.21261024
156	0x3da3028e	0.07959472
157	0xbe4932a9	-0.19648232
158	0x3dc88074	0.097901255
159	0xbdcaea8f	-0.0990802
160	0xbdfa441b	-0.12220021
161	0x3e3d441f	0.18483017
162	0xbe14f16c	-0.1454522
163	0xbe310393	-0.1728652
164	0xbe6050a9	-0.2190577
165	0xbe177264	-0.1478973
166	0xbcb53141	-0.022118213
167	0x3e03c010	0.12866235
168	0xbb2b25a0	-0.0026114956
169	0x3db0e4da	0.086374
170	0xbda5a5b9	-0.0808825
171	0x3d9e8985	0.077410735
172	0xbdf38ba0	-0.11891866
173	0x3dbe8d09	0.09304244
174	0x3d811cea	0.06304343
175	0xbdfdb3d3	-0.123878144
176	0xbcb24cef	-0.0217652
177	0x3de61829	0.11235077
178	0xbd5bcf43	-0.053664457
179	0x3e087539	0.13325967
180	0xbe1f8fa8	-0.15582144
181	0xbcd0af37	-0.025474174
182	0xbdeddd2c	-0.11614451
183	0x3dbfeb0a	0.09371002
184	0x3dd38a52	0.10329117
185	0x3d4d8c60	0.0501827
186	0x3c77fc5f	0.015135854
187	0xbdc37c0a	-0.09545143
188	0xbe28cc3b	-0.16484158
189	0xbdbb499d	-0.091449
190	0x3d12cce5	0.035839934
191	0xbcc7b6df	-0.024379192
192	0xbe4ccbb2	-0.19999579
193	0x3d9cfab1	0.07665003
194	0x3e50b2e0	0.20380735
195	0xbcfb5f0d	-0.030684972
196	0xbe3ef8da	-0.18649617
197	0x3e40c651	0.18825652
198	0x3dd94480	0.106087685
199	0xbcdf3bee	-0.027250256
200	0xbcaeacef	-0.021322696
201	0xbe752287	-0.23938952
202	0xbe468285	-0.19385727
203	0xbc80045f	-0.015627084
204	0x3e36eed6	0.17864546
205	0x3e09c445	0.13453777
206	0xbd746be1	-0.059673194
207	0xbb645f8a	-0.0034846985
208	0x3cec9661	0.0288803
209	0xbe051e45	-0.12999828
210	0x3de21b6c	0.110403866
211	0xbd9aaf93	-0.075530194
212	0xbe3746c9	-0.17898096
213	0xbe3731b3	-0.17890052
214	0xbe4e7d5e	-0.20165011
215	0x3e485d17	0.19566761
216	0x3dc7c5ee	0.09754549
217	0x3d45c6ee	0.048285417
218	0x3dfe5bf2	0.12419881
219	0x3e317073	0.17328052
220	0x3c77b02a	0.015117684
221	0xbd8de251	-0.06927932
222	0x3da6f78e	0.08152686
223	0xbe195e38	-0.14977348
224	0x3dfe3e58	0.12414235
225	0xbe4144a7	-0.18873845
226	0x3dd50d01	0.10402871
227	0xbe1606fe	-0.14651105
228	0xbdb0498f	-0.0860778
229	0x3e0cfbf6	0.1376799
230	0xbdc2596a	-0.09489711
231	0xbe54b0f8	-0.20770633
232	0x3e5a5ea5	0.21325167
233	0x3e09f534	0.13472444
234	0xbdf3d889	-0.11906535
235	0xbe04de28	-0.12975371
236	0x3cfa61cd	0.030564213
237	0x3de5e2aa	0.11224873
238	0x3d981226	0.074253365
239	0xbdb91ddb	-0.090388976
240	0xbe0d51e0	-0.13800764
241	0xbd114d5d	-0.03547417
242	0xbe496ed6	-0.19671187
243	0x3d50f582	0.051015384
244	0xbe45adb3	-0.19304542
245	0xbd164813	-0.03668983
246	0xbe473586	-0.19454011
247	0x3c792639	0.015206867
248	0x3e025ce0	0.12730742
249	0xbde4af59	-0.111662574
250	0x3dcd10a3	0.10012939
251	0x3de0862b	0.109630905
252	0x3dda0ee2	0.1064737
253	0x3de858ee	0.11345087
254	0xbdb443e3	-0.08802011
255	0x3dcec14b	0.100954615

model/gru_2/gru_cell/ReadVariableOp/resource:0 f4 [2, 96]
0	0x3a8ac31b	0.001058671
1	0xbbd5b3f4	-0.006521696
2	0xbd95d04c	-0.0731512
3	0xbce671ce	-0.028130438
4	0x3b1dd5e4	0.0024083788
5	0xbd5a38bc	-0.053276762
6	0xb98edb2a	-0.0002724764
7	0xbd402cf9	-0.04691789
8	0xbd5c57d9	-0.053794716
9	0x3c24c6b6	0.010057142
10	0xbc614bab	-0.013750951
11	0x3bb383c8	0.005478356
12	0xbabdf513	-0.0014492593
13	0xbca1c891	-0.019748958
14	0x3b9cecaa	0.0047889547
15	0xbd59a146	-0.053132318
16	0xbca1fcd8	-0.019773886
17	0xbaafa76d	-0.0013401337
18	0xbb9b2089	-0.004734103
19	0x3bd64e19	0.0065400717
20	0xbd36ca9e	-0.044626825
21	0xbc52b14f	-0.0128596565
22	0x3a2e6d74	0.0006653883
23	0x3bb2453e	0.005440383
24	0xbb14c637	-0.0022701153
25	0xbd42ec20	-0.047588468
26	0xbcc121d4	-0.0235757
27	0xbb8c6abd	-0.004285185
28	0xbd39b423	-0.045337807
29	0x3c06f04c	0.008236002
30	0xbbed2f09	-0.007238273
31	0xbd63c0bc	-0.055603728
32	0xba86afa0	-0.0010275729
33	0xba99ccf3	-0.0011734053
34	0xbc587edb	-0.013213838
35	0xbce3b64e	-0.02779689
36	0x3ae3a807	0.0017368802
37	0xbbf9be92	-0.0076215947
38	0x3c854dee	0.016272511
39	0x3b9663ba	0.004589525
40	0x3a5b4274	0.00083640893
41	0xbc25b4fe	-0.010113953
42	0xbcb96a77	-0.022633774
43	0x3c65982f	0.014013334
44	0x3b69acc0	0.0035655946
45	0x3b8e9a05	0.0043518567
46	0xbbb87a2c	-0.0056297984
47	0xbd31d40d	-0.043415118
48	0xb9b1658c	-0.0003383573
49	0xbc4044b0	-0.011735126
50	0xbb61fd75	-0.0034483348
51	0xbc5f283c	-0.0136204325
52	0x3b94a7b3	0.004536593
53	0xbc1ad841	-0.009450973
54	0x3c620ea7	0.013797439
55	0x3c9f4d6e	0.019446101
56	0x3c2e3c1e	0.01063445
57	0x3bae2ae7	0.005315173
58	0xbc1b7f0a	-0.009490738
59	0xbab15d3e	-0.0013531817
60	0x3b988d79	0.0046555367
61	0xba455b97	-0.00075286016
62	0xbca8b7d4	-0.020595469
63	0x3bba5454	0.005686322
64	0xbc7215dd	-0.01477572
65	0xbc2df54c	-0.010617565
66	0x3bfe9ab3	0.0077699064
67	0x3bf14221	0.0073626195
68	0x3b18088c	0.0023198454
69	0x3ca6eceb	0.020376643
70	0xbc8804cb	-0.016603848
71	0x3be17f53	0.0068816333
72	0x3bdbbb60	0.0067056865
73	0xbc97feb1	-0.018554064
74	0x3b8a091f	0.004212513
75	0xbc5b14f4	-0.013371695
76	0xbc91111e	-0.017708357
77	0x3c07090c	0.008241903
78	0x3cd93f5a	0.026519466
79	0x3ce0457c	0.027376883
80	0x39aa8d97	0.0003253042
81	0xbc446d4b	-0.011988948
82	0x3b971403	0.00461054
83	0xbc7757dc	-0.015096631
84	0x3c08b018	0.008342765
85	0xbb0157bc	-0.0019736132
86	0xbc4c7584	-0.01247919
87	0xbc5bfff9	-0.013427728
88	0xbcbeaa84	-0.023274668
89	0x3bdddfed	0.006771079
90	0x3b8104f6	0.003937359
91	0x3b089301	0.0020839574
92	0x3bf659c5	0.0075180256
93	0xbbe883fc	-0.007095812
94	0x3bdb61e4	0.006695019
95	0x3c06150c	0.008183729
96	0x3a8ac31b	0.001058671
97	0xbbd5b3f4	-0.006521696
98	0xbd95d04c	-0.0731512
99	0xbce671ce	-0.028130438
100	0x3b1dd5e4	0.0024083788
101	0xbd5a38bc	-0.053276762
102	0xb98edb2a	-0.0002724764
103	0xbd402cf9	-0.04691789
104	0xbd5c57d9	-0.053794716
105	0x3c24c6b6	0.010057142
106	0xbc614bab	-0.013750951
107	0x3bb383c8	0.005478356
108	0xbabdf513	-0.0014492593
109	0xbca1c891	-0.019748958
110	0x3b9cecaa	0.0047889547
111	0xbd59a146	-0.053132318
112	0xbca1fcd8	-0.019773886
113	0xbaafa76d	-0.0013401337
114	0xbb9b2089	-0.004734103
115	0x3bd64e19	0.0065400717
116	0xbd36ca9e	-0.044626825
117	0xbc52b14f	-0.0128596565
118	0x3a2e6d74	0.0006653883
119	0x3bb2453e	0.005440383
120	0xbb14c637	-0.0022701153
121	0xbd42ec20	-0.047588468
122	0xbcc121d4	-0.0235757
123	0xbb8c6abd	-0.004285185
124	0xbd39b423	-0.045337807
125	0x3c06f04c	0.008236002
126	0xbbed2f09	-0.007238273
127	0xbd63c0bc	-0.055603728
128	0xba86afa0	-0.0010275729
129	0xba99ccf3	-0.0011734053
130	0xbc587edb	-0.013213838
131	0xbce3b64e	-0.02779689
132	0x3ae3a807	0.0017368802
133	0xbbf9be92	-0.0076215947
134	0x3c854dee	0.016272511
135	0x3b9663ba	0.004589525
136	0x3a5b4274	0.00083640893
137	0xbc25b4fe	-0.010113953
138	0xbcb96a77	-0.022633774
139	0x3c65982f	0.014013334
140	0x3b69acc0	0.0035655946
141	0x3b8e9a05	0.0043518567
142	0xbbb87a2c	-0.0056297984
143	0xbd31d40d	-0.043415118
144	0xb9b1658c	-0.0003383573
145	0xbc4044b0	-0.011735126
146	0xbb61fd75	-0.0034483348
147	0xbc5f283c	-0.0136204325
148	0x3b94a7b3	0.004536593
149	0xbc1ad841	-0.009450973
150	0x3c620ea7	0.013797439
151	0x3c9f4d6e	0.019446101
152	0x3c2e3c1e	0.01063445
153	0x3bae2ae7	0.005315173
154	0xbc1b7f0a	-0.009490738
155	0xbab15d3e	-0.0013531817
156	0x3b988d79	0.0046555367
157	0xba455b97	-0.00075286016
158	0xbca8b7d4	-0.020595469
159	0x3bba5454	0.005686322
160	0xbc70e8ed	-0.014703971
161	0xbc2de59f	-0.010613828
162	0x3c05ef23	0.00817469
163	0x3bf8867b	0.0075843907
164	0x3b1a8923	0.0023580275
165	0x3ca734b8	0.02041088
166	0xbc88e1f6	-0.01670931
167	0x3bdac961	0.0066768383
168	0x3bda7155	0.0066663423
169	0xbc977e2b	-0.018492779
170	0x3b82bc7a	0.0039897533
171	0xbc5bb512	-0.01340987
172	0xbc901667	-0.017588807
173	0x3c00ba52	0.007856922
174	0x3cd4cc36	0.025976282
175	0x3ce0b315	0.027429143
176	0x390758e2	0.00012907715
177	0xbc448eae	-0.011996908
178	0x3b98b40b	0.0046601347
179	0xbc787fef	-0.0151672205
180	0x3c068c2d	0.008212131
181	0xbb12766e	-0.0022348422
182	0xbc4cdb0d	-0.012503398
183	0xbc5e56a6	-0.013570463
184	0xbcbfab09	-0.023396986
185	0x3bd899fa	0.0066101523
186	0x3b84d063	0.004053162
187	0x3b0675a0	0.0020516887
188	0x3befe7ab	0.007321318
189	0xbbfa0be8	-0.007630814
190	0x3bdcb0cf	0.0067349444
191	0x3c02b88e	0.007978572

model/gru_2/gru_cell/MatMul_1/ReadVariableOp/resource:0 f4 [32, 96]
0	0x3e0971c5	0.13422306
1	0xbb4561d9	-0.0030118136
2	0x3d6814fe	0.056660645
3	0x3d22e4ec	0.0397691
4	0x3d3ccaf2	0.04609198
5	0x3dfd65ec	0.12372956
6	0x3daa2c86	0.083092734
7	0xbdb09ff2	-0.08624257
8	0xbce88a60	-0.028386295
9	0x3d4a7b13	0.04943378
10	0x3d59ee9d	0.053206075
11	0x3d49cfe6	0.049270533
12	0xbdafee77	-0.085904054
13	0x3e27bbf9	0.163803
14	0xbd9b0e24	-0.075710565
15	0xbe139c41	-0.14415075
16	0xbd9e875b	-0.07740661
17	0xbc9b1865	-0.01893253
18	0x3d604146	0.05474975
19	0x3bf32903	0.0074206605
20	0xbd0b2159	-0.03396735
21	0x3df026af	0.11726128
22	0x3e222ac5	0.15836628
23	0xbd95c476	-0.073128626
24	0xbdd04114	-0.10168663
25	0x3a37bfaf	0.0007009459
26	0xbe5675c3	-0.2094336
27	0xbcbd0945	-0.02307571
28	0xbccb0853	-0.024784243
29	0x3d7404b5	0.0595748
30	0x3b50cf09	0.0031861684
31	0xbda25b4f	-0.07927572
32	0x3d38b68e	0.045095973
33	0x3c2167b8	0.009851389
34	0xbd5d25ad	-0.05399101
35	0xbda02444	-0.07819417
36	0xbbf42d83	-0.0074517145
37	0x3e866943	0.26252183
38	0x3da58412	0.08081831
39	0x3d9b841f	0.075935595
40	0xbd0bfcf0	-0.034176767
41	0x3cd43e46	0.0259086
42	0xbe074dd7	-0.13213287
43	0x3cee6474	0.029100634
44	0xbd83a342	-0.06427623
45	0x3e821617	0.25407478
46	0xbe20eddc	-0.15715736
47	0xbdd479a6	-0.10374765
48	0xbe2fb739	-0.17159738
49	0xbdf4042e	-0.1191486
50	0x3d6da50f	0.05801874
51	0xbe27667a	-0.16347685
52	0xbd16221d	-0.036653627
53	0xbd15e045	-0.036590833
54	0xbdc8f191	-0.098117
55	0x3da8fa6e	0.08250891
56	0x3d6e888c	0.05823569
57	0xbe089cb7	-0.13341032
58	0xbd3b0b5e	-0.045665137
59	0x3db71aea	0.0894068
60	0x3d036201	0.032075886
61	0x3c1014ba	0.008794004
62	0x3e29ff0b	0.16601197
63	0x3d168ba4	0.036754265
64	0x3e050368	0.1298958
65	0x3e57643c	0.2103433
66	0xbe0d2815	-0.13784821
67	0x3d955e9c	0.07293436
68	0x3d96684c	0.07344112
69	0x3d108a3e	0.035288088
70	0xbdf2525c	-0.11832115
71	0x3ae3f1ab	0.0017390748
72	0xbe19cfcc	-0.15020674
73	0xbd2eca3e	-0.042673342
74	0x3d03b38f	0.032153662
75	0x3d5c66b8	0.053808898
76	0xbdf958e0	-0.12175155
77	0xbdd37557	-0.10325115
78	0xbd1b0c81	-0.03785372
79	0x3dba13a1	0.09085775
80	0x3e4f5ca7	0.20250188
81	0x3d38a5d9	0.04508004
82	0x3d56109c	0.052261934
83	0xbe3d00b9	-0.18457307
84	0x3bf2ae57	0.007406037
85	0xbdc2bb12	-0.09508337
86	0xbe651c1e	-0.22374007
87	0xbe04dbcd	-0.12974472
88	0xbd884d18	-0.066553295
89	0x3e032c4d	0.12809868
90	0xbb807310	-0.0039199665
91	0x3de582ed	0.11206613
92	0xbdae4a23	-0.08510234
93	0xbd9da597	-0.076975994
94	0xbd4daa28	-0.0502111
95	0x3de2bda6	0.11071329
96	0xbe6fc8a3	-0.2341638
97	0xbccde463	-0.025133317
98	0x3cfc029a	0.03076296
99	0x3d7d92bf	0.061907526
100	0x3cd47323	0.025933808
101	0xbd3e2bb9	-0.046428416
102	0x3dc271ac	0.094943374
103	0x3d8fa112	0.070131436
104	0xbe34ece6	-0.17668495
105	0x3c97a4c5	0.018511185
106	0x3e3be03a	0.18347254
107	0x3da6ce14	0.08144775
108	0xbdefcb2c	-0.11708674
109	0x3b9299c9	0.004473899
110	0xbdb977c8	-0.090560496
111	0xbb3c5a2e	-0.0028740275
112	0x3c9af6bd	0.018916482
113	0x3d919bef	0.0710982
114	0xbd514046	-0.051086687
115	0x3e0e2069	0.13879551
116	0xbd899fb1	-0.06719912
117	0xbd9da07a	-0.07696624
118	0xbc91e7ff	-0.01781082
119	0xbe377f5e	-0.1791968
120	0x3ccf107d	0.025276417
121	0xbc43a991	-0.011942283
122	0x3e082354	0.13294727
123	0xbdf4bb2b	-0.11949762
124	0xbce3505e	-0.027748283
125	0x3dbbd995	0.0917236
126	0x3d986a62	0.07442166
127	0xbcc534c1	-0.024073007
128	0xbe49c340	-0.19703388
129	0xbcd41a81	-0.025891544
130	0xbd997cb5	-0.07494489
131	0xbe67f5ac	-0.2265231
132	0xbc7195e3	-0.014745208
133	0x3e227694	0.15865546
134	0x3d884334	0.06653443
135	0xbd89cf41	-0.06728984
136	0x3dbf56e1	0.09342743
137	0xbd9e7d14	-0.077387005
138	0xbd07ce3d	-0.03315567
139	0x3d9d0cab	0.07668432
140	0x3cc7e9e5	0.024403522
141	0xbd7848ea	-0.06061641
142	0xbcd54571	-0.026034089
143	0x3e283d26	0.16429576
144	0xbd709edb	-0.058745246
145	0xbce4d452	-0.027933273
146	0x3dd2c6a0	0.10291791
147	0x3e085bf2	0.13316324
148	0xbe06ea17	-0.13175236
149	0xbe33e479	-0.17567624
150	0x3d6e556c	0.058186933
151	0xbd551cb0	-0.05202931
152	0x3d8f510d	0.06997881
153	0xbc629616	-0.013829729
154	0x3e03eff6	0.12884507
155	0x3b466f10	0.00302786
156	0xbd72bc17	-0.059261408
157	0x3be46f1f	0.0069712545
158	0xbe47e736	-0.19521794
159	0x3dcc7b1f	0.09984421
160	0xbde15829	-0.11003143
161	0x3c8331c4	0.016014941
162	0x3e44e4ab	0.19227855
163	0x3d65d068	0.056106955
164	0x3dfaf4fb	0.122537576
165	0x3e240fd4	0.16021663
166	0xbe2beca8	-0.16789496
167	0x3e0246f3	0.12722377
168	0xbc9011e6	-0.01758666
169	0xbbfbe6c4	-0.0076874215
170	0xbe0d7a8c	-0.13816279
171	0xbd942b3b	-0.07234808
172	0xbc35b523	-0.01109055
173	0xbcfae9b8	-0.030629024
174	0xbe20fd34	-0.1572159
175	0xbd710f85	-0.05885269
176	0xbd760979	-0.060067628
177	0x3d662070	0.05618328
178	0x3db968f2	0.0905322
179	0xbc380209	-0.011230954
180	0xbdf3e3a5	-0.11908654
181	0xbd5ba1d2	-0.05362112
182	0x3d0fbb7c	0.03509091
183	0x3d83c21d	0.064335085
184	0x3e0442f7	0.1291617
185	0x3e08ba6a	0.13352361
186	0xbda2e079	-0.07952971
187	0xbd69b039	-0.057052825
188	0xbd598cce	-0.053112797
189	0xbe7357b8	-0.23763931
190	0xbe34aac1	-0.17643262
191	0x3c2f3726	0.010694301
192	0x3dcfe037	0.101501875
193	0x3d381575	0.044942338
194	0xbe534a65	-0.20633848
195	0xbe073b51	-0.13206221
196	0xbe507e45	-0.20360668
197	0xbd8eb8fa	-0.06968875
198	0xbcbfeb97	-0.023427768
199	0xba0787ad	-0.00051700586
200	0xbe21ad2a	-0.15788713
201	0x3c8a278b	0.016864559
202	0x3e1fdb7d	0.15611072
203	0x3cef22c6	0.029191386
204	0xbd2fa910	-0.04288584
205	0x3c4a4bc6	0.012347167
206	0xbce78c5d	-0.028265173
207	0xbe6fa574	-0.23402959
208	0xbd0e964f	-0.034811314
209	0xbdcde2be	-0.10053013
210	0xbc6314b4	-0.0138599165
211	0x3e16b10d	0.14715977
212	0xbd3a25de	-0.04544627
213	0x3d94c8f4	0.07264891
214	0xbe02889c	-0.12747425
215	0x3d1a8f32	0.037734218
216	0xbdff36ea	-0.12461646
217	0x3b17732a	0.0023109415
218	0x3d7f9d2f	0.06240576
219	0x3cceaef6	0.025229912
220	0x3caa8423	0.02081496
221	0xbe18072a	-0.14846483
222	0xbe7caea0	-0.24675989
223	0x3d7dbabb	0.06194566
224	0x3d955137	0.07290881
225	0xbdbe6f29	-0.09298546
226	0xbe29a1d0	-0.16565633
227	0xbdb4bd79	-0.088252015
228	0x3de0155c	0.10941574
229	0xbd9469a2	-0.0724671
230	0x3e09893f	0.13431261
231	0x3d8af67c	0.067852944
232	0xbe163b31	-0.14671017
233	0xbdb643a6	-0.08899622
234	0xbc8bfb8a	-0.017087717
235	0x3e634d97	0.22197567
236	0x3d711360	0.058856368
237	0xbdb3f312	-0.08786596
238	0xbe0c2e39	-0.13689508
239	0xbd5ca4ee	-0.053868227
240	0x3d8aee60	0.06783748
241	0x3d9d16f5	0.07670394
242	0xbb50b42d	-0.0031845674
243	0x3e0ce6ed	0.13759966
244	0x3d0ffd6e	0.0351538
245	0xbe970df2	-0.29502827
246	0x3c9ec8a9	0.019382792
247	0xbb97967a	-0.0046260925
248	0xbd548fc2	-0.05189491
249	0xbdbe3992	-0.092883244
250	0xbdb5ceb9	-0.0887732
251	0xbdba00d0	-0.09082186
252	0x3d4201bd	0.04736494
253	0xbd52d9ad	-0.051477123
254	0x3b45622c	0.003011833
255	0x3dd83baf	0.10558259
