models/hourly/model.onnx (onnx, 471994 bytes, 17 tensors)

model/quant_dense_2/LastValueQuant/FakeQuantWithMinMaxVars__56 f4 [32, 1]
-0.27427334 0.07335217 -0.32211173 0.23281342 -0.0255138 0.37951776 -0.09567675 0.39865312
0.127569 0.40503156 -0.003189225 -0.12119055 -0.18178582 0.07973062 -0.1148121 -0.16265048
0.14670435 0.14351512 0.36357164 0.36038244 -0.39546388 0.0765414 0.27746257 0.09567675
-0.13713667 -0.26151645 -0.12119055 0.04464915 0.34124708 -0.23600265 0.23919187 0.3316794
00000000: 8e6d 8cbe aa39 963d d4eb a4be a466 6e3e
00000010: 5102 d1bc 2750 c23e 2cf2 c3bd 431c cc3e
00000020: 73a1 023e 4c60 cf3e 5102 51bb c032 f8bd
00000030: 1026 3abe cf49 a33d 9b22 ebbd d98d 26be
00000040: aa39 163e a1f5 123e 1026 ba3e 0c84 b83e
00000050: 3e7a cabe bdc1 9c3d 930f 8e3e 2cf2 c33d
00000060: 8e6d 0cbe 7ce5 85be c032 f8bd 07e2 363d
00000070: f0b7 ae3e aeaa 71be b7ee 743e e2d1 a93e

model/quant_dense_1/LastValueQuant/FakeQuantWithMinMaxVars__55 f4 [64, 32]
-0.0024000013 0.06480003 0.16800009 0.12240007 -0.09360005 -0.103200056 -0.21120012 0.09600005
-0.23280013 0.21120012 0.079200044 -0.033600017 0.091200046 0.15840009 -0.24720013 -0.23520012
0.045600023 -0.091200046 0.108000055 -0.108000055 0.24720013 0.20640011 0.06240003 0.14880008
0.016800009 -0.21840012 -0.014400007 0.20640011 0.1920001 -0.18240009 -0.13200007 0.045600023
-0.012000007 0.016800009 -0.1800001 -0.07200004 0.12960006 0.031200016 -0.103200056 0.05760003
-0.21360011 0.1800001 -0.03600002 0.11280006 -0.1968001 0.24000013 0.014400007 -0.014400007
0.103200056 -0.22080012 -0.06960004 -0.1968001 -0.012000007 -0.03600002 0.11280006 0.24480014
0.09840005 0.026400015 -0.13920008 0.079200044 -0.17520009 0.01920001 -0.1944001 -0.1920001
-0.045600023 0.01920001 -0.20640011 0.24000013 0.17520009 0.23040012 -0.08400004 0.024000013
0.1896001 -0.19920011 -0.08640005 0.10080005 -0.0024000013 0.09840005 0.22560012 0.14880008
0.15840009 -0.13680007 0.016800009 -0.08880005 -0.1776001 0.028800014 -0.22080012 0.091200046
0.03840002 0.08160004 0.14880008 -0.024000013 0.13440007 0.04080002 0.1968001 -0.23760013
0.09600005 -0.09840005 0.16800009 -0.09840005 0.13680007 0.13200007 -0.14640008 -0.13440007
-0.2016001 -0.05760003 0.07440004 -0.014400007 -0.05760003 0.12480006 -0.1920001 0.1704001
-0.09840005 0.14880008 -0.0072000036 -0.05280003 0.10560006 0.05760003 -0.19920011 0.14640008
-0.07680004 -0.033600017 -0.16320008 -0.1776001 0.024000013 -0.01920001 0.1776001 -0.24720013
-0.11040006 -0.03600002 -0.048000026 -0.024000013 -0.14160007 0.08160004 0.1896001 0.24480014
0.11280006 0.24720013 -0.11040006 -0.24000013 -0.067200035 0.12240007 -0.1944001 0.1896001
-0.2088001 -0.14160007 -0.24720013 -0.15360008 0.0024000013 0.0072000036 -0.12480006 -0.20400012
-0.08160004 -0.1872001 0.11520006 -0.0072000036 -0.108000055 -0.19920011 0.15120009 0.07200004
0.103200056 0.1800001 -0.014400007 0.0048000026 -0.14880008 0.25440013 0.14400008 0.15360008
-0.21360011 0.15600008 -0.15120009 0.04080002 0.0048000026 -0.11040006 -0.17520009 0.043200023
-0.13920008 0.21120012 0.16800009 0.20640011 0.13200007 -0.12480006 -0.1968001 0.13680007
-0.09840005 -0.11520006 0.06960004 -0.2016001 0.21120012 0.021600012 0.13200007 -0.060000032
-0.048000026 0.067200035 -0.25920013 -0.12720007 0.091200046 -0.060000032 0.21600011 -0.14880008
0.29280016 0.1896001 -0.079200044 -0.16560009 0.11280006 -0.13440007 0.021600012 -0.22560012
0.0 -0.1968001 -0.13200007 0.03600002 -0.21840012 -0.07200004 0.06240003 0.13920008
0.08160004 0.13200007 -0.20640011 -0.0048000026 0.22560012 0.05520003 0.067200035 -0.1920001
0.19920011 0.13680007 0.091200046 0.08880005 0.120000064 -0.1968001 0.07200004 -0.12720007
0.19920011 -0.0024000013 -0.14400008 0.21840012 0.031200016 -0.13200007 -0.13200007 -0.079200044
-0.014400007 -0.19920011 0.16560009 0.0024000013 -0.067200035 0.12480006 -0.09840005 0.045600023
0.16080008 0.23520012 0.024000013 0.15120009 0.024000013 -0.15600008 0.09600005 -0.15120009
00000000: 5749 1dbb e1b5 843d 3708 2c3e e3ac fa3d
00000010: 62b1 bfbd 8d5a d3bd d844 58be ad9b c43d
00000020: 2863 6ebe d844 583e a233 a23d 2ca0 09bd
00000030: 17c7 ba3d a233 223e 0822 7dbe 4dd8 70be
00000040: 17c7 3a3d 17c7 babd 222f dd3d 222f ddbd
00000050: 0822 7d3e 8d5a 533e 2d97 7f3d 0c5f 183e
00000060: 2ca0 893c 48a4 5fbe 02ee 6bbc 8d5a 533e
00000070: ad9b 443e 17c7 3abe 072b 07be 17c7 3a3d
00000080: ad9b 44bc 2ca0 893c f251 38be c274 93bd
00000090: e1b5 043e 2d97 ff3c 8d5a d3bd 02ee 6b3d
000000a0: fdb9 5abe f251 383e c274 13bd b803 e73d
000000b0: f785 49be 98c2 753e 02ee 6b3c 02ee 6bbc
000000c0: 8d5a d33d 6d19 62be 778a 8ebd f785 49be
000000d0: ad9b 44bc c274 13bd b803 e73d e3ac 7a3e
000000e0: f785 c93d d844 d83c 778a 0ebe a233 a23d
000000f0: a767 33be 5749 9d3c d210 47be ad9b 44be
00000100: 17c7 3abd 5749 9d3c 8d5a 53be 98c2 753e
00000110: a767 333e 02ee 6b3e 3708 acbd ad9b c43c
00000120: 8726 423e 1dfb 4bbe 82f2 b0bd 4270 ce3d
00000130: 5749 1dbb f785 c93d b803 673e 0c5f 183e
00000140: a233 223e 5115 0cbe 2ca0 893c cddc b5bd
00000150: cddc 35be 02ee eb3c 6d19 62be 17c7 ba3d
00000160: 5749 1d3d ec1d a73d 0c5f 183e ad9b c4bc
00000170: 2ca0 093e ec1d 273d f785 493e 734d 73be
00000180: ad9b c43d f785 c9bd 3708 2c3e f785 c9bd
00000190: 5115 0c3e 072b 073e e7e9 15be 2ca0 09be
000001a0: 4270 4ebe 02ee 6bbd 0c5f 983d 02ee 6bbc
000001b0: 02ee 6bbd 2d97 ff3d ad9b 44be 5d7d 2e3e
000001c0: f785 c9bd 0c5f 183e 02ee ebbb d844 58bd
000001d0: d844 d83d 02ee 6b3d 1dfb 4bbe e7e9 153e
000001e0: 5749 9dbd 2ca0 09bd ec1d 27be cddc 35be
000001f0: ad9b c43c 5749 9dbc cddc 353e 0822 7dbe
00000200: 6d19 e2bd c274 13bd ad9b 44bd ad9b c4bc
00000210: 9cff 10be ec1d a73d 8726 423e e3ac 7a3e
00000220: b803 e73d 0822 7d3e 6d19 e2bd 98c2 75be
00000230: 2ca0 89bd e3ac fa3d d210 47be 8726 423e
00000240: b2cf 55be 9cff 10be 0822 7dbe 5749 1dbe
00000250: 5749 1d3b 02ee eb3b 2d97 ffbd 68e5 50be
00000260: ec1d a7bd 62b1 3fbe 02ee eb3d 02ee ebbb
00000270: 222f ddbd 1dfb 4bbe 32d4 1a3e c274 933d
00000280: 8d5a d33d f251 383e 02ee 6bbc 5749 9d3b
00000290: 0c5f 18be bc40 823e c274 133e 5749 1d3e
000002a0: fdb9 5abe 7cbe 1f3e 32d4 1abe ec1d 273d
000002b0: 5749 9d3b 6d19 e2bd a767 33be 82f2 303d
000002c0: 778a 0ebe d844 583e 3708 2c3e 8d5a 533e
000002d0: 072b 073e 2d97 ffbd f785 49be 5115 0c3e
000002e0: f785 c9bd 02ee ebbd 778a 8e3d 4270 4ebe
000002f0: d844 583e 82f2 b03c 072b 073e 98c2 75bd
00000300: ad9b 44bd 2ca0 893d e1b5 84be bc40 02be
00000310: 17c7 ba3d 98c2 75bd 222f 5d3e 0c5f 18be
00000320: e7e9 953e 8726 423e a233 a2bd 1293 29be
00000330: b803 e73d 2ca0 09be 82f2 b03c b803 67be
00000340: 0000 0000 f785 49be 072b 07be c274 133d
00000350: 48a4 5fbe c274 93bd 2d97 7f3d 778a 0e3e
00000360: ec1d a73d 072b 073e 8d5a 53be 5749 9dbb
00000370: b803 673e 6d19 623d 2ca0 893d ad9b 44be
00000380: 1dfb 4b3e 5115 0c3e 17c7 ba3d cddc b53d
00000390: 98c2 f53d f785 49be c274 933d bc40 02be
000003a0: 1dfb 4b3e 5749 1dbb c274 13be 48a4 5f3e
000003b0: 2d97 ff3c 072b 07be 072b 07be a233 a2bd
000003c0: 02ee 6bbc 1dfb 4bbe 1293 293e 5749 1d3b
000003d0: 2ca0 89bd 2d97 ff3d f785 c9bd 17c7 3a3d
000003e0: c7a8 243e 4dd8 703e ad9b c43c 32d4 1a3e
000003f0: ad9b c43c 7cbe 1fbe ad9b c43d 32d4 1abe

model/quant_dense_1/BiasAdd/ReadVariableOp:0 f4 [32]
-0.026482774 0.026154147 -0.02165099 0.023403738 -0.02637549 0.020258285 -0.024284273 0.03289761
0.04222665 0.017079823 -0.01712221 -0.027285403 -0.019886158 0.05667181 -0.033198923 -0.02085205
0.024311114 0.017101135 0.020265574 0.025249656 -0.019662302 0.02675891 0.019822912 0.028216908
-0.027446432 -0.020206666 -0.017061878 0.03487007 0.018967418 -0.022704925 0.019498749 0.022907395
00000000: 67f2 d8bc 3941 d63c 6b5d b1bc 32b9 bf3c
00000010: 6911 d8bc b4f4 a53c d0ef c6bc a5bf 063d
00000020: daf5 2c3d fcea 8b3c e043 8cbc a385 dfbc
00000030: 4ce8 a2bc b320 683d 98fb 07bd ebd1 aabc
00000040: 1a28 c73c ae17 8c3c fd03 a63c 5ed8 ce3c
00000050: d612 a1bc 8035 db3c a963 a23c 2527 e73c
00000060: 57d7 e0bc 7388 a5bc 5ac5 8bbc ebd3 0e3d
00000070: 8f61 9b3c aeff b9bc d7bb 9f3c 4aa8 bb3c

model/quant_dense/LastValueQuant/FakeQuantWithMinMaxVars__54 f4 [32, 64]
0.06105941 0.18806298 0.0122118825 0.23202576 0.24668002 -0.053732283 0.207602 -0.009769506
-0.19539012 0.0732713 0.25156477 -0.23691052 0.19050537 0.17096636 -0.14898497 -0.22958338
-0.0024423765 0.1563121 -0.18806298 -0.22714101 -0.24668002 0.08059842 -0.19539012 0.1563121
-0.20515962 0.20027487 0.15142734 0.2393529 0.16608159 -0.17096636 -0.24668002 0.23446813
-0.16119684 0.08548318 0.04640515 -0.21981388 0.15142734 -0.22469863 -0.24179527 -0.10990694
0.16119684 -0.22469863 0.117234066 0.207602 -0.0122118825 0.024423765 -0.23691052 -0.031750895
0.065944165 0.039078023 0.21248676 0.14898497 -0.21981388 -0.08059842 0.070828915 -0.20271724
-0.083040796 -0.21737151 0.2393529 0.12700358 0.2491224 0.014654258 0.09769506 -0.009769506
-0.16608159 0.15142734 -0.105022185 -0.029308517 -0.20027487 -0.0928103 -0.06838654 -0.0024423765
-0.18317823 0.13188833 0.083040796 -0.16363922 0.16852398 -0.13677308 0.07815605 -0.18317823
-0.0928103 -0.1343307 -0.23691052 -0.04640515 -0.16852398 -0.051289905 0.041520398 -0.1245612
-0.053732283 0.039078023 -0.017096635 -0.21492913 0.11234932 -0.10990694 0.083040796 0.21492913
0.2491224 0.0122118825 0.21248676 -0.1563121 0.20515962 -0.0928103 -0.0732713 0.20271724
-0.024423765 0.039078023 -0.20027487 0.053732283 0.06350179 -0.0024423765 -0.058617033 -0.19294775
0.058617033 0.14898497 0.070828915 -0.13188833 0.16608159 -0.117234066 -0.1441002 -0.13677308
-0.117234066 0.25156477 -0.1856206 -0.20271724 0.23446813 0.06105941 0.13188833 -0.21004437
-0.16608159 0.031750895 -0.17340873 -0.18806298 -0.0732713 0.19050537 -0.1441002 0.017096635
-0.10257981 0.2393529 0.20515962 0.24423765 -0.20027487 -0.22225626 0.22714101 -0.21737151
0.043962777 0.117234066 -0.11234932 -0.039078023 0.004884753 0.09036793 -0.24179527 -0.22958338
-0.1758511 -0.04884753 0.23202576 0.0 0.08792555 -0.117234066 0.0122118825 -0.06350179
0.1758511 -0.22714101 -0.12944596 0.207602 0.007327129 0.15386972 0.20271724 -0.0024423765
-0.23446813 -0.12700358 0.18073586 0.1758511 -0.117234066 0.17829348 0.0928103 0.0732713
0.07815605 -0.11479169 0.18806298 0.08548318 -0.039078023 0.14165783 -0.23202576 0.16608159
-0.03419327 0.004884753 0.08792555 -0.18073586 0.18073586 -0.0732713 -0.16608159 -0.105022185
0.15142734 -0.12700358 -0.06350179 -0.11967645 0.08548318 -0.053732283 0.007327129 -0.024423765
-0.06105941 -0.19294775 0.031750895 0.24423765 0.26133427 -0.13921545 0.2393529 -0.105022185
0.041520398 -0.1343307 0.06350179 -0.117234066 -0.0732713 0.22225626 0.009769506 0.08548318
0.16608159 0.22714101 0.15875447 -0.12700358 0.1343307 0.065944165 -0.09769506 -0.041520398
-0.16608159 0.06105941 0.19294775 -0.1856206 0.22225626 0.029308517 -0.20515962 0.03663565
-0.25156477 0.12944596 -0.1245612 -0.029308517 -0.20515962 -0.19050537 0.04640515 -0.15142734
0.19539012 -0.14165783 -0.11234932 0.08792555 -0.0732713 0.09036793 0.041520398 -0.0732713
0.12211882 -0.18317823 -0.18073586 0.1245612 -0.09769506 0.16608159 -0.12211882 -0.14898497
00000000: 6f19 7a3d 9593 403e 5914 483c 2998 6d3e
00000010: b099 7c3e 6216 5cbd 9e95 543e 4710 20bc
00000020: 5914 48be 430f 963d 19cd 803e ac98 72be
00000030: d713 433e ce11 2f3e 848f 18be e817 6bbe
00000040: 4710 20bb 4710 203e 9593 40be a797 68be
00000050: b099 7cbe c910 a53d 5914 48be 4710 203e
00000060: 5d15 52be db14 4d3e c50f 1b3e ed18 753e
00000070: 4b11 2a3e ce11 2fbe b099 7cbe 6a18 703e
00000080: c910 25be ce11 af3d 5413 3e3d e416 61be
00000090: c50f 1b3e 6617 66be 2e99 77be e416 e1bd
000000a0: c910 253e 6617 66be 6a18 f03d 9e95 543e
000000b0: 5914 48bc 5914 c83c ac98 72be 3a0d 02bd
000000c0: bc0d 873d 4710 203d 2196 593e 848f 183e
000000d0: e416 61be c910 a5bd c00e 913d 1c95 4fbe
000000e0: 4b11 aabd a396 5ebe ed18 753e 3a0d 023e
000000f0: f119 7f3e 6a18 703c 5914 c83d 4710 20bc
00000100: 4b11 2abe c50f 1b3e df15 d7bd 6a18 f0bc
00000110: db14 4dbe 5413 bebd 3e0e 8cbd 4710 20bb
00000120: 1393 3bbe bc0d 073e 4b11 aa3d 0a91 27be
00000130: 8d91 2c3e 3e0e 0cbe 4710 a03d 1393 3bbe
00000140: 5413 bebd fd8d 09be ac98 72be 5413 3ebd
00000150: 8d91 2cbe 5d15 52bd 4b11 2a3d f119 ffbd
00000160: 6216 5cbd 4710 203d 3e0e 8cbc 6216 5cbe
00000170: 6617 e63d e416 e1bd 4b11 aa3d 6216 5c3e
00000180: f119 7f3e 5914 483c 2196 593e 4710 20be
00000190: 5d15 523e 5413 bebd 430f 96bd 1c95 4f3e
000001a0: 5914 c8bc 4710 203d db14 4dbe 6216 5c3d
000001b0: 3a0d 823d 4710 20bb 6a18 70bd 1894 45be
000001c0: 6a18 703d 848f 183e c00e 913d bc0d 07be
000001d0: 4b11 2a3e 6a18 f0bd 018f 13be 3e0e 0cbe
000001e0: 6a18 f0bd 19cd 803e 5413 3ebe 1c95 4fbe
000001f0: 6a18 703e 6f19 7a3d bc0d 073e df15 57be
00000200: 4b11 2abe 3a0d 023d 0f92 31be 9593 40be
00000210: 430f 96bd d713 433e 018f 13be 3e0e 8c3c
00000220: 5d15 d2bd ed18 753e 5d15 523e 6f19 7a3e
00000230: db14 4dbe 2597 63be a797 683e a396 5ebe
00000240: 5012 343d 6a18 f03d 6617 e6bd 4710 20bd
00000250: 4710 a03b d212 b93d 2e99 77be e817 6bbe
00000260: 5012 34be 5914 48bd 2998 6d3e 0000 0000
00000270: 5012 b43d 6a18 f0bd 5914 483c 3a0d 82bd
00000280: 5012 343e a797 68be 7b8d 04be 9e95 543e
00000290: 6a18 f03b 0690 1d3e 1c95 4f3e 4710 20bb
000002a0: 6a18 70be 3a0d 02be d212 393e 5012 343e
000002b0: 6a18 f0bd 9192 363e 5413 be3d 430f 963d
000002c0: 4710 a03d e817 ebbd 9593 403e ce11 af3d
000002d0: 4710 20bd c00e 113e 2998 6dbe 4b11 2a3e
000002e0: 3e0e 0cbd 4710 a03b 5012 b43d d212 39be
000002f0: d212 393e 430f 96bd 4b11 2abe df15 d7bd
00000300: c50f 1b3e 3a0d 02be 3a0d 82bd ed18 f5bd
00000310: ce11 af3d 6216 5cbd 6a18 f03b 5914 c8bc
00000320: 6f19 7abd 1894 45be 3a0d 023d 6f19 7a3e
00000330: 9bcd 853e 7f8e 0ebe ed18 753e df15 d7bd
00000340: 4b11 2a3d fd8d 09be 3a0d 823d 6a18 f0bd
00000350: 430f 96bd 2597 633e 4710 203c ce11 af3d
00000360: 4b11 2a3e a797 683e 8890 223e 3a0d 02be
00000370: fd8d 093e bc0d 873d 5914 c8bd 4b11 2abd
00000380: 4b11 2abe 6f19 7a3d 1894 453e 5413 3ebe
00000390: 2597 633e 6a18 f03c 5d15 52be 430f 163d
000003a0: 19cd 80be 7b8d 043e f119 ffbd 6a18 f0bc
000003b0: 5d15 52be d713 43be 5413 3e3d c50f 1bbe
000003c0: 5914 483e c00e 11be 6617 e6bd 5012 b43d
000003d0: 430f 96bd d212 b93d 4b11 2a3d 430f 96bd
000003e0: 6f19 fa3d 1393 3bbe d212 39be f119 ff3d
000003f0: 5914 c8bd 4b11 2a3e 6f19 fabd 848f 18be

model/quant_dense/BiasAdd/ReadVariableOp:0 f4 [64]
0.005471227 -0.020850524 0.01634778 0.018907648 0.008531965 0.010464591 0.009791524 -0.00851657
0.01371424 -0.004725617 0.019247407 0.012168221 0.01330565 -0.01124351 0.027020518 -0.004025537
0.00036200206 -0.020079399 0.011951378 -0.0069530914 0.014090981 -0.012929191 -0.009950689 0.018722383
0.014083302 0.014555057 -0.016297096 0.009700434 0.002225895 0.0 -0.012381108 0.03383715
-0.0044396208 0.016548246 -0.0097832745 0.019531643 0.022928564 0.01273353 -0.011381609 0.013122049
-0.0062516155 0.00030147168 0.015031812 -0.012972032 -0.011880493 0.012048765 0.014236748 -0.011380637
0.0 0.0 0.015167596 0.005885093 -0.022059826 0.023049552 0.0 0.00994614
0.0011151619 0.022803651 0.01563251 -0.009586011 0.0071675023 -0.0077823093 0.018884588 -0.0071869246
00000000: fb47 b33b b8ce aabc c8eb 853c 36e4 9a3c
00000010: a8c9 0b3c ad73 2b3c a16c 203c 1589 0bbc
00000020: b1b1 603c 59d9 9abb bdac 9d3c 385d 473c
00000030: f1ff 593c b336 38bc 225a dd3c a7e8 83bb
00000040: 18cb bd39 8d7d a4bc b6cf 433c c2d6 e3bb
00000050: dcdd 663c f5d4 53bc 3708 23bc af5f 993c
00000060: a6bd 663c 5578 6e3c 7d81 85bc 92ee 1e3c
00000070: 52e0 113b 0000 0000 21da 4abc d398 0a3d
00000080: 3d7a 91bb 3090 873c 074a 20bc d300 a03c
00000090: afd4 bb3c 4ca0 503c ee79 3abc ddfd 563c
000000a0: 5ada ccbb d80e 9e39 fd47 763c a588 54bc
000000b0: 66a6 42bc 2f68 453c 4041 693c da75 3abc
000000c0: 0000 0000 0000 0000 8281 783c bdd7 c03b
000000d0: cfb6 b4bc 6ad2 bc3c 0000 0000 23f5 223c
000000e0: a02a 923a b9ce ba3c c00f 803c a50e 1dbc
000000f0: 5edd ea3b be02 ffbb dab3 9a3c 4b80 ebbb

model/gru_3/gru_cell/ReadVariableOp/resource:0 f4 [2, 96]
9.9870185e-06 -0.0052923895 -0.021357074 0.0068019223 0.00038409926 -0.011803768 0.011000451 -0.009599878
0.008720035 0.006692862 0.010820528 0.005872804 -0.023612894 0.04258893 0.012285081 0.006553143
-0.00016811476 0.009611032 0.007961268 0.017842956 0.013338028 -0.00093245343 0.011094737 0.016954903
0.018674318 -0.0012649029 -0.018872442 0.0033962678 -0.0009261071 0.003418312 0.021940352 0.006034156
0.003050473 0.021209529 0.005277593 -0.011176299 -0.0034127557 0.0058088987 0.0069775954 -0.02029918
-0.011998611 0.020632165 -0.010161983 -0.009141019 0.0047933552 -0.022899933 0.014348865 -0.020454362
0.0037544875 0.0032129905 -0.022489961 -0.008274018 -0.011087483 2.2187727e-05 0.009802564 -0.0056665842
-0.010399414 0.0019926527 -0.003968798 -0.013359032 0.00021227486 -0.00827588 0.007381273 0.010384075
-0.0026615183 -0.014906545 0.00832396 -0.010383697 -0.0029879974 -0.0107903965 0.007310479 0.005021011
-0.0122290375 -0.02043366 -0.0016281466 -0.011138343 -0.009031203 0.013694271 0.017372046 -0.017908378
-0.018433023 -0.011348414 -0.019496523 0.012098746 -0.015170995 -0.0019004388 -0.017923536 0.0020132181
0.007546405 0.008465312 0.023419674 -0.009045176 -0.0105567565 0.0022024321 0.013796769 0.01246031
9.9870185e-06 -0.0052923895 -0.021357074 0.0068019223 0.00038409926 -0.011803768 0.011000451 -0.009599878
0.008720035 0.006692862 0.010820528 0.005872804 -0.023612894 0.04258893 0.012285081 0.006553143
-0.00016811476 0.009611032 0.007961268 0.017842956 0.013338028 -0.00093245343 0.011094737 0.016954903
0.018674318 -0.0012649029 -0.018872442 0.0033962678 -0.0009261071 0.003418312 0.021940352 0.006034156
0.003050473 0.021209529 0.005277593 -0.011176299 -0.0034127557 0.0058088987 0.0069775954 -0.02029918
-0.011998611 0.020632165 -0.010161983 -0.009141019 0.0047933552 -0.022899933 0.014348865 -0.020454362
0.0037544875 0.0032129905 -0.022489961 -0.008274018 -0.011087483 2.2187727e-05 0.009802564 -0.0056665842
-0.010399414 0.0019926527 -0.003968798 -0.013359032 0.00021227486 -0.00827588 0.007381273 0.010384075
-0.0026881406 -0.015056704 0.008245203 -0.010320415 -0.0034200468 -0.010833105 0.0072333636 0.004333696
-0.012370871 -0.020625964 -0.0014014916 -0.011132879 -0.008701113 0.013515718 0.017240528 -0.017757598
-0.018444996 -0.011143505 -0.01943827 0.011985824 -0.015469999 -0.0016376645 -0.01794089 0.0018065571
0.00784369 0.008516642 0.023215035 -0.008573477 -0.009810882 0.0022359225 0.01348864 0.012420788
00000000: eb8d 2737 c86b adbb 08f5 aebc a9e2 de3b
00000010: ee60 c939 9764 41bc 3c3b 343c cf48 1dbc
00000020: 7ade 0e3c cc4f db3b 9548 313c a770 c03b
00000030: d46f c1bc bb71 2e3d 5d47 493c bfbb d63b
00000040: f647 30b9 9777 1d3c fa6f 023c 642b 923c
00000050: bf87 5a3c e46f 74ba b3c6 353c 02e5 8a3c
00000060: e2fa 983c 19cb a5ba 619a 9abc eb93 5e3b
00000070: ffc5 72ba c205 603b 41bc b33c 2bba c53b
00000080: 72ea 473b 9bbf ad3c a9ef ac3b cc1c 37bc
00000090: 8aa8 5fbb 9358 be3b 50a4 e43b 774a a6bc
000000a0: d295 44bc c904 a93c 727e 26bc 36c4 15bc
000000b0: 9411 9d3b a498 bbbc 8017 6b3c e88f a7bc
000000c0: d90d 763b 0991 523b de3c b8bc bf8f 07bc
000000d0: 46a8 35bc c81f ba37 ef9a 203c c1ae b9bb
000000e0: 4e62 2abc 2a97 023b b10c 82bb d7df 5abc
000000f0: 1996 5e39 8e97 07bc 9bde f13b f821 2a3c
00000100: de6c 2ebb 953a 74bc 3861 083c 6220 2abc
00000110: 47d2 43bb 34ca 30bc be8c ef3b 4b87 a43b
00000120: 4d5c 48bc 7e64 a7bc 8967 d5ba 997d 36bc
00000130: 9cf7 13bc f05d 603c d24f 8e3c 97b4 92bc
00000140: da00 97bc b3ee 39bc 2cb7 9fbc d239 463c
00000150: c48f 78bc 2518 f9ba 61d4 92bc 32f0 033b
00000160: d547 f73b 18b2 0a3c 9eda bf3c 3832 14bc
00000170: 3ff6 2cbc ae56 103b d80b 623c 5426 4c3c
00000180: eb8d 2737 c86b adbb 08f5 aebc a9e2 de3b
00000190: ee60 c939 9764 41bc 3c3b 343c cf48 1dbc
000001a0: 7ade 0e3c cc4f db3b 9548 313c a770 c03b
000001b0: d46f c1bc bb71 2e3d 5d47 493c bfbb d63b
000001c0: f647 30b9 9777 1d3c fa6f 023c 642b 923c
000001d0: bf87 5a3c e46f 74ba b3c6 353c 02e5 8a3c
000001e0: e2fa 983c 19cb a5ba 619a 9abc eb93 5e3b
000001f0: ffc5 72ba c205 603b 41bc b33c 2bba c53b
00000200: 72ea 473b 9bbf ad3c a9ef ac3b cc1c 37bc
00000210: 8aa8 5fbb 9358 be3b 50a4 e43b 774a a6bc
00000220: d295 44bc c904 a93c 727e 26bc 36c4 15bc
00000230: 9411 9d3b a498 bbbc 8017 6b3c e88f a7bc
00000240: d90d 763b 0991 523b de3c b8bc bf8f 07bc
00000250: 46a8 35bc c81f ba37 ef9a 203c c1ae b9bb
00000260: 4e62 2abc 2a97 023b b10c 82bb d7df 5abc
00000270: 1996 5e39 8e97 07bc 9bde f13b f821 2a3c
00000280: 842b 30bb 65b0 76bc e316 073c f516 29bc
00000290: dd22 60bb 567d 31bc da05 ed3b ad01 8e3b
000002a0: 32af 4abc c8f7 a8bc 41b2 b7ba ae66 36bc
000002b0: 1d8f 0ebc 0871 5d3c 023c 8d3c 6278 91bc
000002c0: f619 97bc 3f93 36bc 023d 9fbc 3160 443c
000002d0: e175 7dbc e7a6 d6ba c6f8 92bc ffc9 ec3a
000002e0: d282 003c 6389 0b3c 752d be3c c577 0cbc
000002f0: d2bd 20bc 8e88 123b 75ff 5c3c 9080 4b3c

model/gru_3/gru_cell/MatMul_1/ReadVariableOp/resource:0 f4 [32, 96]
0.05571625 -0.046997156 0.11482691 -0.18074463 -0.046500303 -0.029463097 0.0011955611 -0.08128165
0.19212592 -0.0047043846 -0.08907465 -0.056121927 0.048414465 -0.062044386 -0.07165123 -0.2152362
-0.13893177 -0.16845821 -0.14157945 0.06017161 -0.13524644 -0.09814755 0.092979275 -0.033482555
0.06542247 0.08084439 -0.08671271 0.085636005 -0.0020633307 -0.15592119 -0.060093656 -0.09511807
0.037330754 0.017536815 -0.057581235 0.045475878 -0.055139348 0.06656602 -0.018465187 0.07016244
-0.017621497 -0.014929596 0.094675876 0.16882727 0.004016511 -0.0076168715 -0.08554523 0.08273337
-0.009428519 -0.058056578 0.12763165 -5.0438994e-05 -0.012874109 0.28089356 -0.016213676 -0.14756767
-0.060461313 -0.24482833 -0.11466912 0.15410021 -0.02438915 -0.22551726 0.028235182 0.03136064
-0.061704013 0.06730913 0.12684645 -0.0035907899 -0.008717131 -0.009836599 0.0037686725 0.048009895
-0.050323796 -0.10858572 -0.019569753 -0.17125653 0.015395076 -0.0005097242 0.08596823 0.06480042
-0.11067297 -0.10745313 0.15458718 -0.020316068 0.16610767 -0.0800303 -0.1471698 -0.053705335
-0.12375344 0.058092345 0.076561876 -0.012852349 -0.10034348 -0.22785187 0.1317419 0.14778656
-0.055883057 0.13072686 0.11090566 -0.13831945 -0.102804266 -0.19115987 0.1796427 -0.15933399
-0.097074255 -0.02218156 0.072016604 0.011750705 0.10105961 -0.16782466 -0.048999403 0.09990735
0.17234683 -0.059476987 -0.08918346 -0.07548421 -0.043692797 0.046284333 0.1018039 -0.016842127
0.14204289 0.035322614 0.0874692 0.07025206 -0.0046154927 0.026522575 -0.13956577 0.07891554
0.0022260472 0.10752311 0.01697164 0.15037027 0.054710444 0.035721872 -0.056073934 0.093143255
0.18151969 -0.0062315324 -0.17121112 -0.014557892 0.18487337 0.092014335 -0.09625223 -0.036075745
-0.09285159 0.14955963 0.073326014 -0.06209188 -0.0895441 -0.13156575 0.010364096 -0.036452997
-0.09536122 -0.08039053 -0.15475518 0.028673979 0.02599426 0.09220782 -0.066294156 0.043840706
0.15537539 -0.0599147 -0.19748177 -0.049916964 0.18533516 -0.11634571 0.049411505 -0.09606775
0.08189375 -0.08934134 -0.14601442 -0.036513302 0.17905796 0.16224997 -0.047638886 -0.023188077
-0.009836519 0.09827399 0.06496189 -0.056259867 0.021994436 0.061901737 0.120749466 -0.048627477
0.036306515 0.09355948 0.09828429 -0.14389889 -0.035506036 -0.12893966 0.0015242324 -0.15436284
0.032195993 -0.0042228494 -0.13790762 0.06548791 0.027894018 -0.038494743 0.035728052 -0.0913511
0.03062179 0.06309042 0.18957424 0.07095726 -0.16619536 -0.123086296 -0.09252358 -0.009766978
0.00028311746 -0.1481919 0.03145901 0.044603657 0.0047313995 -0.050550215 -0.09286108 0.09365247
0.15085202 -0.012799176 -0.053769324 -0.030124806 -0.21687791 -0.04260512 0.11798852 0.09391175
-0.043843962 0.09777943 -0.04580118 0.092682496 0.20607433 -0.16651584 0.024733398 0.008165904
0.120940335 -0.017315764 0.012808067 0.060732756 -0.08581658 0.16471517 -0.03201429 0.026435517
-0.06521246 0.22675882 -0.050654322 0.10095306 -0.016588118 -0.042994674 -0.16389623 -0.08205966
-0.020078527 -0.03300687 0.07285623 0.042754043 0.27858734 -0.18601274 0.13980697 -0.046967108
00000000: b936 643d 1780 40bd 5f2a eb3d 1f15 39be
00000010: 1a77 3ebd 985c f1bc 60b4 9c3a fe76 a6bd
00000020: a8bc 443e 3d27 9abb c56c b6bd 1be0 65bd
00000030: 3f4e 463d 4122 7ebd e1bd 92bd e166 5cbe
00000040: 2144 0ebe 4f80 2cbe 34fa 10be 8276 763d
00000050: 0b7e 0abe 9501 c9bd eb6b be3d 0125 09bd
00000060: 37fc 853d be91 a53d 6f96 b1bd ee61 af3d
00000070: f238 07bb cea9 1fbe c424 76bd 43cd c2bd
00000080: 22e8 183d 5ea9 8f3c 4dda 6bbd ea44 3a3d
00000090: ccd9 61bd c453 883d 4e44 97bc 53b1 8f3d
000000a0: f55a 90bc 449b 74bc 6de5 c13d 0ee1 2c3e
000000b0: f09c 833b f396 f9bb 5632 afbd 1d70 a93d
000000c0: 137a 1abc bccc 6dbd dfb1 023e 758e 53b8
000000d0: eded 52bc 48d1 8f3e 8bd2 84bc fb1b 17be
000000e0: 48a6 77bd 47b4 7abe a5d7 eabd 72cc 1d3e
000000f0: c1cb c7bc ffed 66be 784d e73c 0474 003d
00000100: 59bd 7cbd 5fd9 893d 09e4 013e 7553 6bbb
00000110: 4cd2 0ebc b029 21bc d5fb 763b 06a6 443d
00000120: 5320 4ebd 3162 debd bf50 a0bc df5d 2fbe
00000130: a13b 7c3c 039f 05ba 1d10 b03d 15b6 843d
00000140: 83a8 e2bd 6310 dcbd 1a4c 1e3e e26d a6bc
00000150: 2118 2a3e ede6 a3bd aeb3 16be 20fa 5bbd
00000160: 7272 fdbd 3df2 6d3d 79cc 9c3d a992 52bc
00000170: e280 cdbd 0052 69be 59e7 063e 5c55 173e
00000180: a2e5 64bd 43dd 053e 8222 e33d 9da3 0dbe
00000190: 0b8b d2bd 6abf 43be 42f4 373e 7328 23be
000001a0: dece c6bd 1ab6 b5bc 717d 933d 0786 403c
000001b0: 57f8 ce3d 3ada 2bbe 99b3 48bd 3a9c cc3d
000001c0: b07b 303e 249e 73bd d1a5 b6bd 7797 9abd
000001d0: 38f7 32bd a494 3d3d 907e d03d 80f8 89bc
000001e0: b173 113e 72ae 103d 0d23 b33d 50e0 8f3d
000001f0: 8f3d 97bb df45 d93c 54ea 0ebe 789e a13d
00000200: e0e2 113b 1435 dc3d 1c08 8b3c aafa 193e
00000210: 0f18 603d 1951 123d c8ad 65bd e4c1 be3d
00000220: 4ce0 393e e231 ccbb f851 2fbe 3a84 6ebc
00000230: 724f 3d3e 0372 bc3d e41f c5bd 29c4 13bd
00000240: f928 bebd 2926 193e f32b 963d 0e54 7ebd
00000250: e662 b7bd 2cb9 06be 2bce 293c bd4f 15bd
00000260: be4c c3bd caa3 a4bd 2478 1ebe b1e5 ea3c
00000270: eaf1 d43c 74d7 bc3d 3bc5 87bd 5092 333d
00000280: ba1a 1f3e 1e69 75bd a938 4abe bb75 4cbd
00000290: 80c8 3d3e a946 eebd b863 4a3d 2bbf c4bd
000002a0: e9b7 a73d 98f8 b6bd ce84 15be f98e 15bd
000002b0: f85a 373e db24 263e fe20 43bd ecf4 bdbc
000002c0: 5a29 21bc e043 c93d bd0a 853d bf70 66bd
000002d0: ad2d b43c ad8c 7d3d 7f4b f73d 9b2d 47bd
000002e0: 24b6 143d 1d9c bf3d 4649 c93d 3b5a 13be
000002f0: c76e 11bd c208 04be c1c8 c73a 4b11 1ebe
00000300: f2df 033d d45f 8abb a837 0dbe 861e 863d
00000310: ff81 e43c aaac 1dbd 9457 123d 4916 bbbd
00000320: 8cda fa3c 8d35 813d c01f 423e 0a52 913d
00000330: 1e2f 2abe ab14 fcbd 017d bdbd ad05 20bc
00000340: 626f 9439 9ebf 17be 2adb 003d 53b2 363d
00000350: db09 9b3b be0d 4fbd f32d bebd decc bf3d
00000360: f478 1a3e a3b3 51bc 393d 5cbd 4cc8 f6bc
00000370: 3e15 5ebe b582 2ebd f7a3 f13d ce54 c03d
00000380: ba95 33bd 9540 c83d 059a 3bbd 52d0 bd3d
00000390: 2605 533e 2183 2abe b29d ca3c 49ca 053c
000003a0: 91af f73d cad9 8dbc edd8 513c e9c2 783d
000003b0: 9ac0 afbd 18ab 283e 6b21 03bd 4c8f d83c
000003c0: 1c8e 85bd 7733 683e e87a 4fbd 7ac0 ce3d
000003d0: cee3 87bc 2f1b 30bd 6ad4 27be e50e a8bd
000003e0: b97b a4bc 3632 07bd a635 953d dd1e 2f3d
000003f0: 00a3 8e3e 207a 3ebe 8f29 0f3e 9560 40bd

model/gru_3/gru_cell/MatMul/ReadVariableOp/resource:0 f4 [32, 96]
0.20531666 0.057556663 -0.13188973 -0.18773349 -0.2058482 -0.18531168 0.11462217 0.16369261
0.021438072 0.02355658 -0.044677906 0.004671243 0.098115906 -0.018603085 0.1832119 -0.0014714758
-0.094691366 0.13644977 -0.09132486 0.17595717 -0.08385398 -0.03986873 -0.07074699 0.18128079
0.20603757 0.006086733 0.10962112 0.21822017 0.020505298 -0.041234292 0.19191484 0.03623408
-0.19890554 0.05992257 -0.12812796 -0.03876362 -0.081970654 0.22003046 -0.10351782 0.026291775
0.13893056 -0.15393673 0.088916846 -0.07958464 0.097045936 -0.21681164 -0.09634058 -0.0142208785
0.21362038 0.19606411 0.03655305 -0.08564045 0.09969651 -0.18199877 -0.14234023 -0.17604864
-0.122687094 -0.098010786 0.09388061 0.18360317 -0.19690269 -0.14128895 0.16591893 0.040916927
-0.1778526 -0.009336644 -0.20185716 0.10398584 0.06699212 0.11763461 0.09416643 0.213192
-0.10505185 0.1685663 -0.12802495 0.020234251 0.08848859 0.19494335 0.14952423 -0.15316531
0.120131634 0.20509912 -0.2166845 -0.090648286 0.02473503 0.090845175 -0.04188771 0.0021175363
0.18431129 0.18457839 -0.0034427473 -0.008051481 -0.042458247 0.06543729 0.15594828 -0.10221859
-0.16576333 0.13512824 -0.0060402513 0.13363817 0.002332117 -0.07689103 -0.057794575 0.11834337
0.055800628 -0.023663297 0.18787032 -0.16627705 -0.06299847 0.06971825 -0.032192845 0.043189783
0.14066993 -0.004193835 -0.186085 -0.081052475 -0.1185012 -0.06432095 -0.027315727 0.02686329
-0.12622137 -0.14191036 -0.014980386 -0.18437073 -0.059846688 0.15896334 0.2159947 -0.15941796
-0.08377018 0.015176935 -0.059156407 -0.103718124 -0.009707636 0.056618642 0.21570978 -0.08466258
0.049296215 0.19279227 -0.16744366 0.020830503 -0.0701173 0.13047697 -0.0042021843 0.14587991
-0.20678207 -0.09011971 -0.087245286 -0.19976585 -0.050780684 0.053804535 0.13806826 -0.1573323
0.20972718 0.023722913 0.15724126 -0.12378471 -0.02575091 0.10101038 0.18778494 -0.0010270778
-0.147143 -0.16383994 0.19988777 -0.024523698 0.18190153 0.14369228 -0.16148695 -0.022920646
-0.19966131 -0.20184909 -0.1574405 0.12981433 0.056533407 0.034041386 0.05662856 0.17014736
-0.044023555 -0.17485334 0.0440158 0.027497541 0.03612085 -0.038275618 0.09337205 0.13299541
0.21367404 0.1966902 -0.064762205 -0.22092283 -0.18086383 0.19412205 0.17056796 0.1834064
-0.016335117 0.18758385 0.1682309 0.06984955 -0.13814305 0.0053083147 -0.14180866 0.06548304
-0.21135509 0.22246447 0.048506837 0.14121994 -0.064843185 0.031781685 -0.14431255 0.019464405
-0.037624873 0.12660898 0.027974645 0.013958181 0.029554032 -0.03110783 0.17129578 0.07647579
-0.0685372 -0.08097452 -0.05849168 0.11135216 0.2134134 0.16258332 -0.023745064 -0.19332586
-0.20650236 0.23311709 -0.17004405 -0.13296697 0.20378782 0.00864997 -0.14513709 0.04512947
0.15742697 0.033596724 -0.11807831 -0.20630872 0.13596258 -0.08680764 0.06877704 -0.20619963
0.03664207 0.17280424 -0.20659152 0.11506497 -0.0741366 0.07456886 -0.12845758 0.118650444
-0.2094221 0.08611733 -0.1369157 0.050474443 0.117813475 0.20477904 -0.09655043 -0.06853798
00000000: 883e 523e 89c0 6b3d 1a0e 07be 353d 40be
00000010: dfc9 52be 58c2 3dbe 07bf ea3d 099f 273e
00000020: e59e af3c bbf9 c03c 2e00 37bd 3a11 993b
00000030: fef0 c83d 7f65 98bc e69b 3b3e 89de c0ba
00000040: 8ced c1bd 7db9 0b3e 8708 bbbd 1e2e 343e
00000050: a3bb abbd 654d 23bd cce3 90bd aca1 393e
00000060: 83fb 523e 3873 c73b 0a81 e03d 1c75 5f3e
00000070: bafa a73c 4ae5 28bd 5385 443e 306a 143d
00000080: e5ad 4bbe 5e71 753d fa33 03be 9ac6 1ebd
00000090: 3be0 a7bd aa4f 613e 2701 d4bd d961 d73c
000000a0: d043 0e3e 97a1 1dbe 091a b63d 46fd a2bd
000000b0: 05c0 c63d df03 5ebe 364e c5bd b0fe 68bc
000000c0: 4dbf 5a3e 08c5 483e a7b8 153d 4364 afbd
000000d0: af2d cc3d e35d 3abe a3c1 11be 1846 34be
000000e0: 5f43 fbbd e1b9 c8bd 7a44 c03d 7802 3c3e
000000f0: dca0 49be 0dae 10be a7e6 293e 8298 273d
00000100: fe1e 36be b9f8 18bc a5b3 4ebe 87f6 d43d
00000110: 2a33 893d 6aea f03d 54da c03d 014f 5a3e
00000120: 6d25 d7bd a59c 2c3e f918 03be 4dc2 a53c
00000130: 8239 b53d 3b9f 473e e11c 193e 5ed7 1cbe
00000140: 9307 f63d 8105 523e 8be2 5dbe cfa5 b9bd
00000150: 1ea1 ca3c 090d ba3d 7392 2bbd 5dc6 0a3b
00000160: 19bc 3c3e 1e02 3d3e b79f 61bb 5cea 03bc
00000170: b3e8 2dbd fc03 863d e8b0 1f3e fb57 d1bd
00000180: ddbd 29be 0f5f 0a3e 4ded c5bb 72d8 083e
00000190: 6ed6 183b 0b79 9dbd 01ba 6cbd 025e f23d
000001a0: 338f 643d 88d9 c1bc 1461 403e 8844 2abe
000001b0: 5805 81bd 71c8 8e3d a5dc 03bd c5e7 303d
000001c0: c70b 103e 706c 89bb 118d 3ebe d7fe a5bd
000001d0: c2b0 f2bd b4ba 83bd 3bc5 dfbc 6710 dc3c
000001e0: 2d40 01be f350 11be 4b70 75bc aecb 3cbe
000001f0: cd21 75bd 49c7 223e b72d 5d3e 763e 23be
00000200: b38f abbd aea8 783c fd4d 72bd 2b6a d4bd
00000210: c70c 1fbc f3e8 673d 06e3 5c3e 9363 adbd
00000220: d4ea 493d 566b 453e 5a76 2bbe bba4 aa3c
00000230: a999 8fbd c19b 053e 7ab2 89bb 8b61 153e
00000240: aebe 53be af90 b8bd a8ad b2bd 6b8f 4cbe
00000250: 68ff 4fbd 2562 5c3d c461 0d3e b81b 21be
00000260: b9c2 563e 8e56 c23c da03 213e d782 fdbd
00000270: 93f3 d2bc 88de ce3d b24a 403e 039f 86ba
00000280: a8ac 16be a8c5 27be 61af 4c3e ece5 c8bc
00000290: 6544 3a3e 1224 133e d65c 25be 14c4 bbbc
000002a0: 0474 4cbe 87b1 4ebe 1538 21be 0cee 043e
000002b0: 938f 673d fb6e 0b3d 59f3 673d 1c3b 2e3e
000002c0: 0b52 34bd c10c 33be e949 343d 8642 e13c
000002d0: 75f3 133d e5c6 1cbd d839 bf3d f32f 083e
000002e0: 5ecd 5a3e 2869 493e 0ca2 84bd 9839 62be
000002f0: 5e34 39be eec7 463e 5ea9 2e3e e3ce 3b3e
00000300: 39d1 85bc fb15 403e b944 2c3e 480d 8f3d
00000310: 5f75 0dbe 5ff1 ad3b 4a36 11be f91b 863d
00000320: 786d 58be bacd 633e 1baf 463d f69b 103e
00000330: 81cc 84bd 832d 023d abc6 13be d173 9f3c
00000340: 8a1c 1abd c9a5 013e 152b e53c dbb0 643c
00000350: 4c1b f23c d9d5 febc 2968 2f3e 579f 9c3d
00000360: 3b5d 8cbd f8d5 a5bd f994 6fbd 9a0c e43d
00000370: 0b89 5a3e 3e7c 263e 0285 c2bc 37f7 45be
00000380: 5b75 53be 3fb6 6e3e 0720 2ebe 7e28 08be
00000390: c1ad 503e 9bb8 0d3c d19e 14be aed9 383d
000003a0: 8934 213e b89c 093d 0ad3 f1bd 9842 53be
000003b0: c639 0b3e 34c8 b1bd fada 8c3d ff25 53be
000003c0: ff15 163d 98f3 303e ba8c 53be 2fa7 eb3d
000003d0: eed4 97bd 8fb7 983d 628a 03be 01ff f23d
000003e0: bf72 56be 485e b03d a133 0cbe 4abe 4e3d
000003f0: 3148 f13d 99b1 513e 3bbc c5bd a45d 8cbd

model/gru_2/gru_cell/ReadVariableOp/resource:0 f4 [2, 96]
-0.018441454 -0.0061381115 -0.025904428 -0.03688722 -0.01851131 0.006696661 0.00016204653 -0.016089695
0.0015433043 -0.0018718977 -0.022507912 0.00127748 0.004175622 -0.01424283 -0.0024313948 0.011925914
-0.005185105 0.002602008 -0.027763903 -0.00028234883 0.006998413 -0.017016497 -0.0007095635 -0.00034775917
-0.0064665596 -0.029808573 -0.010372956 0.004361876 -0.0026983295 0.009060384 -0.0021691534 -0.0104586445
0.008282449 -0.008739617 -0.020620337 0.011278196 -0.0022382452 0.016583942 0.01204484 0.00926617
-0.014663275 0.0067929607 0.0056231734 -0.026694266 0.0058327154 0.008297334 0.005587115 0.001972964
-0.008043134 0.01216676 0.026148355 0.002165052 0.017155085 0.0074514356 0.0104995575 0.00010168268
-0.006562529 -0.009223121 0.012872271 0.016335275 -0.0021562153 0.019383669 0.01563548 0.0002669989
0.010295476 0.0097499 0.0110713085 0.0109846685 0.009224634 -0.016075173 -0.012081725 -0.012959629
0.0029162306 0.011897669 0.006874924 0.0057514017 0.0081609525 0.013491801 -0.008058001 0.009645269
-0.014244806 -0.015025586 0.015706945 0.004738215 -0.012687222 0.00658161 0.0014336741 -0.011428537
-0.01192675 0.009154885 0.013701335 -0.012190581 -0.02130896 -0.011496807 -0.015899057 -0.0007812664
-0.018441454 -0.0061381115 -0.025904428 -0.03688722 -0.01851131 0.006696661 0.00016204653 -0.016089695
0.0015433043 -0.0018718977 -0.022507912 0.00127748 0.004175622 -0.01424283 -0.0024313948 0.011925914
-0.005185105 0.002602008 -0.027763903 -0.00028234883 0.006998413 -0.017016497 -0.0007095635 -0.00034775917
-0.0064665596 -0.029808573 -0.010372956 0.004361876 -0.0026983295 0.009060384 -0.0021691534 -0.0104586445
0.008282449 -0.008739617 -0.020620337 0.011278196 -0.0022382452 0.016583942 0.01204484 0.00926617
-0.014663275 0.0067929607 0.0056231734 -0.026694266 0.0058327154 0.008297334 0.005587115 0.001972964
-0.008043134 0.01216676 0.026148355 0.002165052 0.017155085 0.0074514356 0.0104995575 0.00010168268
-0.006562529 -0.009223121 0.012872271 0.016335275 -0.0021562153 0.019383669 0.01563548 0.0002669989
0.010049128 0.009929293 0.010717993 0.011012643 0.008803122 -0.016084213 -0.012018683 -0.012917397
0.0029100175 0.011634025 0.0067494633 0.0055539287 0.008039574 0.013396268 -0.0078985505 0.009492378
-0.014292715 -0.015006099 0.014721338 0.0048681684 -0.0125957215 0.0064420034 0.0016142491 -0.011808784
-0.011886395 0.009204749 0.013270763 -0.01226454 -0.020944279 -0.011596139 -0.015909886 -0.00047775643
00000000: 8812 97bc 3622 c9bb 8635 d4bc 0e17 17bd
00000010: 08a5 97bc aa6f db3b 09eb 2939 89ce 83bc
00000020: b348 ca3a 775a f5ba 8362 b8bc 1e71 a73a
00000030: a8d3 883b c25a 69bc 0958 1fbb e964 433c
00000040: d0e7 a9bb 7386 2a3b 2071 e3bc 3808 94b9
00000050: f152 e53b 2e66 8bbc 0002 3aba 7253 b6b9
00000060: 6fe5 d3bb 1c31 f4bc 55f3 29bc 11ee 8e3b
00000070: 75d6 30bb 0172 143c 5b28 0ebb bc5a 2bbc
00000080: 1cb3 073c 9c30 0fbc fbeb a8bc 2fc8 383c
00000090: 86af 12bb 0cdb 873c b857 453c 22d1 173c
000000a0: 3c3e 70bc 7c97 de3b 9942 b83b efad dabc
000000b0: 5d20 bf3b 8bf1 073c 1e14 b73b d84c 013b
000000c0: 59c7 03bc 1757 473c 1335 d63c 8ce3 0d3b
000000d0: d288 8c3c 2c2b f43b 5606 2c3c 793e d538
000000e0: 7c0a d7bb 931c 17bc 38e6 523c 8ed1 853c
000000f0: 4a4f 0dbb 80ca 9e3c fa15 803c fcfb 8b39
00000100: 5bae 283c 0bbe 1f3c 6f64 353c 0af9 333c
00000110: eb22 173c 15b0 83bc 6df2 45bc a054 54bc
00000120: 3b1e 3f3b 71ee 423c 0b47 e13b 4176 bc3b
00000130: 84b5 053c b70c 5d3c b505 04bc 3107 1e3c
00000140: 0c63 69bc e02d 76bc daab 803c 0743 9b3b
00000150: 11de 4fbc 8caa d73b 1fea bb3a c23e 3bbc
00000160: 6a68 43bc 5ffe 153c 907b 603c 01bb 47bc
00000170: 2190 aebc 1b5d 3cbc bd3e 82bc e7cd 4cba
00000180: 8812 97bc 3622 c9bb 8635 d4bc 0e17 17bd
00000190: 08a5 97bc aa6f db3b 09eb 2939 89ce 83bc
000001a0: b348 ca3a 775a f5ba 8362 b8bc 1e71 a73a
000001b0: a8d3 883b c25a 69bc 0958 1fbb e964 433c
000001c0: d0e7 a9bb 7386 2a3b 2071 e3bc 3808 94b9
000001d0: f152 e53b 2e66 8bbc 0002 3aba 7253 b6b9
000001e0: 6fe5 d3bb 1c31 f4bc 55f3 29bc 11ee 8e3b
000001f0: 75d6 30bb 0172 143c 5b28 0ebb bc5a 2bbc
00000200: 1cb3 073c 9c30 0fbc fbeb a8bc 2fc8 383c
00000210: 86af 12bb 0cdb 873c b857 453c 22d1 173c
00000220: 3c3e 70bc 7c97 de3b 9942 b83b efad dabc
00000230: 5d20 bf3b 8bf1 073c 1e14 b73b d84c 013b
00000240: 59c7 03bc 1757 473c 1335 d63c 8ce3 0d3b
00000250: d288 8c3c 2c2b f43b 5606 2c3c 793e d538
00000260: 7c0a d7bb 931c 17bc 38e6 523c 8ed1 853c
00000270: 4a4f 0dbb 80ca 9e3c fa15 803c fcfb 8b39
00000280: 19a5 243c 79ae 223c 859a 2f3c 5f6e 343c
00000290: f83a 103c 0ac3 83bc 03ea 44bc 7da3 53bc
000002a0: feb5 3e3b a39c 3e3c 9a2a dd3b bbfd b53b
000002b0: 6bb8 033c 057c 5b3c ec68 01bc eb85 1b3c
000002c0: fe2b 6abc 24dc 75bc c431 713c 2885 9f3b
000002d0: 495e 4ebc 7117 d33b 3695 d33a a179 41bc
000002e0: 27bf 42bc 84cf 163c 9d6d 593c 36f1 48bc
000002f0: 5693 abbc bbfd 3dbc 7355 82bc 627b fab9

model/gru_2/gru_cell/MatMul_1/ReadVariableOp/resource:0 f4 [32, 96]
-0.0741159 0.17775361 0.020542186 0.13499886 -0.043325566 0.15404996 0.010316823 -0.076493375
0.13696718 0.05472301 0.04249245 0.11095666 -0.039824553 0.06274172 -0.06859519 -0.06340561
-0.045338683 0.12359332 -0.02957266 0.06659545 0.03111216 0.026096595 0.014992044 0.057370536
-0.11177302 -0.013599876 -0.0071447697 -0.115009986 0.010371657 -0.069277674 0.26278734 -0.065228865
0.063881114 -0.09557519 -0.01713977 0.12665324 -0.21126354 -0.037723716 0.00048883824 -0.10933821
0.14890672 0.18598573 0.029012581 -0.045948785 -0.0051994496 0.0723316 0.12464701 0.11657131
0.05778666 0.24223524 0.005051886 -0.21012965 0.009883351 -0.14336047 0.039101996 0.12969838
-0.06579391 -0.044719536 0.16381039 0.16165785 0.05363267 0.028324267 0.114493445 0.029542906
0.038017347 -0.008916738 -0.005328713 0.059642058 0.271488 -0.19103046 -0.12774695 0.12281968
-0.12185711 -0.012094928 0.19460407 -0.038772512 0.0021187747 -0.09558527 0.016052848 0.11988573
-0.078227624 -0.016178748 -0.1165098 0.102284215 -0.048557635 0.12050079 0.0019782125 -0.011696859
-0.013114581 -0.15301155 -0.012047462 -0.14686997 0.08681698 -0.11376764 0.053971298 -0.11214552
0.16737513 0.1251651 0.0862618 0.1959746 0.040359534 0.03231736 -0.11371338 -0.001486978
0.08288842 -0.10978324 0.11451162 -0.09704472 0.036598165 -0.0648265 -0.036379628 -0.086002775
0.10959244 -0.14666693 -0.019726364 0.19796734 -0.09748947 -0.18671583 0.020492597 -0.022177976
-0.068293296 0.09335488 0.017379526 -0.05875774 -0.012822536 -0.078393005 0.008525001 0.06029268
-0.14114645 -0.08237198 -0.01791301 -0.15800932 0.10666404 -0.054761462 -0.22095098 0.030735677
0.04052187 -0.06547703 -0.005488659 -0.039576117 -0.004805379 0.09651935 -0.06648838 -0.17187361
0.0095291 -0.061773553 0.008945456 0.0037895057 -0.07951733 0.073912635 -0.05159311 0.066670574
0.007569011 -0.17461134 -0.07846249 -0.093764134 -0.117803775 -0.17625609 -0.041969378 -0.04097174
0.13354851 -0.18212795 -0.012134725 0.09713724 0.2235093 -0.10098902 -0.045028485 -0.096624166
0.02098808 0.031397127 -0.060022775 -0.055564035 0.08347799 -0.055470753 0.019085046 0.10657997
0.16360742 -0.2313831 0.17131105 0.090391114 -0.07186852 -0.082975894 -0.053827614 0.02743544
-0.2860159 0.03126465 0.046303082 -0.15784094 0.006703925 -0.063164 -0.021062795 -0.120941184
-0.09710338 -0.060239907 -0.12410519 0.08358641 0.013359158 -0.024538254 -0.16862246 -0.0010597894
-0.0032569717 -0.07777996 -0.16347319 0.05294593 -0.06761208 -0.13190925 0.103563756 0.092201196
0.022539102 0.10197231 -0.07508953 -0.1738401 0.05772972 0.031096488 0.028300215 -0.11962116
0.071842946 -0.118348196 0.05864611 -0.02270995 -0.2058954 -0.13331799 -0.15779926 -0.049268767
-0.042113226 -0.058664296 0.13981219 0.11972978 0.062281106 0.24319689 0.02743421 0.0019501603
-0.18205827 0.06430166 0.05118903 -0.099501334 -0.24109016 0.04178681 0.10658104 -0.015130932
0.06598332 0.003054285 0.092770316 -0.09235938 -0.087816104 0.008307809 0.051946707 0.027369672
-0.02833306 -0.0810703 -0.18843997 0.08791489 0.024891946 0.06940209 -0.12807696 0.072710164
00000000: 14ca 97bd 0b05 363e 1648 a83c 243d 0a3e
00000010: 2676 31bd 46bf 1d3e e407 293c 8fa8 9cbd
00000020: 2041 0c3e 3c25 603d 900c 2e3d 3f3d e33d
00000030: 121f 23bd bb7e 803d a37b 8cbd cdda 81bd
00000040: 0eb5 39bd 7f1e fd3d 5d42 f2bc 3263 883d
00000050: eede fe3c 87c8 d53c 31a1 753c 5efd 6a3d
00000060: 41e9 e4bd 04d2 5ebc ac1e eabb 5b8a ebbd
00000070: e2ed 293c 74e1 8dbd 108c 863e b696 85bd
00000080: 1ad4 823d edbc c3bd b468 8cbc 63b1 013e
00000090: 7855 58be 2f84 1abd 6125 003a b6ec dfbd
000000a0: 017b 183e 0b73 3e3e cbab ed3c cb34 3cbd
000000b0: 2560 aabb 9722 943d ee46 ff3d f0bc ee3d
000000c0: b4b1 6c3d 840c 783e 4b8a a53b 3a2c 57be
000000d0: c7ed 213c 16cd 12be 6a29 203d a7cf 043e
000000e0: f5be 86bd d52b 37bd e9bd 273e a389 253e
000000f0: eead 5b3d 4b08 e83c 8a7b ea3d f703 f23c
00000100: 14b8 1b3d 8317 12bc 7c9c aebb 3b4b 743d
00000110: 7a00 8b3e 7d9d 43be 19d0 02be e288 fb3d
00000120: 3890 f9bd ce29 46bc 4a46 473e edcf 1ebd
00000130: 24db 0a3b 36c2 c3bd 4381 833c a686 f53d
00000140: ce35 a0bd 4b89 84bc b19c eebd 637a d13d
00000150: 5fe4 46bd 1ec9 f63d e6a4 013b 2fa4 3fbc
00000160: 8ade 56bc 0faf 1cbe b862 45bc 1565 16be
00000170: 1acd b13d 02ff e8bd 0211 5d3d 8dac e5bd
00000180: 6364 2b3e 482b 003e 07aa b03d 91ad 483e
00000190: 0a50 253d 355f 043d 90e2 e8bd b4e6 c2ba
000001a0: 67c1 a93d 09d6 e0bd 1185 ea3d 62bf c6bd
000001b0: f5e7 153d c2c3 84bd ce02 15bd 3922 b0bd
000001c0: 0072 e03d db2f 16be 2f99 a1bc f3b7 4a3e
000001d0: 8fa8 c7bd 6f32 3fbe 17e0 a73c 96ae b5bc
000001e0: 5bdd 8bbd d830 bf3d 825f 8e3c f5ab 70bd
000001f0: 9d15 52bc 838c a0bd 72ac 0b3c 75f5 763d
00000200: b288 10be a4b2 a8bd 4ebe 92bc 32cd 21be
00000210: ad72 da3d 8e4d 60bd f940 62be 63c9 fb3c
00000220: 43fa 253d d218 86bd 35da b3bb 911a 22bd
00000230: 7176 9dbb f0ab c53d 0f2b 88bd a3ff 2fbe
00000240: f11f 1c3c 4406 7dbd f68f 123c 5b59 783b
00000250: fbd9 a2bd 825f 973d 4c53 53bd 958a 883d
00000260: 7705 f83b 51cd 32be f1b0 a0bd 6907 c0bd
00000270: 1b43 f1bd 7a7c 34be 15e8 2bbd fcd1 27bd
00000280: f1c0 083e c07f 3abe bad0 46bc e4ef c63d
00000290: 9fdf 643e 55d3 cebd ca6f 38bd e4e2 c5bd
000002a0: 32ef ab3c 469a 003d 71da 75bd 1d97 63bd
000002b0: 82f6 aa3d 4d35 63bd 3e58 9c3c 9946 da3d
000002c0: b488 273e b1ef 6cbe 2a6c 2f3e fa1e b93d
000002d0: cd2f 93bd 44ef a9bd 587a 5cbd 4ac0 e03c
000002e0: ad70 92be 5d0f 003d 4da8 3d3d 0ea1 21be
000002f0: 99ac db3b 215c 81bd e28b acbc 03b0 f7bd
00000300: 23de c6bd 1fbe 76bd dd2a febd 5a2f ab3d
00000310: 5fe0 5a3c 7304 c9bc 5eab 2cbe a2e8 8aba
00000320: eb72 55bb 1a4b 9fbd 8465 27be d5dd 583d
00000330: 3478 8abd 3813 07be 3c19 d43d fbd3 bc3d
00000340: eca3 b83c dcd6 d03d 8ac8 99bd 2403 32be
00000350: 0076 6c3d 10be fe3c dad5 e73c f0fb f4bd
00000360: 6522 933d 8a60 f2bd e736 703d 380a babc
00000370: 3ed6 52be 8384 08be 2196 21be 0cce 49bd
00000380: eb7e 2cbd f949 70bd ed2a 0f3e e334 f53d
00000390: 791a 7f3d 9b08 793e b5bd e03c 859c ff3a
000003a0: 7c6d 3abe 97b0 833d 97ab 513d 5bc7 cbbd
000003b0: 57e0 76be a528 2b3d 2947 da3d bbe7 77bc
000003c0: 4322 873d 662a 483b 5dfe bd3d ea26 bdbd
000003d0: eed8 b3bd 7a1d 083c 12c6 543d 5d36 e03c
000003e0: bc1a e8bc 2f08 a6bd 68f6 40be b90c b43d
000003f0: 32ea cb3c af22 8e3d 9b26 03be 11e9 943d
