models/daily/model.onnx (onnx, 471921 bytes, 17 tensors)

model/quant_dense_2/LastValueQuant/FakeQuantWithMinMaxVars__56 f4 [32, 1]
00000000: 6779 7ebd 494b d6bb a3fd dc3d 68a1 0c3e
00000010: 86cf b4bd b29e d43e 678d 453e b3b2 9b3e
00000020: fe39 c73e 5876 31be ef98 4f3e 77b8 a03e
00000030: 0eef 853e 68a1 0c3e 0cc7 77be 0ddb 3ebe
00000040: 4ae9 803e e081 3b3e df6d 743e a49b 873e
00000050: 2b09 673e c253 93bd a411 243e b214 713e
00000060: 49d5 b9be 3b48 09be 3b48 093e 2b1d aebe
00000070: 0ddb bebe 8659 983e fe39 c73e e081 3b3e
-0.062127497 -0.0065397364 0.10790565 0.13733447 -0.088286445 0.41527325 0.19292222 0.30409774
0.38911432 -0.17330301 0.20273183 0.31390736 0.26158947 0.13733447 -0.24197024 -0.18638249
0.25177985 0.18311262 0.23870037 0.26485932 0.22562091 -0.0719371 0.16022354 0.23543051
-0.36295536 -0.1340646 0.1340646 -0.34006628 -0.37276497 0.297558 0.38911432 0.18311262

model/quant_dense_1/LastValueQuant/FakeQuantWithMinMaxVars__55 f4 [64, 32]
00000000: 6ee5 f23c 738a 5bbe 4fca 82bd db32 d23d
00000010: 5d85 463e f5dc 4fbe 7f79 95bd dfd7 ba3d
00000020: cd77 0e3e 6974 00be 9923 13be d68d 69be
00000030: 4fca 02be e721 8cbd 4b25 9a3d e721 8c3d
00000040: 7f79 953d 772f 44bd af28 a83d 3e36 603c
00000050: 3a91 773e d68d 69be 3a91 f73d af28 a83d
00000060: 612a 2f3e 59e0 5dbe 063d 7cbd b3cd 903d
00000070: 17d1 1e3e db32 d23d 0000 0000 c188 543e
00000080: a7de 56bd 1b76 87bd b3cd 103e 5c9f 813e
00000090: 7f79 95bb af28 28be c188 54be 43db c8bd
000000a0: 543b 753e af28 a8bc 3e36 e0bb 91d9 41be
000000b0: 7f79 15bb db32 d23d 7f79 95bb 17d1 1e3d
000000c0: 0ae2 643e f981 38be 9923 13be f5dc 4fbe
000000d0: 4b25 9a3d 7f79 953b 772f 44bd e37c 23be
000000e0: 6ee5 72bd 01cc 09be 65cf 173e 4fca 02be
000000f0: 7f79 15be 0f87 cd3d fd26 21be 20e7 793e
00000100: 7f79 153d a7de 563d 0000 0000 d68d e93d
00000110: 7f79 953b 3e36 e0bb 91d9 413e 738a 5bbe
00000120: dfd7 ba3d 3a91 77be a239 6e3e 738a dbbd
00000130: 612a 2fbe 2931 4b3e 317b 1c3e 7f79 953d
00000140: 20e7 79be 3e36 603c a7de 563d af28 283d
00000150: 317b 1cbe 957e 2a3e b3cd 903d 6974 803e
00000160: 1b76 87bd af28 283e 17d1 9e3d 772f c43d
00000170: dfd7 3abe a7de 56bd 6ee5 723d 317b 1c3e
00000180: 17d1 9ebd 3a91 773e c188 543e 612a 2fbe
00000190: 1b76 87bd 0000 0000 af28 28be 063d 7cbd
000001a0: 7f79 153c 6ee5 f23c 772f 44bd 7f79 153e
000001b0: 3e36 e0bb 8d34 59be a239 ee3d 43db 483e
000001c0: ab83 3f3e 3e36 60be a239 6ebe 6ee5 72be
000001d0: 3e36 60bd dfd7 ba3d 6ee5 f23c 0f87 4d3e
000001e0: a7de 563d 65cf 17be 248c 623e ab83 3f3e
000001f0: a239 6e3e dfd7 3a3e 4780 31bd ab83 bfbd
00000200: fd26 21be 248c 62be 4b25 9a3d 20e7 793e
00000210: 17d1 9e3d 7f79 95bd 7f79 953b 0ae2 64be
00000220: af28 283e af28 a83d 888f 70be 0f87 cd3d
00000230: 063d 7cbd af28 283d 7bd4 2c3e 1b76 87bd
00000240: 4fca 02be 3e36 e0bb 4fca 02bd 4fca 023e
00000250: 6974 803e a7de d6bd 3a91 773e 8d34 593e
00000260: e37c 233e 2931 4b3e 888f 703e dfd7 ba3d
00000270: 3e36 e0bc 3e36 60be 7f79 953d 6ee5 f23c
00000280: dfd7 babc f5dc 4fbe 7f79 15be 5d85 463e
00000290: d68d 69bd e721 0cbe 3e36 e0bc 4fca 823c
000002a0: dfd7 ba3d fd26 213e 1b76 873e 1b76 873d
000002b0: 3e36 e03c 0ae2 643e e721 0cbd 3e36 60bc
000002c0: 0ae2 e43d 132c b6bd 132c 36be 772f 443e
000002d0: 17d1 9e3d 738a 5bbe b3cd 90bd 248c 623e
000002e0: f5dc 4fbe 9923 133e 3e36 60be a7de 563d
000002f0: dfd7 3a3d ab83 3f3e 6ee5 723d db32 52be
00000300: 772f c43d 3e36 603e 543b 753e 6ee5 72bd
00000310: 01cc 09be 7bd4 acbd 7f79 953d 6974 803e
00000320: 738a dbbd 4780 313d 0f87 4d3e 2dd6 333e
00000330: c188 54be e721 8c3d 0f87 4d3e 4780 31be
00000340: ec92 7ebe 772f 44be 888f 703e 3e36 e03d
00000350: 4fca 023e 6ee5 f2bd 7f79 15bb 5d85 463e
00000360: 1b76 073e 7bd4 ac3d 3a91 f73d 4b25 9abd
00000370: 7f79 95bb 4b25 9abd dfd7 3abd ab83 3f3e
00000380: 59e0 5d3e 3e36 e03d 2931 4b3e dfd7 babc
00000390: c188 54be e37c a3bd 3e36 e03c 43db c8bd
000003a0: 3a91 773e 772f 44bd 4fca 023e b3cd 103e
000003b0: dfd7 3a3c 4780 b13d d68d e93d 4fca 823c
000003c0: 17d1 1ebd dfd7 ba3d b3cd 10be 3e36 60be
000003d0: af28 a8bc 91d9 413e 0ae2 e4bd ab83 bf3d
000003e0: fd26 213e 888f 703e 7f79 953c 0ae2 64be
000003f0: 17d1 1e3d 6ee5 f23d 4b25 9abd e721 0cbe
0.029650416 -0.21439533 -0.063862436 0.10263606 0.19386812 -0.20299132 -0.07298564 0.091232054
0.13912888 -0.12544407 -0.14369048 -0.22808012 -0.12772487 -0.06842404 0.07526644 0.06842404
0.07298564 -0.04789683 0.08210885 0.013684807 0.24176493 -0.22808012 0.12088247 0.08210885
0.1710601 -0.21667613 -0.061581634 0.07070484 0.15509449 0.10263606 0.0 0.20755292
-0.05245843 -0.06614324 0.14140968 0.25316894 -0.0045616026 -0.1642177 -0.20755292 -0.09807446
0.23948413 -0.020527212 -0.0068424037 -0.18930651 -0.0022808013 0.10263606 -0.0045616026 0.038773622
0.22351852 -0.1801833 -0.14369048 -0.20299132 0.07526644 0.0045616026 -0.04789683 -0.15965609
-0.059300832 -0.13456728 0.14825208 -0.12772487 -0.14597128 0.10035526 -0.15737529 0.24404573
0.03649282 0.05245843 0.0 0.11404006 0.0045616026 -0.0068424037 0.18930651 -0.21439533
0.091232054 -0.24176493 0.23264173 -0.107197665 -0.1710601 0.19842972 0.15281369 0.07298564
-0.24404573 0.013684807 0.05245843 0.041054424 -0.15281369 0.1664985 0.07070484 0.25088814
-0.06614324 0.1642177 0.077547245 0.09579366 -0.18246411 -0.05245843 0.059300832 0.15281369
-0.077547245 0.24176493 0.20755292 -0.1710601 -0.06614324 0.0 -0.1642177 -0.061581634
0.009123205 0.029650416 -0.04789683 0.14597128 -0.0068424037 -0.21211453 0.11632086 0.19614892
0.18702571 -0.21895692 -0.23264173 -0.23720333 -0.05473923 0.091232054 0.029650416 0.20071052
0.05245843 -0.14825208 0.22123772 0.18702571 0.23264173 0.18246411 -0.043335225 -0.093512855
-0.15737529 -0.22123772 0.07526644 0.24404573 0.077547245 -0.07298564 0.0045616026 -0.22351852
0.1642177 0.08210885 -0.23492253 0.10035526 -0.061581634 0.041054424 0.1687793 -0.06614324
-0.12772487 -0.0068424037 -0.031931218 0.12772487 0.25088814 -0.10491686 0.24176493 0.21211453
0.15965609 0.19842972 0.23492253 0.091232054 -0.027369615 -0.21895692 0.07298564 0.029650416
-0.022808013 -0.20299132 -0.14597128 0.19386812 -0.05702003 -0.13684808 -0.027369615 0.015965609
0.091232054 0.15737529 0.26457295 0.06614324 0.027369615 0.22351852 -0.03421202 -0.013684807
0.11175926 -0.08895125 -0.1779025 0.19158731 0.077547245 -0.21439533 -0.07070484 0.22123772
-0.20299132 0.14369048 -0.21895692 0.05245843 0.045616027 0.18702571 0.059300832 -0.20527212
0.09579366 0.21895692 0.23948413 -0.059300832 -0.13456728 -0.08438965 0.07298564 0.25088814
-0.107197665 0.043335225 0.20071052 0.1756217 -0.20755292 0.06842404 0.20071052 -0.1733409
-0.24860734 -0.19158731 0.23492253 0.10947846 0.12772487 -0.118601665 -0.0022808013 0.19386812
0.13228647 0.08438965 0.12088247 -0.07526644 -0.0045616026 -0.07526644 -0.045616027 0.18702571
0.21667613 0.10947846 0.19842972 -0.022808013 -0.20755292 -0.079828046 0.027369615 -0.09807446
0.24176493 -0.04789683 0.12772487 0.14140968 0.011404007 0.08667045 0.11404006 0.015965609
-0.038773622 0.091232054 -0.14140968 -0.21895692 -0.020527212 0.18930651 -0.11175926 0.093512855
0.15737529 0.23492253 0.01824641 -0.22351852 0.038773622 0.118601665 -0.07526644 -0.13684808

model/quant_dense_1/BiasAdd/ReadVariableOp:0 f4 [32]
00000000: 9e24 4e3c 4910 3bbc 6d06 a33c 4871 a13c
00000010: 8949 96bc f4ef c93c bd81 343c ce69 313c
00000020: 6252 3a3c b315 9ebc 72e3 813c 3b46 6f3c
00000030: bb86 013c 78e5 943c 9604 95bc e63c adbc
00000040: 62f6 1f3c 8ebf b43c b011 833b b168 613c
00000050: 5217 6c3c c06d 95bc cbc8 a43c d6aa 823c
00000060: 792f 90bc 8e68 a8bc a82b d43c 485d 7fbc
00000070: af8e 22bc 1961 5b3c 4397 463c bdc8 853c
0.012581972 -0.011417457 0.019900525 0.019707337 -0.018345611 0.024650551 0.01101726 0.010828448
0.011372181 -0.019297456 0.015855525 0.014604147 0.007905657 0.018175825 -0.018190663 -0.021147203
0.009763332 0.022063997 0.0039999112 0.0137578705 0.014409857 -0.01824081 0.020115277 0.015950602
-0.017600762 -0.020557668 0.025899723 -0.015586205 -0.009921714 0.013389849 0.012121025 0.016331071

model/quant_dense/LastValueQuant/FakeQuantWithMinMaxVars__54 f4 [32, 64]
00000000: d4d1 663e c788 e43d d3d3 b6bc bb3f 62be
00000010: 03fa 0fbe 718b a43d 4067 1bbe 29d1 f6bd
00000020: 28d3 46be a2af 2dbe a2af 2dbd ea67 0bbe
00000030: ec63 6b3e de1e 093d 5af5 ffbc de1e 093e
00000040: d3d3 363e 0f43 12bd e01a 693e 351c c93d
00000050: 1c8a 443e 4067 1bbe 0f43 923b 4cb0 1dbe
00000060: de1e 09bd 0f43 123b d4d1 66be 59f7 4fbe
00000070: 27d5 16be 891d 29be df1c 393e b943 82be
00000080: 5af5 7fbd 7ed2 56be c68c 04be 29d1 76bd
00000090: 59f7 4fbe 0f43 923c aff6 df3d e01a e9bd
000000a0: d3d3 b6bc 1c8a 443e 718b a4bc 7dd4 26be
000000b0: 341e 193e 27d5 16be 5af5 ffbc 9664 5b3d
000000c0: 0f43 92bc 113f f23d c788 64bd d3d3 b6bc
000000d0: aff6 dfbd 4cb0 1dbe eb65 bb3d d2d5 063e
000000e0: 27d5 963d 718b a43c 5af5 ffbc de1e 093d
000000f0: aef8 2f3e 9666 2bbe 718b 24be 4dae cdbd
00000100: bb3f 623e 59f7 4f3e 351c 493d eb65 3bbe
00000110: 8a1b 593e 0f43 923d 9664 5bbc bb3f 62be
00000120: 03fa 0f3e a2af adbd eb65 3b3e 718b a4bd
00000130: 03fa 0fbe 5af5 7fbe 113f f2bd 4cb1 85be
00000140: 5af5 7f3e 6640 52bd 0f43 92bc 7ed2 d6bd
00000150: 04f8 3f3e de1e 09be de1e 093d 891d a93d
00000160: 7ed2 56be b943 023e 718b a43d 7289 54be
00000170: 4dae cd3d 7289 54be 04f8 bf3d 341e 193e
00000180: f7b0 8dbd 113f f23d 4eac 7d3e ba41 b2bd
00000190: b943 023e 6640 d23d d2d5 063e 58f9 9fbd
000001a0: 891d 29be 0f43 12bc 718b 24bd aef8 2fbe
000001b0: 351c c93d 29d1 76be aff6 5fbe c68c 843d
000001c0: 29d1 763d 1d88 743e 29d1 f63d 5af5 7fbd
000001d0: f8ac edbc 7ed2 563e 9664 5b3d df1c 39be
000001e0: 0f43 12be 0f43 923b 4067 1b3e a2af 2dbe
000001f0: 0f43 923c ea67 0b3e b943 823e 9664 dbbb
00000200: f7b0 8d3d eb65 3bbe de1e 093e de1e 093d
00000210: f8ac ed3c 7ed2 d63d ea67 0b3e 9664 5b3c
00000220: de1e 093e d3d3 363e de1e 09be 9664 5bbe
00000230: c788 e43d 04f8 bfbd c788 64bd e01a 693e
00000240: 5af5 ff3d 7dd4 26be 9664 5b3c f8ac ed3d
00000250: 0f43 123e bb3f 62be 29d1 f6bd 03fa 0f3e
00000260: e01a e9bd ba41 323e 29d1 763d c788 64be
00000270: 4263 fb3d 29d1 f6bd 0f43 123d 7ed2 d6bd
00000280: c788 e4bd 1c8a c43d 4cb0 1d3e 28d3 46be
00000290: 6640 52bd 28d3 46be 58f9 9f3d d3d3 363c
000002a0: c788 e43d f8ac 6dbe 891d 293e de1e 093e
000002b0: 6640 d2bd 58f9 1fbe 28d3 46be 4263 7b3e
000002c0: 05f6 6f3e 718b a43c d3d3 36be 03fa 0f3e
000002d0: 6640 523e 9664 5b3e 05f6 6fbe 04f8 bf3d
000002e0: ba41 32be df1c 393e 1d88 74be 4cb0 1d3e
000002f0: 05f6 6f3e c68c 043e 7ed2 56be 9666 2bbe
00000300: de1e 09bd 9664 5b3d 5af5 7f3d c788 643d
00000310: 718b a43d 3f68 833e 9664 5b3e c68c 043e
00000320: 9666 2bbe 4dae 4dbe 0f43 92bc de1e 09bd
00000330: b943 02be 0f43 923d 7289 543e 58f9 1f3e
00000340: 718b 243e f8ac 6dbe 718b a4bc e01a 69be
00000350: 0f43 123c 113f f23d 7ed2 563e df1c 39be
00000360: f8ac 6d3e 1d88 743e 05f6 6f3e 0f43 123c
00000370: 04f8 3f3d 4165 4bbe 6640 52be 113f f2bd
00000380: 113f 723e 6542 22be 6542 22be b943 02be
00000390: 59f7 4f3e d3d3 363e 7ed2 563e 113f 723e
000003a0: 29d1 76bd ec63 6bbe 27d5 16be 04f8 3fbe
000003b0: 0f43 12bb 4eac 7dbe 1b8c 143e 58f9 9fbd
000003c0: 27d5 963d e01a e9bd 0f43 92bb c788 64be
000003d0: 0f43 923b b943 023e 05f6 6fbe e01a e9bd
000003e0: 29d1 f6bd 891d 29be aff6 5f3e c68c 84bd
000003f0: 04f8 3f3d 8a1b 59be 0f43 923b 9664 dbbc
0.2254098 0.11158901 -0.022317803 -0.22094624 -0.14060216 0.08034409 -0.15176105 -0.12051613
-0.19416487 -0.1696153 -0.042403825 -0.13613859 0.22987336 0.033476703 -0.031244922 0.13390681
0.17854242 -0.035708483 0.22764158 0.09819833 0.1919331 -0.15176105 0.0044635604 -0.15399283
-0.033476703 0.0022317802 -0.2254098 -0.203092 -0.14729749 -0.16515173 0.1807742 -0.25442293
-0.062489845 -0.20978734 -0.12944326 -0.060258064 -0.203092 0.017854242 0.10935723 -0.11382079
-0.022317803 0.1919331 -0.020086022 -0.16291995 0.14952928 -0.14729749 -0.031244922 0.053562723
-0.017854242 0.11828435 -0.055794504 -0.022317803 -0.10935723 -0.15399283 0.09150299 0.13167503
0.07364874 0.020086022 -0.031244922 0.033476703 0.17184708 -0.16738352 -0.16068818 -0.10043011
0.22094624 0.203092 0.049099166 -0.18300597 0.21201912 0.07141697 -0.013390681 -0.22094624
0.14060216 -0.08480765 0.18300597 -0.08034409 -0.14060216 -0.24995938 -0.11828435 -0.2611183
0.24995938 -0.051330946 -0.017854242 -0.10489367 0.18746954 -0.13390681 0.033476703 0.082575865
-0.20978734 0.12721147 0.08034409 -0.20755556 0.10043011 -0.20755556 0.09373477 0.14952928
-0.06918519 0.11828435 0.2477276 -0.087039426 0.12721147 0.10266189 0.13167503 -0.078112304
-0.16515173 -0.008927121 -0.040172044 -0.17184708 0.09819833 -0.24103226 -0.21871446 0.06472163
0.060258064 0.23880048 0.12051613 -0.062489845 -0.029013142 0.20978734 0.053562723 -0.1807742
-0.14283393 0.0044635604 0.15176105 -0.1696153 0.017854242 0.13613859 0.25442293 -0.0066953404
0.06918519 -0.18300597 0.13390681 0.033476703 0.029013142 0.10489367 0.13613859 0.013390681
0.13390681 0.17854242 -0.13390681 -0.21425089 0.11158901 -0.09373477 -0.055794504 0.22764158
0.12497969 -0.16291995 0.013390681 0.11605257 0.14283393 -0.22094624 -0.12051613 0.14060216
-0.11382079 0.17407885 0.060258064 -0.22317801 0.12274791 -0.12051613 0.035708483 -0.10489367
-0.11158901 0.09596655 0.15399283 -0.19416487 -0.051330946 -0.19416487 0.078112304 0.011158901
0.11158901 -0.23210514 0.16515173 0.13390681 -0.10266189 -0.15622461 -0.19416487 0.24549583
0.23433693 0.020086022 -0.17854242 0.14060216 0.20532379 0.21425089 -0.23433693 0.09373477
-0.17407885 0.1807742 -0.23880048 0.15399283 0.23433693 0.12944326 -0.20978734 -0.16738352
-0.033476703 0.053562723 0.062489845 0.055794504 0.08034409 0.2566547 0.21425089 0.12944326
-0.16738352 -0.20086022 -0.017854242 -0.033476703 -0.12721147 0.07141697 0.20755556 0.15622461
0.16068818 -0.23210514 -0.020086022 -0.22764158 0.008927121 0.11828435 0.20978734 -0.1807742
0.23210514 0.23880048 0.23433693 0.008927121 0.046867386 -0.19862844 -0.20532379 -0.11828435
0.2365687 -0.1584564 -0.1584564 -0.12721147 0.203092 0.17854242 0.20978734 0.2365687
-0.060258064 -0.22987336 -0.14729749 -0.18746954 -0.0022317802 -0.2477276 0.14506571 -0.078112304
0.07364874 -0.11382079 -0.0044635604 -0.22317801 0.0044635604 0.12721147 -0.23433693 -0.11382079
-0.12051613 -0.16515173 0.21871446 -0.06472163 0.046867386 -0.21201912 0.0044635604 -0.026781362

model/quant_dense/BiasAdd/ReadVariableOp:0 f4 [64]
00000000: 53ea 6abc bf08 23bc fd73 7239 1715 e4bb
00000010: 2808 d239 38f2 043c dec2 52bc 0000 0000
00000020: b7b0 5cbc 85f2 f4bb 88f2 65bc 0000 0000
00000030: 0935 a03c 4cf0 29bc 1c24 f9ba fd9f 81bc
00000040: 4844 b83b bfb1 c2bb 6599 b5bb 5797 103b
00000050: 7bee 003c 4388 70bc 7ebd 51bc 0000 0000
00000060: d7fe 203c 202f ddbb a369 c1bb 5158 ce3b
00000070: 916d 873b 0000 0000 20b1 07bc 80ef 44bc
00000080: b9b3 bb3c 2050 2cbc 2452 c43b 0000 0000
00000090: a90b 0f3c ee21 0cbc ead8 6c3c d4ca f7bb
000000a0: f51b 3d3c 8076 a9bb 6973 22bc d3c9 1abc
000000b0: c5b4 213c 0000 0000 1015 e1bb 2f4f 893a
000000c0: 7aac ca3b 63e2 663b cc06 8e3a 0000 0000
000000d0: 947f a53b a6b4 1abc b689 0bbc efc2 6bbc
000000e0: d9e2 3ebc 5646 583c 3e7f 16bc 2d7d 53bb
000000f0: b7ea 523c 3d94 8cbc 0da6 a43c 987e 3fbc
-0.014338094 -0.009950816 0.00023122127 -0.006960522 0.00040060398 0.00811439 -0.012863843 0.0
-0.0134698665 -0.0074751996 -0.014034875 0.0 0.01955654 -0.010372233 -0.0019007954 -0.015823359
0.005623374 -0.005941599 -0.0055419677 0.0022062862 0.007869358 -0.014680925 -0.012801526 0.0
0.009826384 -0.0067500025 -0.0059024855 0.006297149 0.0041329344 0.0 -0.008281976 -0.012019992
0.022912847 -0.01051715 0.0059912372 0.0 0.008730807 -0.008553011 0.014456013 -0.007562021
0.01154231 -0.005171597 -0.009915211 -0.009447533 0.009869759 0.0 -0.006868966 0.0010475869
0.0061851116 0.0035230152 0.0010835766 0.0 0.005050609 -0.009442484 -0.00851672 -0.0143897375
-0.011650764 0.013200363 -0.00918561 -0.0032270656 0.012873343 -0.01716053 0.02009871 -0.011687897

model/gru_3/gru_cell/ReadVariableOp/resource:0 f4 [2, 96]
00000000: 05bb 913c 710b c43c c5e1 ab3c dc5a 4ebc
00000010: d10d 0d3d 1c27 353d 3b4b e13c 4cf6 1cbc
00000020: d846 983c 33b1 c83a 3510 f2bb 28e5 7c3b
00000030: 2392 a2ba 6789 0a3d bf2f 893b cfeb 383c
00000040: c6c1 853c daec 813c 9d78 a0ba ce0b a13c
00000050: 2628 9db9 a1d2 e3ba a440 72bb 5c1d b2bb
00000060: be5c 80ba 1856 6e3b 2793 9fbc 2b7a 91ba
00000070: 3415 0a3c 4f2d 5e3b 5b9e 35bc 4387 72bc
00000080: 2f54 4abc 2610 f9bc b8f5 583b bb22 9cbc
00000090: f6aa b8bb 321f 983a 84f6 06bc d1ea 49bc
000000a0: cddd 8e3b f216 593a 851b b0bc 3093 eabc
000000b0: bc3c de38 7f11 12bc 0f59 61bc 4141 843c
000000c0: 74f3 86bc 1bcf 9f3b dc2a ffbb a557 a5bc
000000d0: ab8f ebbb 6543 293c fdf0 10bb 0916 2f3c
000000e0: 702a 1f3b 6e1d 033b 80f3 a6bc 067e 6fbc
000000f0: 1e9b 4cbc 9862 cabb 9e93 35ba d875 c8bb
00000100: 093b 043c 13f7 7f3b c16e 923b b825 fd3b
00000110: d875 bfb9 9b73 f83a 4211 18bc 5216 603b
00000120: 66e3 313b d5c2 59bb 18b9 8dbc f87f bb3b
00000130: 3c73 09bc f27b 773b 62c6 18bc fc2e 60bc
00000140: c4f1 7cbc 88fc 9db9 4ba2 3abc 70d8 42ba
00000150: 76e7 023a d12a 15bc 4662 15bc 2ee9 35bc
00000160: 8e74 4dbc b5bb 35bb b6c7 693a a451 82bc
00000170: c865 f9ba 4120 07bb 2d19 b3bb 2622 13b9
00000180: 05bb 913c 710b c43c c5e1 ab3c dc5a 4ebc
00000190: d10d 0d3d 1c27 353d 3b4b e13c 4cf6 1cbc
000001a0: d846 983c 33b1 c83a 3510 f2bb 28e5 7c3b
000001b0: 2392 a2ba 6789 0a3d bf2f 893b cfeb 383c
000001c0: c6c1 853c daec 813c 9d78 a0ba ce0b a13c
000001d0: 2628 9db9 a1d2 e3ba a440 72bb 5c1d b2bb
000001e0: be5c 80ba 1856 6e3b 2793 9fbc 2b7a 91ba
000001f0: 3415 0a3c 4f2d 5e3b 5b9e 35bc 4387 72bc
00000200: 2f54 4abc 2610 f9bc b8f5 583b bb22 9cbc
00000210: f6aa b8bb 321f 983a 84f6 06bc d1ea 49bc
00000220: cddd 8e3b f216 593a 851b b0bc 3093 eabc
00000230: bc3c de38 7f11 12bc 0f59 61bc 4141 843c
00000240: 74f3 86bc 1bcf 9f3b dc2a ffbb a557 a5bc
00000250: ab8f ebbb 6543 293c fdf0 10bb 0916 2f3c
00000260: 702a 1f3b 6e1d 033b 80f3 a6bc 067e 6fbc
00000270: 1e9b 4cbc 9862 cabb 9e93 35ba d875 c8bb
00000280: 4ced fc3b 328b 853b b5ee 8c3b 737f fb3b
00000290: 49da 13ba d578 bb3a 2e54 13bc 8cf8 513b
000002a0: 452f 163b 28d4 48bb bee5 88bc af80 983b
000002b0: 1a18 06bc 1530 763b 9cf4 12bc 850e 61bc
000002c0: 0643 7abc e6ee beb8 f521 41bc 0f89 5cba
000002d0: 4e0c 7d39 72c0 15bc 30a5 12bc 9c12 36bc
000002e0: 6e0e 44bc 94de 2abb dc35 a539 8994 82bc
000002f0: 0730 e6ba ff12 09bb 85d2 afbb 6ead 3bb9
0.017789373 0.023931237 0.020981679 -0.012594905 0.034437004 0.04422675 0.027501693 -0.009580206
0.018588468 0.0015311599 -0.007387186 0.0038588736 -0.0012403171 0.033822443 0.0041866 0.01128669
0.01632775 0.01586001 -0.0012242977 0.01965895 -0.00029975286 -0.0017381498 -0.0036964798 -0.005435629
-0.0009793264 0.0036367234 -0.019479347 -0.0011099031 0.008427907 0.0033901518 -0.011085118 -0.014802757
-0.0123491725 -0.030403208 0.0033105444 -0.01905953 -0.0056356145 0.0011605977 -0.008237485 -0.012324051
0.004359937 0.0008281312 -0.021497497 -0.028634638 0.000105970976 -0.008915304 -0.013754143 0.016144397
-0.01647351 0.004876984 -0.0077870917 -0.020183394 -0.0071887574 0.0103310095 -0.0022116296 0.010686406
0.002428677 0.0020006555 -0.020379782 -0.014617449 -0.012488155 -0.006176304 -0.0006926599 -0.0061175637
0.008070716 0.003905718 0.0044687693 0.0077254437 -0.0003651816 0.0018955352 -0.009281458 0.0034192991
0.0027143597 -0.0033227701 -0.017300174 0.005722042 -0.00838929 0.0037763086 -0.009324642 -0.013683077
-0.015438501 -0.00030133524 -0.011391233 -0.00074327644 0.0004993597 -0.0091044465 -0.0091176685 -0.011102958
-0.012539996 -0.002773029 0.0008918004 -0.01590807 -0.0019027526 -0.002061859 -0.0054656477 -0.00014031734
0.017789373 0.023931237 0.020981679 -0.012594905 0.034437004 0.04422675 0.027501693 -0.009580206
0.018588468 0.0015311599 -0.007387186 0.0038588736 -0.0012403171 0.033822443 0.0041866 0.01128669
0.01632775 0.01586001 -0.0012242977 0.01965895 -0.00029975286 -0.0017381498 -0.0036964798 -0.005435629
-0.0009793264 0.0036367234 -0.019479347 -0.0011099031 0.008427907 0.0033901518 -0.011085118 -0.014802757
-0.0123491725 -0.030403208 0.0033105444 -0.01905953 -0.0056356145 0.0011605977 -0.008237485 -0.012324051
0.004359937 0.0008281312 -0.021497497 -0.028634638 0.000105970976 -0.008915304 -0.013754143 0.016144397
-0.01647351 0.004876984 -0.0077870917 -0.020183394 -0.0071887574 0.0103310095 -0.0022116296 0.010686406
0.002428677 0.0020006555 -0.020379782 -0.014617449 -0.012488155 -0.006176304 -0.0006926599 -0.0061175637
0.0077187177 0.0040754313 0.004300917 0.0076751052 -0.0005640132 0.0014302979 -0.008992238 0.0032039015
0.0022916358 -0.0030644033 -0.016711112 0.004654012 -0.008184457 0.003756528 -0.008969452 -0.013736372
-0.015274769 -9.104404e-05 -0.011787881 -0.00084127573 0.00024132544 -0.009140121 -0.008950517 -0.011112835
-0.011966331 -0.0026072608 0.0003151138 -0.015939968 -0.0017561921 -0.0020915864 -0.005365672 -0.00017898317

model/gru_3/gru_cell/MatMul_1/ReadVariableOp/resource:0 f4 [32, 96]
00000000: 127f 80bc 774d c83d 6047 00bd a942 ae3c
00000010: 7f3d 02bd 9903 543e 015a 503d 4cf2 9d3d
00000020: 2cd2 51bd 29f1 83bd 7735 71be a872 823c
00000030: 1846 273a a38f de3d 4a71 1c3d 78ce 5ebd
00000040: 02b7 e93c 86a1 113d b267 f6bc 3184 983d
00000050: ee95 7bbc 697f 55be 8946 483b 8df3 493c
00000060: 2659 383c 9d89 9dbd 939a 093e e9c7 37ba
00000070: 2085 af3d 9f5c eebd f173 82be 09fd 22be
00000080: 5c46 8dbd 4bec a6bb 8472 4d3d d0f2 9f3c
00000090: f213 62bd ba34 7dbc fecc 3c3c c82f e2bd
000000a0: def8 64bd 557b acbd 2902 f1bd 6202 63bc
000000b0: 7efa c9bd 9f26 fbbd f106 7abc 9b9b b0bb
000000c0: 576d 9d3c a14e f93d 0636 023e 8f79 943b
000000d0: 251f 2c3c 7fbc c43b 75a7 a23d 7d44 ff3d
000000e0: 25c8 e8bb d350 c93c 78f6 2bbe 604e ccbd
000000f0: 7ac8 623e f05b 4fbe 7191 963d 8a2c 31be
00000100: 4ecb 433d 70cc 0fbd 11e6 e3bd efdd 2b3c
00000110: 5fc1 0fbe 57dc 223e d8a8 aabc e012 e5bd
00000120: bd0a 23bd 8c3c 35be 003e 2ebb d3dd 81bd
00000130: b6e6 893d 6f61 6fbd 3170 d1bd 8a79 95bd
00000140: 4809 8f3e fbf8 2a3e 99bd 323e e679 123d
00000150: e697 b6bc 0495 4fbe fbf1 453e 545e 29bd
00000160: 9ada c43b 1c1d db3d 0439 38bd e95d 70bd
00000170: abbc c8bb 209e acbd 11b9 20bb 5bc3 533e
00000180: 5545 aabd 2372 cb3b 6879 ed3d 8768 843c
00000190: 6a89 4a3e 5460 7f3d 36f8 b63c c481 c7bd
000001a0: a59d d33d 0525 15bd 68ec 833e 3918 4bbd
000001b0: 0c3c 34be 3cfc e43d 273a 7cbb d328 5d3c
000001c0: c778 5d3d 7b13 ecbc ebb7 98bd a6a8 893d
000001d0: ff0e 24bd 50d7 8bbb 2bc7 2bbe e793 90bd
000001e0: 4540 49be 9228 60bd a599 07bd 5d3d 81bd
000001f0: 91e3 82bc 0777 a9bd 0817 733c a481 26ba
00000200: ae04 cdbd 5476 38bd 7aae 1a3e fd4c 98bd
00000210: 664e 34bd a470 8abd 187e 073e eda2 0fbd
00000220: fa4f 623d ad16 203d b2e2 cc3d 3954 febd
00000230: aa49 86ba 229e e63d df28 ad3c 350c ed3d
00000240: a421 833d 0e83 f93d db23 acbd 799d 4f3c
00000250: c717 bebc 3b5c 003e 6925 173e 18ed 993d
00000260: 0c8e cf3c d795 953c a050 32be 9322 3d3d
00000270: 2748 133e a302 083d 8ea3 e9bd 94c9 b03c
00000280: 604d 2c3d 5e51 dcbd abf6 2f3e 660e eabd
00000290: 05b0 2bbe a92c 94bc 4996 523e 618e 3a3c
000002a0: f9af 053e 888c 2f39 813c 303d eaf4 54bd
000002b0: d17f f23d f40c 74bb 5952 d23d 911b e7bd
000002c0: 94e9 293d 7d31 c9bd be68 d4bc d35e 80be
000002d0: b9d0 0c3d 525d cfbc 709e a5bc 13ab 89be
000002e0: 2eba e03d d261 253e 0bf5 843e 300e 89bd
000002f0: 1564 02be a0a0 dfbd d6e8 f1bc 80a5 423d
00000300: 14a7 1b3e 6646 9b3d e28d 8e3d 7c5e 243a
00000310: 30e5 10bc 9392 443e 4c96 af3d faf0 c43c
00000320: 158c 073d 128b f33d 9166 26be 5c8c 7abc
00000330: 8f0d 1fbe caea e7bd 708c 273e 9f5e 9f3d
00000340: 73d0 5b3d 1bd1 213e 1009 77bd 32ec 283e
00000350: e426 90bd 022d 2abd 673a 993b 103e a8bd
00000360: 40b0 93be a31e 24bd 26d2 7a3d 8a24 103e
00000370: 2dcd 94bc 5c4d 073c b243 2a3e 4396 a03e
00000380: 0de8 eabc e310 fcbd c58c 74bd ff15 ea3d
00000390: b1b5 d0bd 0fde a7bd 6d55 3b3d faaf 243e
000003a0: 4963 343d 91f1 053e c97e 693d 7d7b 7dbc
000003b0: 2174 a3bd ec0b 213c bbc6 69bd fb36 1a3b
000003c0: d948 26bd 84ba 873d faa5 2e3e 5f35 b5bc
000003d0: 2c22 023e c8e5 81bc 2892 0cbe 05c7 133e
000003e0: d4a0 8abd ee9a de3d 9afd ee3d 94af 173e
000003f0: f31e 5f3d 48e8 c73d 85a4 9bbe 15dd f33d
-0.015685592 0.097804 -0.03131807 0.02127202 -0.03179693 0.20704497 0.050867084 0.0771223
-0.051225826 -0.06442482 -0.23555551 0.015923813 0.0006380989 0.1086724 0.03819398 -0.054396123
0.028529648 0.03555443 -0.030078743 0.074470885 -0.01535557 -0.20849384 0.003055962 0.012326133
0.011251723 -0.07692263 0.13437872 -0.0007010685 0.085703135 -0.1163876 -0.2547908 -0.15916838
-0.068981856 -0.0050940863 0.05015804 0.019524962 -0.055194803 -0.0154544655 0.011523483 -0.1104427
-0.0559014 -0.08421961 -0.1176799 -0.013855549 -0.09862231 -0.12263226 -0.015260444 -0.0053896434
0.019217176 0.121732004 0.12715921 0.0045310925 0.010505472 0.006003916 0.07942096 0.12464235
-0.007103937 0.024574673 -0.16793239 -0.09975886 0.22146788 -0.20249915 0.073519595 -0.17302147
0.04780131 -0.035107076 -0.11127866 0.010489925 -0.14038609 0.15904365 -0.020832464 -0.11185241
-0.039805163 -0.17698878 -0.0026587248 -0.06341138 0.06733458 -0.05844253 -0.10226477 -0.07298572
0.2793677 0.16696541 0.17455138 0.035760783 -0.022289228 -0.20271689 0.1933059 -0.041349724
0.0060075046 0.106989115 -0.04497625 -0.05868331 -0.0061260066 -0.084285975 -0.002452437 0.20679991
-0.08314005 0.0062086745 0.11595422 0.016163124 0.19778982 0.062347725 0.022335153 -0.09741548
0.10332803 -0.036412258 0.257663 -0.049583647 -0.17601031 0.111809224 -0.003848681 0.013498503
0.05407026 -0.028817883 -0.074569546 0.0672162 -0.040053364 -0.0042676106 -0.16775195 -0.0705946
-0.19653423 -0.05472619 -0.03310551 -0.06310532 -0.015977653 -0.08274656 0.014837034 -0.00063517154
-0.10010658 -0.04503472 0.1510562 -0.07436559 -0.04402008 -0.06759766 0.13231695 -0.035067488
0.055252053 0.039084125 0.10004176 -0.12418408 -0.0010245342 0.1126063 0.021137653 0.11574594
0.06402901 0.121832 -0.084052764 0.012671822 -0.023204697 0.12535183 0.14760365 0.07515925
0.025336288 0.018259926 -0.17413568 0.04617555 0.14382993 0.03320564 -0.11408149 0.021580495
0.042065978 -0.10757707 0.1718394 -0.114285275 -0.16766365 -0.018087702 0.20565142 0.011386485
0.1305541 0.00016741653 0.04302645 -0.05199138 0.11840785 -0.0037239166 0.10269613 -0.11284555
0.041482523 -0.09823892 -0.025928851 -0.25072345 0.03437874 -0.025313053 -0.02021715 -0.26888332
0.10973011 0.16150597 0.25968203 -0.06692159 -0.12733491 -0.10919309 -0.02952997 0.047521114
0.15200454 0.07581787 0.06960656 0.0006270183 -0.008843705 0.19196539 0.08573589 0.024040688
0.033092577 0.1189176 -0.16250063 -0.015292253 -0.15532516 -0.11324079 0.16362166 0.077817194
0.05366559 0.15802424 -0.060311377 0.16496351 -0.07038668 -0.04154683 0.0046761516 -0.082149625
-0.28845406 -0.04006828 0.06123557 0.14076439 -0.018164242 0.00825819 0.16627386 0.3136464
-0.028675104 -0.123079084 -0.05970456 0.11429977 -0.10190905 -0.08196651 0.045735765 0.16082755
0.04404 0.13080432 0.057005677 -0.015471336 -0.07981134 0.009829503 -0.05707429 0.0023531306
-0.040596817 0.06627372 0.17055503 -0.022120176 0.12708348 -0.015856639 -0.13727629 0.14431389
-0.06768957 0.10869394 0.116694644 0.14813071 0.054472875 0.09761101 -0.30398956 0.119074024

model/gru_3/gru_cell/MatMul/ReadVariableOp/resource:0 f4 [32, 96]
00000000: 0532 493d 5ce5 4a3d b0d2 39be d1e9 b23d
00000010: a5c1 08bc c0b2 483d 8d2d 9dbc 7ba5 383e
00000020: 7ca6 55be 43d5 ed3c 25bf 43be 0ea5 c43d
00000030: 2d88 a93d 0088 1ebc 55e2 0f3e 6d79 33bb
00000040: 7cc4 453e e3cb 7ebd 1b4c 4dbe b73f af3d
00000050: 3763 0bbe 2383 94bd 0628 0bbe 4c21 0b3d
00000060: eeb4 dcbd 9bc9 28be 93aa b73d 273f c33d
00000070: 57cf 0bbe 0a18 8abd 1e3f c43d ee20 cbbd
00000080: e415 4ebe ba83 43be 86c3 6abc 00d6 013d
00000090: 7e72 5a3e 4a9a dcbd 16da 4e3e e88c 25be
000000a0: 3249 20be b0b4 39bd 68fb 4abe f8a2 0f3c
000000b0: 5387 45be 1f0c 5dbe 7ce8 c63d fd0e 513e
000000c0: 7526 30be 6c25 bbbb c348 34bd 90e7 cb3d
000000d0: 8d31 553e 0d2e b7bd 184d f3bd ff8b 583e
000000e0: 2c56 50be ba44 4d3e 3d51 993d c533 bebc
000000f0: 1bf1 3f3e 7d01 253e c418 053e fc2f 7cbc
00000100: f7d3 5a3e 2dd2 ff3d 4772 a73d a8dc 45be
00000110: 2b2d 6c3c 71da d7bd 01a7 18be 3369 a5bd
00000120: b979 56be dbc3 0e3e 111a 07bd f284 183d
00000130: 8993 1b3e eaa5 2cbe 44c5 fabd ff32 19be
00000140: 30ec f4bd c0fa a73d e949 903c 149c 3ebd
00000150: 7423 bdbd 781f 4ebd 354e 5e3c 1a64 2abe
00000160: e62b 17be 55f1 043d f53b cb3d 10e2 0abe
00000170: b747 fa3c 17de 2bbc 7309 f23a f81a 53be
00000180: fe6b 92bd 8d0b 31bc ff31 9a3d 85f5 14bd
00000190: f9ea 19be c9f1 c53d ba4b 7ebd 882a 61be
000001a0: 9e9c c2bc bafc f53d 1598 43be 8e1f 663d
000001b0: 2ed7 23be 3b32 a8bd bd16 dcbb f836 02be
000001c0: 6077 333e 794f ef3d 26b8 06be 3281 ecbd
000001d0: 82d2 473d fd87 f0bd e64a 56be 35d8 003d
000001e0: 7bb5 58be 83df 333e b20a 403e c9d2 7b3d
000001f0: 9039 c0bd 926e 41be 2496 e13d 8584 2d3e
00000200: 5d02 a43b 104a 9ebd 1fe4 d3bd 7264 29be
00000210: be9f cebd 0dd5 58be 1691 283e fe15 13be
00000220: b492 643b 15f4 20bd 0b47 2fbd 20aa 81bd
00000230: 07aa e63d 5f82 2abb bf0d 1f3e 9b14 55be
00000240: 4af6 863d ebb8 4a3e a98f 373e 9856 a63d
00000250: 959f 4fbe cb2a 39be 825d 2abe c10d 423e
00000260: ba82 8c3d a4e8 2ebe 91bb b8ba 08c8 373e
00000270: a615 8ebc caca 563e cbd0 4e3e 31ab 123e
00000280: 5467 7c3c e08c 8fbd 68f5 04be 6aa2 ebbd
00000290: cc81 493e d092 893d 9d1b b23d fb05 d5bd
000002a0: 9fb1 08bd 4693 57bd 4245 adbd 190c b1bd
000002b0: 804a 1cbe 958a 1b3e 16eb 8cbd f5cf c5bd
000002c0: 7d7c 443e dff7 46be c4c9 b3bd 0c98 dc3d
000002d0: 8d5b d0bd 3ba2 2f3e 1a04 063b 8373 a43d
000002e0: 4c14 333e 59e1 fe3d 918f 133d 9b3f 2f3e
000002f0: fea1 c23b 5a1e 2ebe 80a9 b4bd f2ef 47bc
00000300: 532c 1e3e bd76 3fbe 4556 833d 7f5b 053d
00000310: 03e6 4dbc 0616 573e e82c a63d cb50 593e
00000320: 0758 5c3e 9db9 a83d 6c65 0c3e 6e8e 5bbe
00000330: c461 38be f050 2b3e a41c 95bd c881 f8bd
00000340: 8030 39be 13e6 453d c0d0 d9bc 52ff a23d
00000350: c36b f3bd 5b19 0f3d 5f7d edbd fe10 5ebd
00000360: 2270 b3bd 889f 913c 1986 643d 5fef 163e
00000370: c8f1 c63d 4e30 273e 166b d4bd 6e29 c4bb
00000380: a357 60bd c8cc 0f3e 2c01 023e 3941 f4bd
00000390: ce5d 153e baec 0d3d b983 f8bd 1bba cabd
000003a0: 6486 4abe 6f3e 2f3e 8f6a e03d b3bf f03a
000003b0: 1662 403d 94bc d43d 5a30 d9bd f3c1 5f3e
000003c0: 85f4 393d ab4c 353e 4a71 dabd 6985 4abe
000003d0: 7f54 2bbe bf51 3ebe e1e5 9b3c 2247 993c
000003e0: 4556 c23c 002e aabd 262f 0dbe ddfe 8ebd
000003f0: 78c1 e23d c4ec e43d 2c3d 05be 953b e03c
0.049119968 0.04953514 -0.18146777 0.08736003 -0.00834695 0.048998594 -0.01918676 0.18031876
-0.2086429 0.029032355 -0.19115885 0.09601794 0.082779266 -0.00967598 0.14051183 -0.0027385608
0.19313234 -0.06220616 -0.20048563 0.085570745 -0.13612066 -0.07251575 -0.13589486 0.0339673
-0.10776697 -0.16483156 0.08968081 0.0953353 -0.13653313 -0.06742866 0.09582351 -0.0991839
-0.20125538 -0.19093218 -0.014328843 0.031698227 0.21332738 -0.10771616 0.2020038 -0.16167033
-0.15652922 -0.045338333 -0.19822466 0.008766882 -0.19289903 -0.21586655 0.097123116 0.20415874
-0.1720217 -0.005711248 -0.044014703 0.099562764 0.20819683 -0.0894433 -0.11879939 0.21147154
-0.20345372 0.20045748 0.07486198 -0.023218045 0.18744318 0.16113849 0.12997729 -0.0153923
0.2136992 0.1249126 0.081760935 -0.19322455 0.014415066 -0.10539711 -0.14907457 -0.08076706
-0.20944871 0.139419 -0.032983843 0.03723616 0.15192999 -0.16860166 -0.12244657 -0.1496086
-0.11959112 0.08202124 0.017613368 -0.046535566 -0.09235278 -0.05032298 0.013568451 -0.16639748
-0.1476284 0.032456715 0.09923545 -0.13562799 0.030551774 -0.010489962 0.0018465951 -0.20615757
-0.07149504 -0.010805977 0.07529067 -0.03636696 -0.15031041 0.096652575 -0.062083937 -0.2198888
-0.023756322 0.120110944 -0.19100983 0.056182437 -0.16000053 -0.08212706 -0.006716578 -0.12716281
0.17526007 0.1168508 -0.13156185 -0.115480796 0.04878474 -0.11744688 -0.20927009 0.03145619
-0.2116298 0.17565732 0.1875408 0.061480317 -0.09385979 -0.18889835 0.11014965 0.16945083
0.0050051645 -0.0772897 -0.10346245 -0.16542223 -0.10089062 -0.21175022 0.16461596 -0.14363858
0.003487748 -0.039295275 -0.04279236 -0.06331277 0.11262899 -0.0026017649 0.15532587 -0.20808642
0.06589945 0.19797103 0.17925896 0.08121985 -0.2027572 -0.1808273 -0.16637233 0.18950559
0.068608716 -0.17080933 -0.0014093985 0.179474 -0.017344307 0.20975795 0.20196836 0.14323117
0.015405495 -0.07009292 -0.1298424 -0.115055874 0.1967842 0.067174554 0.08696673 -0.10401531
-0.033372518 -0.052630685 -0.084604755 -0.086448856 -0.15262794 0.15189584 -0.068807766 -0.09658805
0.19188114 -0.19430493 -0.08778718 0.10771188 -0.10173712 0.1715173 0.0020449222 0.080298446
0.17488211 0.124453254 0.036025587 0.17114107 0.005939721 -0.17003766 -0.08821392 -0.0122032035
0.15446596 -0.18697639 0.06412939 0.03255796 -0.012567046 0.21004495 0.08114034 0.21222226
0.21517955 0.08238528 0.13710564 -0.21441051 -0.18006045 0.16730094 -0.072808534 -0.12134129
-0.18084908 0.04831512 -0.026588798 0.07958855 -0.11885788 0.03493629 -0.11596178 -0.054215424
-0.08761622 0.017776266 0.055791948 0.1473975 0.09714085 0.1632702 -0.103719875 -0.005986384
-0.054771077 0.14042962 0.1269576 -0.11926503 0.14586565 0.03464959 -0.12134499 -0.09898778
-0.19777828 0.1711366 0.109578244 0.0018367678 0.046968542 0.10387531 -0.106049255 0.2185133
0.045399208 0.17705028 -0.106661394 -0.19777454 -0.16731451 -0.18585871 0.019030513 0.018710677
0.023722777 -0.08309555 -0.13787517 -0.06982205 0.110720575 0.11177972 -0.13011616 0.02737216

model/gru_2/gru_cell/ReadVariableOp/resource:0 f4 [2, 96]
00000000: 0cda a63b edce 413b ca8e 85bc ca9a baba
00000010: d392 d8ba e0b4 4bbd 3c4d d8bc 686e a7bb
00000020: b59e 033a 6e27 d83b 1ad6 a7bb cba1 e1bc
00000030: 6b09 a1bc dfca 59bc f022 16bc 2a53 82bc
00000040: b965 1fbd 7519 d8bc 2b51 01bd 0c3d 22bd
00000050: 7263 80bc 41b8 e0bc ea45 edb7 64d5 3d3b
00000060: e275 cdba b874 4eba a019 0d3c d513 ee3b
00000070: 99a5 7abc 0dfe ccbc 5d35 f639 1f44 073c
00000080: 6145 a13a ce5e b9b8 6b54 85bb b026 243c
00000090: e624 063b ae69 503c 39ce 153b 4d27 aebc
000000a0: ca7a 4fbc 3c01 51bc af36 7c3b 17e4 5f3b
000000b0: 4afa 02bc aa33 31bc 2f8a 783b 24e0 41ba
000000c0: d825 98bc afba 283c 8016 28bb 8885 6f3b
000000d0: 1e72 4d3b 492c 433b 93ef 9cb8 472e 5b3c
000000e0: 5877 9bbc bafa 2139 fc61 51bb c287 3cbc
000000f0: aef4 5ebc d4c2 2d3b 1e8f 973b 91b1 25bc
00000100: 5c94 08bc bc41 57bc 5233 d2bb f042 34bc
00000110: beea 013c 0730 ab3b b202 a23a 7e14 cd3b
00000120: 3db3 58bc 457e 63bc f244 2cbc 3456 1e3b
00000130: 3067 6c39 b2c1 34bb 48b9 d0ba 2f5b 9dbb
00000140: fadd a43a 1ba7 273b 2e83 1bba 54a8 173b
00000150: 154f 963a 62de 343a bb01 1dbc a4ec 48bc
00000160: 6c6d 233b e846 6cbb 8068 78bc 9fc3 3abc
00000170: a872 e43a 1f5c b03a 7d1c 41bc 0ffb 78bb
00000180: 0cda a63b edce 413b ca8e 85bc ca9a baba
00000190: d392 d8ba e0b4 4bbd 3c4d d8bc 686e a7bb
000001a0: b59e 033a 6e27 d83b 1ad6 a7bb cba1 e1bc
000001b0: 6b09 a1bc dfca 59bc f022 16bc 2a53 82bc
000001c0: b965 1fbd 7519 d8bc 2b51 01bd 0c3d 22bd
000001d0: 7263 80bc 41b8 e0bc ea45 edb7 64d5 3d3b
000001e0: e275 cdba b874 4eba a019 0d3c d513 ee3b
000001f0: 99a5 7abc 0dfe ccbc 5d35 f639 1f44 073c
00000200: 6145 a13a ce5e b9b8 6b54 85bb b026 243c
00000210: e624 063b ae69 503c 39ce 153b 4d27 aebc
00000220: ca7a 4fbc 3c01 51bc af36 7c3b 17e4 5f3b
00000230: 4afa 02bc aa33 31bc 2f8a 783b 24e0 41ba
00000240: d825 98bc afba 283c 8016 28bb 8885 6f3b
00000250: 1e72 4d3b 492c 433b 93ef 9cb8 472e 5b3c
00000260: 5877 9bbc bafa 2139 fc61 51bb c287 3cbc
00000270: aef4 5ebc d4c2 2d3b 1e8f 973b 91b1 25bc
00000280: 720d 0bbc e69b 52bc 3650 d5bb 1c7c 34bc
00000290: 7ffe fa3b d7b1 ad3b ac37 753a b1d6 c53b
000002a0: b0d6 59bc ae87 61bc 4885 2bbc 1aae 063b
000002b0: 74bd 343a 001e 26bb 1eeb 9fba be71 93bb
000002c0: 4b2b 923a f4ad 423b 38fb 04ba 1637 ed3a
000002d0: eaee 813a 1a99 5b3a 8619 0fbc 67db 49bc
000002e0: a8b0 2c3b c8d1 6dbb b419 77bc 3022 3dbc
000002f0: c00f e33a d4eb 943a 86ee 3ebc 2770 79bb
0.005091911 0.00295728 -0.016303439 -0.0014236805 -0.0016523249 -0.049733043 -0.026404016 -0.005109597
0.00050209026 0.0065964973 -0.0051219584 -0.02754297 -0.019657811 -0.013292997 -0.009163603 -0.015908796
-0.03891537 -0.026379326 -0.03157155 -0.039609 -0.01567242 -0.02743161 -2.8285158e-05 0.0028966302
-0.0015675391 -0.0007875669 0.0086120665 0.0072655478 -0.015298271 -0.025023485 0.00046960535 0.008255987
0.0012304002 -8.839146e-05 -0.0040689013 0.010018989 0.002046877 0.0127205085 0.0022858514 -0.021258974
-0.012663553 -0.012756642 0.0038484742 0.0034163052 -0.007994244 -0.01081554 0.003792416 -0.0007395765
-0.018572733 0.010298415 -0.0025648177 0.0036548097 0.0031348537 0.0029781035 -7.483284e-05 0.013377733
-0.018977806 0.0001544756 -0.0031949272 -0.011506977 -0.013608141 0.0026513832 0.004625215 -0.010113136
-0.008336153 -0.013138231 -0.0064148093 -0.011002287 0.007929502 0.005224231 0.0012360422 0.0062585464
-0.0132263275 -0.0138850855 -0.010514485 0.0024160268 0.00022545154 -0.0027581272 -0.0015924359 -0.0048021297
0.0012578361 0.002558178 -0.0005932328 0.0023141103 0.001146766 0.00068995927 -0.009582932 -0.012263451
0.0024937047 -0.0036053006 -0.0151616335 -0.011399179 0.001742919 0.0013455189 -0.011786577 -0.003799144
0.005091911 0.00295728 -0.016303439 -0.0014236805 -0.0016523249 -0.049733043 -0.026404016 -0.005109597
0.00050209026 0.0065964973 -0.0051219584 -0.02754297 -0.019657811 -0.013292997 -0.009163603 -0.015908796
-0.03891537 -0.026379326 -0.03157155 -0.039609 -0.01567242 -0.02743161 -2.8285158e-05 0.0028966302
-0.0015675391 -0.0007875669 0.0086120665 0.0072655478 -0.015298271 -0.025023485 0.00046960535 0.008255987
0.0012304002 -8.839146e-05 -0.0040689013 0.010018989 0.002046877 0.0127205085 0.0022858514 -0.021258974
-0.012663553 -0.012756642 0.0038484742 0.0034163052 -0.007994244 -0.01081554 0.003792416 -0.0007395765
-0.018572733 0.010298415 -0.0025648177 0.0036548097 0.0031348537 0.0029781035 -7.483284e-05 0.013377733
-0.018977806 0.0001544756 -0.0031949272 -0.011506977 -0.013608141 0.0026513832 0.004625215 -0.010113136
-0.008487092 -0.012854552 -0.006509806 -0.011015918 0.007659733 0.005300741 0.0009354304 0.006037556
-0.013295814 -0.013765259 -0.010468788 0.002055055 0.0006894686 -0.0025347471 -0.0012200808 -0.004499643
0.0011151818 0.0029705735 -0.0005072835 0.0018098082 0.0009913121 0.0008377001 -0.008734113 -0.012320376
0.0026350413 -0.003628837 -0.015081812 -0.0115437955 0.001732342 0.0011361786 -0.011653548 -0.0038061233

model/gru_2/gru_cell/MatMul_1/ReadVariableOp/resource:0 f4 [32, 96]
00000000: 6f46 15be 21c7 c9bd 3fd5 103c 9575 4cbd
00000010: a315 86bd 1a09 41be 0316 95bd b7bf 6abd
00000020: 66fd 6ebc f461 103b 62b4 0dbe c2b2 af3d
00000030: e391 2e3e 6425 663c e083 e83d 040c 9f3d
00000040: ee5c 45be a199 263e d6a6 a83d ad3d 2abd
00000050: a06b 1fbe 41f9 9dbd 4cf9 4bbd a6d5 003e
00000060: c7db 683d b88b d83d 02e1 463b 9535 d6bc
00000070: cf0d d6bc ce3e e53d c694 d3bc a057 61bd
00000080: f2c6 08bd d71a e03d 2c51 e0bd bafd f4bd
00000090: 037a 00bd 7da3 bcbb 701a 44bd 04d6 76bd
000000a0: cf01 f0bc fe5e 323c 3778 303d cc87 293c
000000b0: e7f9 aebb 0edf 243c 1af5 d83d d9ba 163d
000000c0: 9a91 003d 9292 3d3d 8dea 123d 4891 d0bd
000000d0: 5994 523d c840 5b3e ac45 80be f7d7 62bd
000000e0: 1ecc efbd 8e3c f2bd 11fd d9bb 6f20 85bd
000000f0: 0434 a3bd 51ed b73d 00fc 083e 228f ecbc
00000100: 1c13 25be d6ea 54bc 9dd3 2dbd 71ab d83d
00000110: e8cb 95bd 6ced bf3d 5d58 b0bd 2f6c 80be
00000120: efd1 f83d 0e57 1c3e 621e b4bd 1a48 0a3e
00000130: 2aa5 773e ddf3 8a3d 3779 ebbd e65a d33b
00000140: 69a9 0cbe 561b e93d 72d9 e8ba e391 bc3c
00000150: fc48 11bd 057a ca3c bb74 66bd 11a8 3cbe
00000160: 78fa a73d d66a 073e d18b 163e 55d9 893d
00000170: f275 963b 4a4d 1b3e 3ad2 ee3d 7321 e23d
00000180: b88c c9bd 4c03 213d 3a1d 07be ac5c 7fbd
00000190: 8aab 3f3d e56f 53be c0d9 903d 824d 75bc
000001a0: 3c57 da3d 3cae 87bd f92e 353e 1e6b a63d
000001b0: 0d58 8c3c 603f 22bd b64e 23bc 0c80 213e
000001c0: 9404 33be dcf1 473e f726 8e3d 297d 9e3d
000001d0: 8fb3 6d3e 8681 23be 960d f03c d41e 9fbc
000001e0: 3cd9 0e3e 3ec8 67bb c381 cdbc b9bf 3dbc
000001f0: 81a8 863e 4550 23be fe00 b1bd 74b4 3c3e
00000200: 2bc7 ec3c 96b4 9fbb c6fe 1abe e27b 67bc
00000210: a06e d9bd bc8c 4c3d e125 ea3d 21af 143d
00000220: 5a40 88bd 332a 613c 5ab8 7d3d 8de7 abbd
00000230: 5809 82bc 21c9 5b3d e419 0dbd 6fc2 f3bc
00000240: 8c2d 3b3d 639b 0f3d 838a 20be d732 3b3e
00000250: a2d9 f6bd 46a8 78bd 18d6 87bd 381a 99bd
00000260: bfd5 6f3e 1249 03bd 0290 2fbd 3a5d ee3c
00000270: 58f6 653d d4c6 83bb 341b d13d e2c9 133e
00000280: e4fc 443e e40e 5dbc 6aa0 6b3e 17b3 03be
00000290: 6dd6 dfbb 871c 053d 2728 8bbd 1897 16be
000002a0: 0ed0 c73d faaf a13d ef60 0c3d 46e5 86bd
000002b0: 4aee 2a3d 33c2 613d d0ea 9c3d 21af 0e3e
000002c0: a0cb bc3c a2a3 183e 27b6 8fbd e79c c1bc
000002d0: 4b22 943d 5bb6 853d a79d 28bd 0b75 103d
000002e0: 7a1f 753d 727e 9dbd ce69 87bd ae52 193d
000002f0: bb05 be3d f706 97bd da7a 27bd 5ede 9ebd
00000300: 594e 02be 3d44 03be 9db8 4e3d 6f6b 57bd
00000310: f08c e83d 6a92 b63c 72a3 1bbd ade7 b4bc
00000320: fa98 1cbd 0073 773e 0f3a c9bc 02b0 31be
00000330: 6327 a9bd 2067 53bd 4c99 2dbe 0f49 37bc
00000340: 6127 58bd 8047 b63b 0659 78bd 7ed0 683d
00000350: f459 013e 8af8 59bd 089b 32bc 9c9f 433e
00000360: e91f 913c da77 dd3d 7374 fc3d b4f7 143e
00000370: 2b5a 3f3c 2f31 f6bd c19b 263e e3a2 70bd
00000380: ef30 82bc 15a4 833d 8296 4dbc 7216 b73d
00000390: 1f00 9d3d b0a8 9ebc 0800 583d d7a1 103d
000003a0: 1221 553d 4a22 f6bd 609a 1bbe efba bdbd
000003b0: 2a84 1abe 16db 14be 4c35 03be 41db 7ebd
000003c0: 0305 093e 7a1c 853d acb3 b83d 42de 2e3e
000003d0: 4faa d7bd aede 8dbc e63f 2dbd 37a8 553e
000003e0: cf15 f7bd b5d6 8c3e c315 3dbd ce1f bdbb
000003f0: 9654 89bd 4992 39bd 95f6 e23d e6e8 94bd
-0.1457765 -0.09852434 0.008839904 -0.049916822 -0.065470956 -0.18851128 -0.07279589 -0.05731174
-0.014586782 0.002203104 -0.13838342 0.08579017 0.17047839 0.014047001 0.11353278 0.07765964
-0.19273731 0.16269542 0.082349464 -0.041562725 -0.155684 -0.07713557 -0.049798295 0.125815
0.05685022 0.10573524 0.0030346517 -0.026148597 -0.026129631 0.1119362 -0.025827777 -0.055015206
-0.033392854 0.10942619 -0.10952982 -0.11962457 -0.03136636 -0.005756794 -0.047876775 -0.060262695
-0.029297737 0.010886906 0.043083396 0.010347318 -0.0053398493 0.010062946 0.105936244 0.036799286
0.031388856 0.04628236 0.035868216 -0.1018396 0.051411007 0.21411431 -0.25053155 -0.05538174
-0.11708854 -0.11827956 -0.0066524823 -0.06500327 -0.079689056 0.089808114 0.1337738 -0.028876845
-0.16120571 -0.012995442 -0.04243814 0.10579575 -0.07314283 0.093714565 -0.08610604 -0.25082538
0.12149417 0.15267584 -0.087948576 0.13504067 0.24184099 0.067847945 -0.11497729 0.006450045
-0.137365 0.11382167 -0.0017764999 0.023018783 -0.035469994 0.024716387 -0.056263667 -0.18423487
0.0820207 0.13224348 0.14701773 0.06730906 0.004591697 0.15166202 0.11661191 0.11041536
-0.09841293 0.039309785 -0.13194743 -0.06234424 0.04679445 -0.20648153 0.070727825 -0.014972093
0.1066117 -0.066250294 0.176937 0.081259 0.01713183 -0.03961122 -0.009967497 0.15771502
-0.17482215 0.19525856 0.06941026 0.07738716 0.23213027 -0.15967378 0.029303353 -0.01942388
0.13950056 -0.0035367156 -0.02508629 -0.011581355 0.26300433 -0.15948589 -0.08642767 0.18428212
0.028903564 -0.0048738224 -0.15136251 -0.014128657 -0.10616803 0.049938902 0.11433006 0.03629983
-0.06652899 0.013742971 0.06194339 -0.08393774 -0.015873596 0.05365861 -0.03444852 -0.0297558
0.045697734 0.035060298 -0.15677838 0.18281113 -0.12053229 -0.060707353 -0.06632632 -0.07475704
0.23421381 -0.032052107 -0.042861946 0.029097188 0.056143135 -0.004021505 0.10210267 0.14432481
0.19237095 -0.01349232 0.23010412 -0.12861286 -0.0068309815 0.03249791 -0.06794768 -0.14706075
0.0975648 0.07894893 0.03427213 -0.06586699 0.041731156 0.055116843 0.076619744 0.13933994
0.023046315 0.14906171 -0.07017165 -0.023634387 0.07233103 0.06528922 -0.041165974 0.03526787
0.05984447 -0.07690133 -0.066119775 0.037432365 0.09278437 -0.07374375 -0.040888645 -0.07757257
-0.127252 -0.12819 0.05046903 -0.05259269 0.11355007 0.022286613 -0.03799767 -0.022083128
-0.038231827 0.24164963 -0.024563817 -0.17352298 -0.082594655 -0.05161202 -0.1695301 -0.011186852
-0.05277193 0.0055627227 -0.060631774 0.05683946 0.1263197 -0.05321554 -0.01090122 0.19103855
0.017715411 0.108138755 0.123268984 0.14547616 0.011679213 -0.120211 0.16270353 -0.05874909
-0.015892474 0.064277805 -0.012548091 0.08939828 0.07666039 -0.019367546 0.052734405 0.035310593
0.05203349 -0.12018259 -0.15195608 -0.092641704 -0.15089479 -0.145367 -0.128133 -0.062220816
0.13380818 0.06499572 0.09018645 0.17076972 -0.10530531 -0.017318096 -0.042297266 0.2086495
-0.120647065 0.27507558 -0.04616333 -0.0057716137 -0.067055866 -0.045305524 0.11082188 -0.07270984
