models/daily/model.onnx (onnx, 471962 bytes, 17 tensors)

model/quant_dense_2/LastValueQuant/FakeQuantWithMinMaxVars__56 f4 [32, 1]
000000 40 90 c7 3e 07 6b 87 be ee 0d 2b bc c4 cc 1c 3d
       0.38977242 -0.26448843 -0.010440333 0.038281217
000010 07 6b 07 3e 65 58 c9 3e c4 cc 9c bd f5 ff c3 3e
       0.13224421 0.39325252 -0.076562434 0.38281217
000020 07 6b 87 3e 71 c3 6e 3e 51 fb 0a 3e 92 12 e4 bd
       0.26448843 0.23316742 0.13572432 -0.111363545
000030 8a 20 cb 3e 72 4a 00 be 17 4f 39 be 7a 3c 99 be
       0.39673263 -0.12528399 -0.18096577 -0.29928952
000040 f5 ff c3 3e e2 a2 85 be 40 90 47 3d 8a 20 cb 3e
       0.38281217 -0.26100832 0.048721552 0.39673263
000050 c4 cc 9c be 71 c3 6e be 00 00 00 00 07 6b 07 3e
       -0.30624974 -0.23316742 0.0 0.13224421
000060 e2 a2 85 3e 7e b5 a5 3e 30 ac 15 3e 51 fb 8a 3e
       0.26100832 0.3236503 0.14616466 0.27144864
000070 f5 ff 43 be 9b 8b 8e 3e 6d 4a e2 3e f5 ff 43 3e
       -0.19140609 0.27840886 0.44197407 0.19140609

model/quant_dense_1/LastValueQuant/FakeQuantWithMinMaxVars__55 f4 [64, 32]
000000 d6 8d 5a be 8a ae 02 3e 08 4d 58 be 94 7a 24 3e
       -0.21343169 0.12761894 -0.21123135 0.16062385
000010 df 59 fc bd 3b 0c 56 be 0c 91 63 be ff 80 36 3e
       -0.12321829 -0.20903103 -0.222233 0.17822646
000020 0f d5 6e be 2c b8 1d be cd c1 b8 3d 3e 50 61 bd
       -0.23323463 -0.15402287 0.090213396 -0.055008166
000030 a6 12 68 be c3 f5 16 be 2c b8 9d bd 05 09 4d 3e
       -0.22663364 -0.14742188 -0.077011436 0.20022972
000040 35 84 3f be cd c1 38 3e fc 3c ab 3d 61 bb a6 3d
       -0.18702777 0.18042679 0.08361241 0.081412084
000050 67 43 3d bd d0 05 44 3e 08 4d d8 bd 32 40 b4 3c
       -0.046206858 0.19142842 -0.105615675 0.022003267
000060 6e cb d3 3d 71 0f 5f 3e 61 bb 26 3e 38 c8 4a 3e
       0.103415355 0.21783234 0.16282417 0.1980294
000070 32 40 b4 3c 12 19 7a be cd c1 b8 bd c0 b1 0b 3e
       0.022003267 -0.24423626 -0.090213396 0.13642025
000080 c6 39 a2 bc 5b 33 10 bc 44 d8 f7 bd c0 b1 0b 3e
       -0.01980294 -0.008801307 -0.12101796 0.13642025
000090 d9 d1 e5 3d 00 00 00 00 74 53 ea 3c 91 36 19 be
       0.11221666 0.0 0.028604247 -0.14962222
0000a0 fc 3c 2b be 3b 0c 56 3e 64 ff 31 3e 08 4d d8 bd
       -0.16722482 0.20903103 0.1738258 -0.105615675
0000b0 d9 d1 e5 bd 25 30 07 3e 32 40 b4 3c 9d 46 c6 bd
       -0.11221666 0.1320196 0.022003267 -0.09681437
0000c0 77 97 75 3e 9d 46 c6 3d 91 36 19 3e c6 39 22 be
       0.2398356 0.09681437 0.14962222 -0.15842351
0000d0 2f fc 28 be 32 40 34 3c 97 be 2f be c0 b1 8b 3e
       -0.1650245 0.0110016335 -0.17162548 0.2728405
0000e0 71 0f 5f be 9d 46 46 be 91 36 19 be 38 c8 4a 3e
       -0.21783234 -0.19362874 -0.14962222 0.1980294
0000f0 94 7a 24 be 5b 33 10 3d c6 39 22 bd f6 b4 14 be
       -0.16062385 0.035205226 -0.03960588 -0.14522156
000100 df 59 fc 3c fc 3c ab 3d c6 39 a2 3c 74 53 ea 3c
       0.030804573 0.08361241 0.01980294 0.028604247
000110 25 30 87 bd df 59 7c 3d 38 c8 ca 3d 61 bb a6 3d
       -0.0660098 0.061609145 0.0990147 0.081412084
000120 cd c1 38 3e c6 39 a2 3d 38 c8 ca 3d 6e cb 53 3e
       0.18042679 0.07921176 0.0990147 0.20683071
000130 fc 3c 2b 3e 5b 33 90 3d 08 4d 58 bc aa 56 f3 bd
       0.16722482 0.07041045 -0.013201959 -0.11881764
000140 cd c1 38 3e 5b 33 10 bd 32 40 b4 3d 6e cb d3 3d
       0.18042679 -0.035205226 0.08801307 0.103415355
000150 91 36 19 be 08 4d d8 bb 5b 33 10 bb 64 ff 31 be
       -0.14962222 -0.0066009797 -0.0022003266 -0.1738258
000160 c6 39 a2 bc 32 40 34 be 41 94 6c 3e 32 40 34 be
       -0.01980294 -0.17602614 0.2310343 -0.17602614
000170 5b 33 10 3b 94 7a 24 3e 05 09 4d be 74 53 6a 3e
       0.0022003266 0.16062385 -0.20022972 0.22883397
000180 c9 7d 2d be 32 40 b4 bc c6 39 a2 3c d9 d1 65 be
       -0.16942514 -0.022003267 0.01980294 -0.22443332
000190 d3 49 cf 3d d6 8d 5a be 08 4d d8 3c 97 be af bd
       0.10121503 -0.21343169 0.026403919 -0.08581274
0001a0 74 53 6a 3d 41 94 6c 3e 58 ef 04 be 91 36 19 bd
       0.057208493 0.2310343 -0.12981927 -0.037405554
0001b0 2f fc 28 be d9 d1 65 be c6 39 22 3d cd c1 38 be
       -0.1650245 -0.22443332 0.03960588 -0.18042679
0001c0 d9 d1 65 3e 58 ef 04 be 61 bb 26 3e 8a ae 82 bd
       0.22443332 -0.12981927 0.16282417 -0.06380947
0001d0 02 c5 41 3e 6b 87 48 3e 02 c5 c1 3d 08 4d d8 bb
       0.18922809 0.19582908 0.094614044 -0.0066009797
0001e0 c0 b1 8b 3d 08 4d 58 be 44 d8 77 be c9 7d 2d 3e
       0.068210125 -0.21123135 -0.24203593 0.16942514
0001f0 d3 49 4f be 3e 50 61 be 94 7a 24 be 74 53 6a be
       -0.20243005 -0.22003266 -0.16062385 -0.22883397
000200 bd 6d 00 3e 67 43 3d bd 67 43 3d bd ad 9a 7e be
       0.12541862 -0.046206858 -0.046206858 -0.24863692
000210 0f d5 ee bd f6 b4 94 bd c6 39 22 3e 91 36 99 3d
       -0.116617315 -0.07261078 0.15842351 0.07481111
000220 5b 33 10 3e 74 53 6a 3d a3 ce 5c 3e d3 49 4f be
       0.1408209 0.057208493 0.215632 -0.20243005
000230 25 30 87 3d ff 80 36 3e 97 be 2f 3e 5b 33 10 be
       0.0660098 0.17822646 0.17162548 -0.1408209
000240 5b 33 10 bc 38 c8 ca 3d 74 53 ea bc 2c b8 1d 3e
       -0.008801307 0.0990147 -0.028604247 0.15402287
000250 c3 f5 16 be 9d 46 46 3d 74 53 6a 3e 5b 33 10 3b
       -0.14742188 0.048407186 0.22883397 0.0022003266
000260 c6 39 22 3d aa 56 73 3e c6 39 a2 bc c3 f5 16 3e
       0.03960588 0.23763528 -0.01980294 0.14742188
000270 28 74 12 3e 94 7a 24 3e 91 36 19 bd 08 4d d8 bd
       0.14302123 0.16062385 -0.037405554 -0.105615675
000280 44 d8 77 be a3 ce 5c 3e f6 b4 94 bd c9 7d 2d be
       -0.24203593 0.215632 -0.07261078 -0.16942514
000290 2c b8 1d 3e 44 d8 77 be fc 3c ab bd 9d 46 c6 3d
       0.15402287 -0.24203593 -0.08361241 0.09681437
0002a0 58 ef 04 be d9 d1 65 be 0f d5 ee 3d df 59 7c bd
       -0.12981927 -0.22443332 0.116617315 -0.061609145
0002b0 9d 46 46 3d d0 05 44 be 5b 33 10 be 32 40 b4 bd
       0.048407186 -0.19142842 -0.1408209 -0.08801307
0002c0 9d 46 c6 3c 74 53 6a be aa 56 73 bd 12 19 7a 3e
       0.024203593 -0.22883397 -0.05940882 0.24423626
0002d0 02 c5 41 3e 28 74 12 be 91 36 99 bd aa 56 f3 bd
       0.18922809 -0.14302123 -0.07481111 -0.11881764
0002e0 97 be af 3d 74 53 6a bd 44 d8 f7 3d 44 d8 f7 3d
       0.08581274 -0.057208493 0.12101796 0.12101796
0002f0 d6 8d 5a be 64 ff 31 3e 74 53 6a 3e 02 c5 c1 bd
       -0.21343169 0.1738258 0.22883397 -0.094614044
000300 d3 49 4f 3e d6 8d 5a 3e 5b 33 10 3b 05 09 4d be
       0.20243005 0.21343169 0.0022003266 -0.20022972
000310 9d 46 c6 bd 8a ae 82 bd 2c b8 1d 3e 58 ef 04 be
       -0.09681437 -0.06380947 0.15402287 -0.12981927
000320 2c b8 9d bd 32 40 b4 bd aa 56 73 bd f3 70 09 be
       -0.077011436 -0.08801307 -0.05940882 -0.13421993
000330 aa 56 f3 3d f3 70 09 be d3 49 4f bd 25 30 07 bd
       0.11881764 -0.13421993 -0.050607514 -0.0330049
000340 25 30 07 bd 08 4d d8 3d 38 c8 ca bd 5b 33 90 3c
       -0.0330049 0.105615675 -0.0990147 0.017602613
000350 44 d8 f7 bd 6e cb 53 3e 32 40 b4 bc 74 53 ea 3c
       -0.12101796 0.20683071 -0.022003267 0.028604247
000360 df 59 fc bd 61 bb a6 3d 25 30 07 be 3b 0c 56 3e
       -0.12321829 0.081412084 -0.1320196 0.20903103
000370 df 59 7c bd cd c1 b8 bd 38 c8 ca 3d 02 c5 c1 bd
       -0.061609145 -0.090213396 0.0990147 -0.094614044
000380 d9 d1 65 3e aa 56 f3 3d 91 36 99 3d 5b 33 90 bc
       0.22443332 0.11881764 0.07481111 -0.017602613
000390 44 d8 77 3e 71 0f 5f 3e c0 b1 0b 3e 3e 50 61 bd
       0.24203593 0.21783234 0.13642025 -0.055008166
0003a0 cd c1 38 3e aa 56 73 3d 97 be 2f 3e 3b 0c 56 be
       0.18042679 0.05940882 0.17162548 -0.20903103
0003b0 0c 91 63 be 2c b8 1d be cd c1 38 be 08 4d 58 be
       -0.222233 -0.15402287 -0.18042679 -0.21123135
0003c0 a0 8a 51 be 61 bb 26 3e 9d 46 c6 3d ff 80 36 3e
       -0.20463037 0.16282417 0.09681437 0.17822646
0003d0 9a 02 3b 3e 6b 87 48 be 5b 33 10 be 0f d5 ee 3d
       0.18262711 -0.19582908 -0.1408209 0.116617315
0003e0 25 30 87 3d 61 bb a6 bd 0f d5 ee 3d 97 be af 3d
       0.0660098 -0.081412084 0.116617315 0.08581274
0003f0 28 74 12 be 91 36 19 bd 05 09 4d 3e c6 39 a2 bd
       -0.14302123 -0.037405554 0.20022972 -0.07921176

model/quant_dense_1/BiasAdd/ReadVariableOp:0 f4 [32]
000000 1d d3 7f 3c a5 bf 8a bc 9b 06 0e bc 74 60 64 3c
       0.015614298 -0.016937086 -0.008668567 0.013939012
000010 46 f6 93 3c 27 58 50 3c 0c da 71 bc 8e 43 48 3c
       0.018061768 0.01271633 -0.014761459 0.012223138
000020 c9 10 85 3c 9a e0 66 3c b3 5f 6a 3c e4 d7 98 bc
       0.016243355 0.014091635 0.014305043 -0.018657632
000030 ac b5 72 3c 69 bc 6f bc cd 3e 43 bc 64 cb 32 bc
       0.014813822 -0.014632323 -0.011916828 -0.01091275
000040 5f 49 4f 3c cb 88 57 bc 85 bb e4 3c ab 97 59 3c
       0.01265177 -0.013155173 0.027921448 0.013280789
000050 97 23 89 bc 60 60 86 bc c7 a2 83 bc 8c 23 96 3c
       -0.016740603 -0.016403377 -0.01606883 0.018327497
000060 02 a2 80 3c 6d bd 6a 3c d5 30 80 3c 6f 90 43 3c
       0.015702251 0.014327389 0.015648285 0.011936291
000070 35 e1 56 bc ea 13 6e 3c fd 02 2b 3d 90 f3 9f 3c
       -0.013115217 0.014531115 0.041750897 0.01952532

model/quant_dense/LastValueQuant/FakeQuantWithMinMaxVars__54 f4 [32, 64]
000000 47 83 16 be 85 9c 60 be cd b8 a6 3d bc 4b 5e bc
       -0.14698516 -0.21934707 0.08140717 -0.013567861
000010 b3 e1 11 be d8 23 47 be 44 82 c2 3d 33 15 fa 3d
       -0.14246254 -0.19447267 0.094975024 0.12211075
000020 5e 59 57 be 1f 40 0d 3e 4f ed e2 bd 6c c5 4b 3d
       -0.21030185 0.13793992 -0.11080419 0.049748823
000030 a5 75 9d bd 6c c5 4b 3d bc 4b de bd db 24 1b be
       -0.076884545 0.049748823 -0.10854289 -0.15150778
000040 e3 8e 67 be 11 d4 98 bd f7 fc 03 3e 61 5a 2b be
       -0.226131 -0.074623235 0.12889467 -0.16733696
000050 4f ed e2 bd 6c c5 cb bc 4f ed e2 3d c7 b6 fe 3d
       -0.11080419 -0.024874412 0.11080419 0.12437206
000060 f4 fb 2f bd 5e 59 57 3e 6c c5 cb 3c 77 30 6c 3e
       -0.04296489 0.21030185 0.024874412 0.23065363
000070 41 81 6e 3e cd b8 26 3e ca b7 52 be 4f ed 62 3e
       0.23291494 0.16281433 -0.20577922 0.22160839
000080 0b d2 70 bd f4 fb 2f be 5e 59 57 be bc 4b 5e 3e
       -0.058794063 -0.17185956 -0.21030185 0.21708578
000090 bc 4b 5e bc 9f 73 75 3e bc 4b de 3c a5 75 1d 3e
       -0.013567861 0.23969887 0.027135722 0.15376909
0000a0 2d ac 01 3e bc 4b de 3c f7 fc 03 be 9f 73 f5 3d
       0.12663336 0.027135722 -0.12889467 0.119849436
0000b0 7d 32 14 3e 0b d2 f0 3c 6c c5 4b 3d 97 09 29 be
       0.14472385 0.029397031 0.049748823 -0.16507564
0000c0 69 c4 77 3e 94 08 d5 bd 19 3e 65 3e 44 82 42 3e
       0.24196018 -0.10402027 0.2238697 0.18995005
0000d0 d8 23 47 be 85 9c 60 be 94 08 d5 bd 6f c6 1f be
       -0.19447267 -0.21934707 -0.10402027 -0.1560304
0000e0 9f 73 f5 3d 7d 32 14 3d 8b 9e 08 3e 33 15 7a 3e
       0.119849436 0.036180962 0.1334173 0.2442215
0000f0 e3 8e 67 3d d5 22 73 3e 55 ef 0a 3d 1c 3f 39 bd
       0.05653275 0.23743756 0.03391965 -0.0452262
000100 61 5a ab bd e9 90 0f be 11 d4 98 3d f4 fb af 3d
       -0.08366848 -0.14020123 0.074623235 0.08592978
000110 2d ac 81 3c 7d 32 14 bc 1f 40 0d be 55 ef 0a 3d
       0.01582917 -0.0090452405 -0.13793992 0.03391965
000120 bc 4b 5e 3e bc 4b de 3c e9 90 8f 3d 88 9d b4 3d
       0.21708578 0.027135722 0.07010061 0.08819109
000130 77 30 ec bd 7d 32 14 bb 1c 3f 39 3d 39 17 22 be
       -0.115326814 -0.0022613101 0.0452262 -0.15829171
000140 9f 73 f5 bd 8b 9e 08 be c1 4d 06 3e 33 15 7a 3e
       -0.119849436 -0.1334173 0.13115598 0.2442215
000150 0b d2 70 be 0b d2 f0 3c 33 15 fa 3d 55 ef 0a be
       -0.23517625 0.029397031 0.12211075 -0.1356786
000160 ca b7 52 3e 61 5a ab bd bc 4b 5e bc a2 74 49 3e
       0.20577922 -0.08366848 -0.013567861 0.19673398
000170 4f ed e2 3d b0 e0 bd 3d 1f 40 0d be 8b 9e 08 be
       0.11080419 0.09271371 -0.13793992 -0.1334173
000180 61 5a 2b be d8 23 c7 bd ad df 69 be 94 08 d5 bd
       -0.16733696 -0.097236335 -0.22839232 -0.10402027
000190 a5 75 1d 3d 6c c5 cb bc cd b8 26 bd b0 e0 3d 3e
       0.038442273 -0.024874412 -0.040703584 0.18542743
0001a0 d8 23 c7 bd 88 9d 34 3e e3 8e e7 bd 4f ed e2 3d
       -0.097236335 0.17638218 -0.1130655 0.11080419
0001b0 61 5a 2b 3e f7 fc 03 3e a2 74 49 be bc 4b de 3d
       0.16733696 0.12889467 -0.19673398 0.10854289
0001c0 6c c5 4b be 19 3e 65 3e c8 83 80 be a5 75 1d 3d
       -0.19899529 0.2238697 -0.2510054 0.038442273
0001d0 77 30 6c 3e e6 8f 3b 3e 11 d4 98 bd 1c 3f b9 bd
       0.23065363 0.18316612 -0.074623235 -0.0904524
0001e0 94 08 55 3d 1f 40 0d 3e 77 30 6c 3e d5 22 73 be
       0.052010134 0.13793992 0.23065363 -0.23743756
0001f0 94 08 55 be 2a ab 2d be e9 90 0f 3e 1f 40 0d be
       -0.20804054 -0.16959825 0.14020123 -0.13793992
000200 d5 22 73 be be 4c 32 3e 8b 9e 88 3e 97 09 29 be
       -0.23743756 0.17412087 0.2668346 -0.16507564
000210 8b 9e 08 3e 00 67 50 be a5 75 9d 3d c1 4d 06 3e
       0.1334173 -0.20351791 0.076884545 0.13115598
000220 11 d4 18 3e 5e 59 57 be c7 b6 fe 3d ba 17 8c be
       0.14924647 -0.21030185 0.12437206 -0.27361852
000230 cd b8 26 bd bc 4b 5e bc 2d ac 81 3e 94 08 55 bd
       -0.040703584 -0.013567861 0.25326672 -0.052010134
000240 db 24 1b 3e db 24 1b 3e db 24 1b 3e cd b8 a6 bd
       0.15150778 0.15150778 0.15150778 -0.08140717
000250 77 30 6c 3e 00 67 50 3e bc 4b 5e bc 7a 31 40 be
       0.23065363 0.20351791 -0.013567861 -0.18768874
000260 e3 8e 67 be 1c 3f 39 3c 6c c5 cb 3d 0b d2 f0 3d
       -0.226131 0.01130655 0.099497646 0.117588125
000270 0b d2 f0 bc 19 3e 65 be b0 e0 3d be 94 08 55 3e
       -0.029397031 -0.2238697 -0.18542743 0.20804054
000280 00 67 d0 bd c1 4d 86 3d 1c 3f b9 bd 6c c5 4b be
       -0.10175896 0.06557799 -0.0904524 -0.19899529
000290 97 09 29 be 33 15 fa 3d ad df 69 be 36 16 4e be
       -0.16507564 0.12211075 -0.22839232 -0.2012566
0002a0 94 08 55 3d 6c c5 4b bd a5 75 9d 3d 61 5a ab 3d
       0.052010134 -0.049748823 0.076884545 0.08366848
0002b0 7d 32 14 3d 00 67 d0 bd 7d 32 94 3b 1f 40 0d 3e
       0.036180962 -0.10175896 0.0045226202 0.13793992
0002c0 b3 e1 11 be 69 c4 77 3e 33 15 fa bd 6c c5 4b bd
       -0.14246254 0.24196018 -0.12211075 -0.049748823
0002d0 61 5a ab 3d 52 ee 36 3e f7 fc 83 be f2 fa 5b 3e
       0.08366848 0.1786435 -0.25778934 0.21482447
0002e0 1f 40 0d be f4 fb 2f 3e bc 4b de 3b 5e 59 57 be
       -0.13793992 0.17185956 0.0067839306 -0.21030185
0002f0 f2 fa 5b be 5e 59 57 be 4f ed 62 3e 97 09 29 3e
       -0.21482447 -0.21030185 0.22160839 0.16507564
000300 6c c5 4b 3d d8 23 c7 3d e3 8e 67 bd d5 22 73 3e
       0.049748823 0.097236335 -0.05653275 0.23743756
000310 cd b8 26 3d 00 67 50 3e f4 fb 2f be 41 81 6e be
       0.040703584 0.20351791 -0.17185956 -0.23291494
000320 03 68 24 3e e6 8f 3b be bc 4b 5e be 2d ac 81 3c
       0.16055302 -0.18316612 -0.21708578 0.01582917
000330 bc 4b de bc f2 fa 5b 3e 9f 73 f5 3d 0e d3 44 3e
       -0.027135722 0.21482447 0.119849436 0.19221136
000340 7d 32 94 bd bc 4b 5e 3e 4f ed 62 3e cd b8 26 bd
       -0.072361924 0.21708578 0.22160839 -0.040703584
000350 6c c5 cb 3c 7d 32 94 3c c7 b6 7e be 4f ed 62 be
       0.024874412 0.018090481 -0.24874412 -0.22160839
000360 47 83 16 3e 55 ef 0a 3e c1 4d 06 3e 7d 32 94 3b
       0.14698516 0.1356786 0.13115598 0.0045226202
000370 9f 73 75 3e d8 23 47 be b3 e1 11 be 11 d4 18 3e
       0.23969887 -0.19447267 -0.14246254 0.14924647
000380 bc 4b de 3b 6f c6 1f 3e 2d ac 81 3d 88 9d 34 be
       0.0067839306 0.1560304 0.06331668 -0.17638218
000390 2d ac 01 bd 61 5a ab bd 1c 3f 39 be 6c c5 4b bd
       -0.03165834 -0.08366848 -0.1809048 -0.049748823
0003a0 bc 4b 5e 3d bc 4b 5e 3e 33 15 7a 3e 33 15 fa 3d
       0.054271445 0.21708578 0.2442215 0.12211075
0003b0 00 67 50 be d8 23 47 3e f4 fb 2f 3e c7 b6 fe 3d
       -0.20351791 0.19447267 0.17185956 0.12437206
0003c0 db 24 1b 3e a5 75 1d bd 52 ee 36 be 88 9d 34 be
       0.15150778 -0.038442273 -0.1786435 -0.17638218
0003d0 e3 8e 67 be d8 23 c7 bd 55 ef 8a 3d 39 17 22 be
       -0.226131 -0.097236335 0.0678393 -0.15829171
0003e0 c1 4d 86 3d f4 fb 2f 3d be 4c 32 3e f2 fa 5b be
       0.06557799 0.04296489 0.17412087 -0.21482447
0003f0 1c 3f b9 bc 94 08 55 3d cd b8 26 be 00 67 50 3e
       -0.0226131 0.052010134 -0.16281433 0.20351791

model/quant_dense/BiasAdd/ReadVariableOp:0 f4 [64]
000000 c1 51 52 bc a9 31 6d 3b cd 32 24 3c 0f 60 a2 bc
       -0.012836874 0.003619293 0.0100218775 -0.019821195
000010 84 6f 1d 3c fc 15 03 bc e9 68 f1 bb 00 00 00 00
       0.009609107 -0.008000847 -0.0073672426 0.0
000020 c8 31 7c bc fb 25 0b bc 13 f0 3c bc 69 27 46 bc
       -0.015392728 -0.008492942 -0.0115318475 -0.012094357
000030 2c 0d 02 3c 41 a6 f9 bb 02 0d 40 3c 00 00 00 00
       0.007937711 -0.007618696 0.011721851 0.0
000040 79 4b ab bb 69 ef 2d 3c 6f aa 79 ba 16 6c 43 3c
       -0.005227503 0.010616162 -0.0009523993 0.011927625
000050 be 03 e9 bb d0 69 ec 3b 00 00 00 00 72 59 ee bb
       -0.007111042 0.0072147623 0.0 -0.0072738463
000060 bf ac 7a bc 98 74 f5 bb f5 c0 2f 3c 82 69 1a 3c
       -0.015299975 -0.0074907057 0.010727157 0.009424569
000070 6f a3 81 bc 34 f2 e1 3b 36 38 b4 bb c3 e0 e5 3b
       -0.015825002 0.006895328 -0.005499865 0.007015319
000080 aa 29 af bb 1d f4 1b 3c 20 f9 1b 3c 0b bb 1d 3c
       -0.005345543 0.00951865 0.009519845 0.009627114
000090 0a ab a4 3c 5e 2f 09 3c c3 ca cb bb 0f 2c 2f 3b
       0.020101089 0.00837311 -0.0062192394 0.0026729142
0000a0 ff f5 7a bc 5e 88 fa 3b 43 7f 17 bc b8 21 84 3a
       -0.015317439 0.0076456508 -0.00924665 0.001008085
0000b0 20 21 28 3b f2 dc 16 3b 1d 4b 16 bc b1 48 a0 bb
       0.002565451 0.0023019877 -0.009173182 -0.004891478
0000c0 60 c5 bf bb d3 b8 98 3b a8 33 db bb 20 4c 38 3c
       -0.0058523864 0.0046607046 -0.0066895075 0.011248618
0000d0 00 52 4e 3c e7 f8 45 3c 3f 9a 8e bc f4 a7 57 bc
       0.0125927925 0.012083269 -0.017407535 -0.013162602
0000e0 4e b2 01 bb 3d 70 70 bc 53 5f 5f 3c 13 61 42 bb
       -0.0019790116 -0.014675197 0.013633567 -0.0029659912
0000f0 00 00 00 00 26 b0 2b bc 04 dd 86 bc 47 77 00 bc
       0.0 -0.010479009 -0.01646281 -0.007840938

model/gru_3/gru_cell/ReadVariableOp/resource:0 f4 [2, 96]
000000 19 86 3e bc c4 04 cd 3c 53 fa 69 3c cb 2b c8 bb
       -0.011628651 0.025026686 0.014280873 -0.006108736
000010 16 a1 b9 bb 0c 24 58 3b 65 e6 f2 39 1d 50 6b bb
       -0.005664955 0.003298047 0.00046329494 -0.0035905906
000020 4e f1 df 3c 4e 2f 6e 3c e1 ab cf 3c 5a 88 f8 3a
       0.027336743 0.0145376455 0.025350513 0.0018961534
000030 0d 14 a6 3c 9f 45 df 3c 03 0e c0 bb a4 09 d7 3c
       0.020273233 0.027254878 -0.0058610453 0.026249714
000040 36 e7 46 bc 77 16 38 3b 75 bc b6 3b 10 81 c2 3c
       -0.012140086 0.0028089562 0.005576665 0.023743182
000050 bc 95 38 3a d5 bd 70 3c 36 71 a9 3c b8 54 d0 ba
       0.0007041355 0.014693697 0.020683866 -0.0015894389
000060 6b 51 ba bb 94 11 bf 3b a9 62 48 bb 4a 25 eb 3b
       -0.0056859753 0.005830953 -0.0030576384 0.007176076
000070 c7 90 6f 3a 0d 70 2b bc b8 e3 91 bb 52 74 27 bb
       0.00091387 -0.010463727 -0.004452195 -0.002555151
000080 d7 b4 d2 3c 2f 1b 60 3b 4c 80 8b bc e6 c7 48 bc
       0.025720997 0.003419589 -0.01702895 -0.012254691
000090 90 67 a9 bb 14 37 af bc 33 f2 a1 bc 88 80 16 ba
       -0.0051698163 -0.021388568 -0.01976881 -0.00057411985
0000a0 cb 16 98 3b 66 f0 23 bc ba fc 09 bd bf bc e3 b8
       0.004641389 -0.010006046 -0.033688284 -0.0001085936
0000b0 fd 53 36 bc e2 fd 9c 3b 00 90 d9 bb 86 66 41 bc
       -0.011128423 0.0047910074 -0.0066394806 -0.011804229
0000c0 1a 0e f4 bb 4f a4 aa bb be 32 97 3c b9 30 26 3b
       -0.00744797 -0.0052075754 0.018456813 0.002535863
0000d0 0b a1 fc 3a 9c 49 65 bc 0c 9a 8d bc 7f e4 0a bc
       0.0019274069 -0.013994601 -0.01728537 -0.008477329
0000e0 40 0f da 3c 0e 9e a7 3a 81 63 c3 bb 02 a9 d5 bb
       0.0266186 0.0012788193 -0.0059627895 -0.0065203914
0000f0 d6 50 3d 3b 83 49 87 bb 66 c5 26 3b da bb ba 3b
       0.0028887293 -0.0041286363 0.0025447248 0.005698663
000100 ce 22 8b bc 0c e1 89 3b 5c e3 02 bb f4 8e 23 bc
       -0.01698437 0.004207736 -0.0019971943 -0.009982813
000110 c7 33 b5 bb 0e 79 59 bc 81 9c 25 3b 8c fb 66 3a
       -0.005529854 -0.013273491 0.0025270286 0.0008811287
000120 ad 60 ee 3b 75 6d 6d b9 0d ad d7 3b 02 ee 23 bc
       0.0072747082 -0.00022642857 0.0065819086 -0.010005476
000130 e4 1e b0 3b 62 85 28 3b 72 7e b7 bb 9c 76 c1 3b
       0.005374776 0.0025714268 -0.0055997903 0.005904032
000140 75 22 f7 3a 69 91 39 bc 3c ad 7c bc b9 d0 54 bc
       0.0018854873 -0.011326172 -0.015422162 -0.0129892165
000150 2d 71 4b bc 0b 1f 20 bc 20 13 e3 3b 5e 70 e4 bb
       -0.01241712 -0.009773026 0.00692977 -0.006971403
000160 7f a8 8a bc 04 a3 5b 39 0e fc e9 3b e5 ce ed bb
       -0.016926048 0.00020946196 0.007140643 -0.0072573298
000170 4e 46 1e bc 83 82 34 bc 79 fa 98 3b 84 c8 5e bc
       -0.009660317 -0.011017445 0.0046685305 -0.013597611
000180 19 86 3e bc c4 04 cd 3c 53 fa 69 3c cb 2b c8 bb
       -0.011628651 0.025026686 0.014280873 -0.006108736
000190 16 a1 b9 bb 0c 24 58 3b 65 e6 f2 39 1d 50 6b bb
       -0.005664955 0.003298047 0.00046329494 -0.0035905906
0001a0 4e f1 df 3c 4e 2f 6e 3c e1 ab cf 3c 5a 88 f8 3a
       0.027336743 0.0145376455 0.025350513 0.0018961534
0001b0 0d 14 a6 3c 9f 45 df 3c 03 0e c0 bb a4 09 d7 3c
       0.020273233 0.027254878 -0.0058610453 0.026249714
0001c0 36 e7 46 bc 77 16 38 3b 75 bc b6 3b 10 81 c2 3c
       -0.012140086 0.0028089562 0.005576665 0.023743182
0001d0 bc 95 38 3a d5 bd 70 3c 36 71 a9 3c b8 54 d0 ba
       0.0007041355 0.014693697 0.020683866 -0.0015894389
0001e0 6b 51 ba bb 94 11 bf 3b a9 62 48 bb 4a 25 eb 3b
       -0.0056859753 0.005830953 -0.0030576384 0.007176076
0001f0 c7 90 6f 3a 0d 70 2b bc b8 e3 91 bb 52 74 27 bb
       0.00091387 -0.010463727 -0.004452195 -0.002555151
000200 d7 b4 d2 3c 2f 1b 60 3b 4c 80 8b bc e6 c7 48 bc
       0.025720997 0.003419589 -0.01702895 -0.012254691
000210 90 67 a9 bb 14 37 af bc 33 f2 a1 bc 88 80 16 ba
       -0.0051698163 -0.021388568 -0.01976881 -0.00057411985
000220 cb 16 98 3b 66 f0 23 bc ba fc 09 bd bf bc e3 b8
       0.004641389 -0.010006046 -0.033688284 -0.0001085936
000230 fd 53 36 bc e2 fd 9c 3b 00 90 d9 bb 86 66 41 bc
       -0.011128423 0.0047910074 -0.0066394806 -0.011804229
000240 1a 0e f4 bb 4f a4 aa bb be 32 97 3c b9 30 26 3b
       -0.00744797 -0.0052075754 0.018456813 0.002535863
000250 0b a1 fc 3a 9c 49 65 bc 0c 9a 8d bc 7f e4 0a bc
       0.0019274069 -0.013994601 -0.01728537 -0.008477329
000260 40 0f da 3c 0e 9e a7 3a 81 63 c3 bb 02 a9 d5 bb
       0.0266186 0.0012788193 -0.0059627895 -0.0065203914
000270 d6 50 3d 3b 83 49 87 bb 66 c5 26 3b da bb ba 3b
       0.0028887293 -0.0041286363 0.0025447248 0.005698663
000280 30 08 8b bc b2 cb 87 3b 8f 06 05 bb ee 5a 23 bc
       -0.016971678 0.0041441554 -0.0020298099 -0.00997041
000290 87 a6 b6 bb b1 2e 59 bc d2 94 0c 3b 14 29 63 3a
       -0.005574051 -0.013255761 0.0021451009 0.0008665484
0002a0 dd 86 ea 3b 00 d8 8e b9 95 c2 d8 3b 12 96 23 bc
       0.0071571902 -0.00027245283 0.006614993 -0.00998451
0002b0 eb f7 bb 3b 41 c6 1d 3b 14 8a c3 bb 7d e1 c0 3b
       0.0057363412 0.0024074467 -0.005967388 0.0058862553
0002c0 63 49 d4 3a b0 58 3b bc e7 d1 7d bc c1 25 59 bc
       0.0016196187 -0.011434719 -0.015491939 -0.01325363
0002d0 f2 7c 48 bc e5 79 20 bc 35 54 dc 3b ad 93 e5 bb
       -0.0122368205 -0.009794687 0.0067239054 -0.0070061297
0002e0 a7 0c 8c bc 97 a2 89 39 56 e9 e0 3b 5e 0e e8 bb
       -0.017095877 0.00026251815 0.0068637533 -0.007081791
0002f0 7c 55 19 bc 86 7d 36 bc 75 34 93 3b 0c 21 5f bc
       -0.00935876 -0.011138326 0.0044923373 -0.013618719

model/gru_3/gru_cell/MatMul_1/ReadVariableOp/resource:0 f4 [32, 96]
000000 a5 69 01 bc 4a c8 85 3d 95 62 10 3e c4 1c 99 bd
       -0.007898723 0.06532343 0.14100106 -0.0747619
000010 1c 95 21 3d 41 f7 1a 3e 77 06 99 bd e0 61 c1 3c
       0.039448842 0.15133382 -0.07471936 0.02360624
000020 ee 56 96 3d af 88 17 3a e5 49 79 3d df a3 20 bd
       0.07340799 0.00057805603 0.060861487 -0.03921878
000030 d1 25 a9 bc 65 f3 bb bd 97 08 13 3e a0 03 2d 3b
       -0.020647915 -0.09177283 0.14358746 0.0026399866
000040 c4 7d 34 3d f4 52 fc bd 3f ea c1 bd b5 d2 18 3e
       0.044065252 -0.123205096 -0.09468507 0.14924128
000050 2a 7b a9 bb 41 7f 2f 3c 5b 1a b6 3d 33 55 44 be
       -0.005172153 0.010711492 0.08891746 -0.19173126
000060 07 9e 66 3d 58 d2 ad bd 8c c3 d4 bc b8 66 6a bd
       0.05630305 -0.084873855 -0.02597215 -0.057226866
000070 c8 03 5d ba 68 9d fe bd e2 ac 26 3d 19 7d 20 bb
       -0.00084310444 -0.124323666 0.040692218 -0.0024488627
000080 aa 3f 94 3d 8a 32 03 3e 2d c7 83 3c a4 b2 bc 3d
       0.072387055 0.12812248 0.016086185 0.092137605
000090 21 ba c4 3d c1 df b9 3d 9c ed 27 be 9f eb 04 3e
       0.09605814 0.09075881 -0.16399235 0.12980507
0000a0 ea e7 13 ba f0 d7 ad bd 01 a2 21 bc 7f 0d eb 3d
       -0.0005642163 -0.084884524 -0.009865285 0.114771836
0000b0 42 0a 2c be f5 c7 7f 3d b5 65 53 be 2d 9c 83 3d
       -0.16800788 0.062446553 -0.20644267 0.064262725
0000c0 14 f6 18 bd 3d 5b ab bc ef f6 bc 3d dc d3 23 be
       -0.037344053 -0.02091753 0.09226786 -0.15998787
0000d0 7d 23 1e be 1b 39 84 bd a8 34 45 3d f6 82 0e bd
       -0.15443225 -0.064562045 0.04814592 -0.034792863
0000e0 97 19 a9 3c 1d 6d b4 3c e7 94 b9 bd 74 aa 43 bb
       0.020642085 0.022024686 -0.09061604 -0.0029856237
0000f0 53 f5 eb 3d ee 62 9f 3d af 66 db bd 58 b4 c5 3d
       0.11521401 0.07782541 -0.10712945 0.096535385
000100 29 32 d3 3b 51 a4 12 3e 59 c7 11 bd 0b ff 29 3e
       0.0064451885 0.14320494 -0.035590503 0.16601197
000110 41 66 9b 3d 66 fa 05 3d e4 d6 90 bc 32 1b 9c bb
       0.07587863 0.0327095 -0.017680593 -0.004763984
000120 22 d8 a0 3e d7 4c 50 3d 5f fe 9b 3d 56 43 56 3e
       0.31414896 0.05085453 0.07616877 0.20924124
000130 0e d3 70 be fc be 8f bd 37 bd a3 bd 59 a6 84 bc
       -0.23518011 -0.07018849 -0.07995074 -0.016192602
000140 d6 fe 21 bd 41 e5 e7 bd 1a f2 cb 3b c9 18 a0 3d
       -0.03954967 -0.113230236 0.006223929 0.078172274
000150 5e 09 23 be 51 8c 26 3e 57 b1 0d 3d 43 14 28 be
       -0.15921542 0.16264464 0.034592953 -0.16413979
000160 18 45 44 be 7b 1c 0e be 18 bd bb bc 1e 4b 07 3d
       -0.19166982 -0.13878052 -0.022917315 0.03303062
000170 74 2f 99 bd d9 cb 60 be 28 e9 05 3e 4c 8e 1b bd
       -0.07479754 -0.21952762 0.13077223 -0.0379775
000180 f2 fd 0e 3e 3e 05 dc bd d6 11 19 be be 97 e3 3d
       0.1396406 -0.10743187 -0.1494821 0.11112927
000190 14 d5 e9 bd a3 41 88 3d d4 61 e2 3b a8 e0 97 bd
       -0.114175946 0.06653144 0.0069086347 -0.07415897
0001a0 0f d4 b9 bb f9 70 e6 3d d1 49 a1 3b bc 06 2f 3e
       -0.0056710313 0.112520166 0.0049221297 0.17092413
0001b0 c5 c0 c6 3d 8a 5e 89 3e 8a ee 0d bc 6d 04 24 3b
       0.097047366 0.2682994 -0.008662829 0.0025027052
0001c0 ea 79 59 3d 80 41 86 be e8 67 49 bb d4 e4 c4 bd
       0.053094782 -0.26221848 -0.00307321 -0.09613958
0001d0 e1 19 9e bd ea 48 29 3d bf 68 53 bc f4 09 11 3d
       -0.0771978 0.041329302 -0.012903391 0.035409883
0001e0 45 1d 85 3d 79 cc b2 3c 7b 2c 69 bd 34 7d 6e 3a
       0.06499723 0.021826016 -0.056927186 0.0009097636
0001f0 be b9 0b bd 88 1a 40 3e fd 4f 6c bd fe e3 6d bd
       -0.034112684 0.18760121 -0.05769347 -0.05807876
000200 d8 ce 5a bc 4b e7 a2 3d b3 17 e9 3d 8c 8e 3a 3d
       -0.013354979 0.07954272 0.113814734 0.0455461
000210 29 53 88 bd b3 48 c8 bd e9 55 81 bc d4 a1 98 3d
       -0.066564865 -0.09779491 -0.015788035 0.07452741
000220 87 82 29 be e8 9f 0a 3e bc 82 21 be 32 e1 06 3d
       -0.16553698 0.13537562 -0.15772527 0.032929607
000230 94 64 c0 bd 28 22 ac 3d ac 5f 6e 3b b1 92 6e 3d
       -0.09394184 0.08404952 0.0036372943 0.058245365
000240 81 8a 14 3e 46 0f d6 bd 43 83 51 3d 4f 26 26 bc
       0.1450596 -0.10452132 0.05115057 -0.010140969
000250 b2 b7 34 3d 0a d4 2d 3c d8 1d 4f be 52 09 3c bc
       0.044120498 0.010609636 -0.20226228 -0.0114768315
000260 85 02 97 bd ae 64 21 be be a4 81 3d 88 0e 81 3e
       -0.073735274 -0.15761063 0.0633025 0.252064
000270 f1 cb b1 bd 02 43 dd 3d dc 66 da 3c 8c 43 a2 3d
       -0.08681477 0.10803796 0.026660375 0.0792304
000280 43 35 2c bd bc b7 a5 3d 15 06 6f be 8c b3 c5 3c
       -0.04204298 0.08091685 -0.23342164 0.024133466
000290 35 ab 0a 3b ab dc 48 3e 72 df 31 bd 50 03 28 bd
       0.0021159176 0.19615428 -0.043425985 -0.041018784
0002a0 5f d9 0a 3e 81 6e da bc 58 45 ec bc 58 12 8a bc
       0.13559483 -0.02666402 -0.02884166 -0.01685445
0002b0 d7 26 23 3d 1d 98 03 3e 12 a2 83 3d 5a 24 44 bd
       0.039831962 0.12850995 0.06427397 -0.04788623
0002c0 d6 a5 f2 3d 59 40 ac 3c 92 67 52 3d fd c9 8b 3d
       0.11848037 0.021026777 0.051368304 0.068256356
0002d0 96 b6 46 be 01 e0 93 3d 67 0b 28 be b5 47 21 3d
       -0.19405589 0.0722046 -0.164106 0.039375026
0002e0 64 b4 7b 3c 9f 5c 04 3d b2 1a 25 3d be 06 18 3e
       0.015362833 0.032314893 0.04030866 0.14846322
0002f0 18 8f b0 3c e7 e6 30 bd 57 cc 12 3e 00 4f 62 bd
       0.021552607 -0.043188956 0.14335762 -0.05525112
000300 09 ae 1c bc df 7f 02 3e fe 96 80 bd d7 e9 20 3e
       -0.009562978 0.12744091 -0.062787995 0.15714203
000310 d0 96 69 bd d0 3f 85 3d 54 cb 18 bd d0 7b c1 3d
       -0.05702859 0.06506312 -0.037303284 0.094474435
000320 e1 7c 1b be a3 59 06 be b8 d4 8a 3d 9c 6f 95 bd
       -0.15184356 -0.13120131 0.06778854 -0.072966784
000330 d3 ab c8 bd 3a 66 13 3e 8f 7b b2 3d 62 2f b2 bd
       -0.09798398 0.14394465 0.08714973 -0.08700444
000340 36 ac a9 bd 7e a0 65 bd 8c 9d 6f bd bb 55 c5 3c
       -0.082848 -0.05606126 -0.058499858 0.024088731
000350 73 9f 0b 3e c3 84 7d 3e aa d6 ab 3d 6d fb 73 bd
       0.13635044 0.24757676 0.08390553 -0.05956595
000360 1f 95 9f 3d c1 8e b9 3d a6 bb 27 bc 19 f8 f5 bc
       0.077921145 0.09060431 -0.01023761 -0.030025529
000370 26 7e ef 3c cc af f9 bc 05 58 2a 3d f1 8e ae 3d
       0.029234957 -0.030479334 0.04158785 0.08523358
000380 36 30 b4 bd 15 30 20 3b 11 7e 10 3d 43 45 a9 bd
       -0.08798258 0.0024442722 0.035276476 -0.08265164
000390 53 fd 9b 3d eb ad df bd 28 a8 a9 3d f7 d1 07 3e
       0.07616677 -0.10921844 0.082840264 0.13263689
0003a0 a0 8e 3c be 33 5b 17 3e 99 a6 81 3d 1d 87 0a be
       -0.18413782 0.14780883 0.06330604 -0.13528104
0003b0 2c 7e 4e be d8 cb 22 be 7c 74 d7 bd 49 57 da bd
       -0.20165318 -0.15898073 -0.105202645 -0.106611796
0003c0 1a bd 20 bd 9c 35 12 bd 06 25 dd 3d c0 4e 29 3d
       -0.03924284 -0.035695657 0.10798077 0.041334867
0003d0 b1 34 27 be f3 f5 3f bd 8c f0 20 be e0 04 58 bc
       -0.16328694 -0.046865415 -0.15716761 -0.013184756
0003e0 5c 77 19 3d c1 bd 9e 3d 62 f2 63 3d fc 86 d9 3d
       0.037467346 0.077510364 0.055651076 0.10621449
0003f0 61 ce 0a 3d dc 4f 9c bd dc 0b 3f 3e 14 93 0f bd
       0.033888225 -0.076324195 0.18656868 -0.035052374

model/gru_3/gru_cell/MatMul/ReadVariableOp/resource:0 f4 [32, 96]
000000 2f 70 cf bd 9a a5 76 3d b2 bd 01 be 57 36 4f 3c
       -0.10128819 0.060216524 -0.1267002 0.012647233
000010 46 7f 4a be 8b d2 44 3d e7 0e c4 3d 9f 7f 11 3e
       -0.19775113 0.048052352 0.09573155 0.1420884
000020 68 90 62 3d 01 36 dd 3d b9 c4 52 3e f2 6e b3 bd
       0.055313498 0.10801316 0.20582856 -0.087613955
000030 25 06 41 ba 15 e8 37 3e 5f 9c 4d 3e 27 2f 1a 3e
       -0.00073632813 0.17959626 0.20079182 0.1505705
000040 49 8a b2 3d 00 ed c4 3c 30 26 c9 3c 65 d2 d1 bd
       0.08717782 0.024038792 0.024554342 -0.10245208
000050 07 09 01 3d 44 89 de bd 0d b3 4d be 99 9c 0a 3e
       0.03150275 -0.10866025 -0.20087834 0.135363
000060 71 9f 9f 3c fa 92 b4 3d b4 ac 3c bc 81 0a 93 3b
       0.019485207 0.08817096 -0.011515785 0.004487336
000070 81 20 21 3e 06 65 3c 3d f8 01 24 bd fd 28 01 bd
       0.15735056 0.04599478 -0.04004094 -0.03153323
000080 8e 79 66 3b 84 96 11 be 3c 51 bc 3b 72 e3 64 bd
       0.0035167667 -0.14217573 0.0057469886 -0.05588097
000090 37 b3 95 3d da 97 fa 3d 25 c3 2c 3e 29 48 21 bd
       0.07309573 0.12235995 0.16871317 -0.039375458
0000a0 5e 12 f9 3d 9c 06 20 3e 76 32 46 3e 8e 0f 5d 3c
       0.121617064 0.15627521 0.19355187 0.013492478
0000b0 f7 5f 6b bd 36 9f 40 be b4 9a 2f 3e 23 8c 5f be
       -0.057464566 -0.18810734 0.17148858 -0.21830802
0000c0 a7 c8 08 3e b1 d5 e0 3d 93 fa 1e 3e 2f 49 df 3d
       0.13357793 0.109782584 0.15525274 0.109026305
0000d0 61 50 ba bd b5 57 d8 3d d7 b8 66 be 75 d2 86 3d
       -0.09097362 0.10563604 -0.22531448 0.0658311
0000e0 1d b5 e2 3d a2 4d df 3d 89 a8 24 3e 54 d9 48 bc
       0.11069701 0.10903479 0.16079916 -0.012258846
0000f0 43 c4 32 be 5e c9 8a 3d aa 6b 3a be 23 a2 6a 3d
       -0.1745768 0.06776689 -0.18205133 0.057283532
000100 46 62 04 3e 73 e0 60 3e cb bf 0c 3e 98 af 53 3d
       0.12928113 0.2196062 0.13745038 0.05168113
000110 cb c1 4e 3e 47 8e b4 3d 2f 1a 16 be eb 59 0c be
       0.20191114 0.088162 -0.14658426 -0.13706176
000120 5f 6a 88 3d 6e 30 9d bd 8a 76 d0 3c b7 ef 05 3c
       0.06660914 -0.07675253 0.025447149 0.008174828
000130 bc c3 43 bc 25 c4 2d 3d ab ad 02 be 88 41 25 3d
       -0.011948522 0.042423386 -0.12761562 0.0403457
000140 0f 87 59 bd d4 31 60 be ba d8 29 be 64 0e bd 3c
       -0.053107318 -0.21894008 -0.16586581 0.023078151
000150 8d ff e9 bc 10 c5 41 be 33 97 ba 3d ef ef 53 be
       -0.028564239 -0.1892283 0.0911087 -0.20696996
000160 8d 39 34 be 22 e3 32 3d 86 94 46 be 78 7f 2a be
       -0.17600079 0.043673642 -0.19392595 -0.16650188
000170 f1 72 12 be 09 06 6c 3d 9c 21 57 3e 23 4e 82 bd
       -0.14301659 0.057622943 0.21008915 -0.0636256
000180 f5 aa a7 bd 6f b3 c7 bd f7 73 57 3e 21 6f af bd
       -0.08186904 -0.09751021 0.21040331 -0.08566118
000190 13 71 56 3e 69 2e 02 3d 0c b3 e6 bd c5 76 68 3d
       0.20941572 0.03178254 -0.11264619 0.056753892
0001a0 fd 03 8b bd 54 aa 3c be 19 c7 42 be 00 21 3b be
       -0.0678787 -0.1842435 -0.19021262 -0.18274307
0001b0 7e 59 51 3d af c8 e2 3d cb 5a 32 3d b5 e8 52 be
       0.051110737 0.110734336 0.04354362 -0.20596583
0001c0 1a 89 fa bd d5 cd cc 3d 3a 47 e3 bd 7e 36 57 be
       -0.12233181 0.10000197 -0.1109757 -0.21016881
0001d0 25 13 1e 3e c3 89 0c 3e d6 05 55 3e 1d a9 0d be
       0.1543699 0.13724427 0.20803007 -0.13834043
0001e0 31 f2 1f be 51 c6 57 3d 9d 79 16 bd fb 38 3f 3d
       -0.15619732 0.052679364 -0.036737073 0.0466852
0001f0 60 d3 86 3d 93 d6 ca bd 05 15 43 3d 37 aa 1f be
       0.06583285 -0.09904208 0.047627468 -0.15592276
000200 00 8a 0d 3e 58 7c 01 3e 25 1f c2 bd ca 0a 6c bd
       0.13822174 0.1264509 -0.094785966 -0.057627477
000210 d8 e6 2b be 67 6a 2d be 5a 50 18 be 58 ac dc bc
       -0.16787279 -0.1693512 -0.14874402 -0.026937649
000220 82 fe 81 bd eb 7c 59 3c d7 4d 56 3e 60 fa 83 3d
       -0.06347372 0.013274412 0.20928131 0.064442396
000230 aa b7 71 bd 60 de 15 bd d6 ba 24 3e af 77 53 be
       -0.059013046 -0.036589026 0.16086897 -0.20651124
000240 cd 5d 04 be e3 b9 05 be 97 c8 0d 3e e6 0f fd bd
       -0.12926407 -0.13059191 0.1384605 -0.12356548
000250 4c 74 2f bd 56 38 2c be 1a a1 1b 3e 40 53 39 3e
       -0.04283552 -0.16818365 0.15198174 0.18098164
000260 f4 ad a8 bd cd 1e b9 bb 2a 6a 1f be 35 03 8d bd
       -0.08236304 -0.0056494237 -0.15567842 -0.06885377
000270 04 8e 50 3e 3b 96 19 3d 05 5f a8 3d 9a ac bb bd
       0.20366675 0.037496787 0.082212485 -0.091637805
000280 ad 9e 20 be dc 9c 5d 3d f3 f0 af bd 53 89 0e 3e
       -0.1568553 0.05410467 -0.08590879 0.13919573
000290 6c 2b 16 3e 50 57 8b 3d d8 ed 54 be 39 59 31 be
       0.14665002 0.06803763 -0.20793855 -0.17319192
0002a0 fa 70 5a bd 04 3c 16 3e 9c ff 9c bd be a4 81 bc
       -0.0533304 0.14671332 -0.07665941 -0.015825626
0002b0 b3 1d 0f bd aa 07 04 3e 9c fa c1 bd d5 a2 17 be
       -0.034940433 0.12893549 -0.09471628 -0.14808209
0002c0 9d 88 3d bd f5 3a 51 be 7f 38 a0 36 b4 23 04 bd
       -0.046272863 -0.20432647 4.7749486e-06 -0.03226061
0002d0 41 a7 e3 3c f3 22 0c 3e 13 2c 56 3d c8 59 7c bd
       0.027789714 0.13685207 0.052288126 -0.06160906
0002e0 78 ab 53 be 88 7b f5 bd 5a a3 2c bd 6a 35 5e 3e
       -0.20670879 -0.11986452 -0.04214797 0.21700063
0002f0 a5 0f ed bd 7b 62 a1 bd 71 58 b6 3d e9 64 14 3e
       -0.115752496 -0.07880112 0.089035876 0.14491619
000300 1a 6b c7 3d db 96 c2 bd f4 a1 52 3d ec d7 1b 3e
       0.09737225 -0.0950143 0.05142398 0.15219086
000310 fd 98 2c bd 50 c1 c8 3d 67 c9 3f be c8 b9 39 be
       -0.04213809 0.098024964 -0.18729173 -0.18137276
000320 2a ec d8 3d 21 5e 50 be c4 d5 90 3d 40 16 71 3d
       0.1059192 -0.20348407 0.070720226 0.05885911
000330 0d a6 b1 bd ab 37 35 be d1 83 d7 bd 28 11 5c 3d
       -0.0867425 -0.17697017 -0.10523189 0.0537273
000340 15 20 50 be 24 bf e0 bb 63 31 dc 3d d5 9d 3f 3e
       -0.20324738 -0.0068587232 0.10751607 0.18712552
000350 a3 36 3f be bf 65 0c 3c c8 eb 1d 3e 46 98 ee bd
       -0.18673186 0.00856918 0.15421975 -0.116501376
000360 fe 1b 23 be 4f f6 fa 3c 2e 75 96 bd 69 1d 50 3e
       -0.15928647 0.030635027 -0.07346569 0.20323719
000370 23 c4 19 be fd 82 1c 3e 5e e1 23 be 7c 6f 06 3e
       -0.15016226 0.15284343 -0.1600394 0.13128465
000380 c3 50 e4 3c e6 67 a4 bd 33 0b 5b 3e fa 06 9e 3d
       0.027870541 -0.080276296 0.21390991 0.077161744
000390 b2 50 a7 3d 15 51 3b be 60 b4 88 3d a3 11 52 be
       0.08169688 -0.18292649 0.06675029 -0.2051454
0003a0 3c 38 1a be 5d 46 0b be e5 72 f7 bd b5 db 48 3e
       -0.15060514 -0.1360106 -0.12082461 0.19615062
0003b0 f3 78 2e bd e6 c6 8b 3d 24 c3 74 3d 17 cf 94 bd
       -0.042595815 0.06825046 0.059756413 -0.07266062
0003c0 bf e2 53 be cf 6e 9e 3c 79 b9 ff 3c 9f ee 4b 3d
       -0.20691966 0.019339947 0.03121637 0.049788114
0003d0 5d 18 05 3e 12 b3 c5 bd e5 5a 24 bd 6c 67 94 3d
       0.12997575 -0.096532956 -0.040125746 0.07246289
0003e0 03 7b e9 3d 8f 30 fd 3d 9f c0 34 be f8 ff 89 bd
       0.11400416 0.123627774 -0.17651604 -0.06738275
0003f0 70 f2 17 be 5f f2 af bd ef 3d 48 be e0 1b 16 be
       -0.14838576 -0.085911505 -0.19554876 -0.14659071

model/gru_2/gru_cell/ReadVariableOp/resource:0 f4 [2, 96]
000000 0a ef e2 bc 45 eb cb ba 4f 47 8f bb 9f f3 7f bc
       -0.027701873 -0.0015557787 -0.0043725143 -0.015622049
000010 d8 13 63 bb b9 0b 49 bb 96 8b 25 bb 53 0a da bb
       -0.003464928 -0.0030677153 -0.0025260202 -0.006654063
000020 e9 62 cf bc ca 71 0c bd c5 6d 3c bc a3 ad 14 bc
       -0.025315719 -0.034288205 -0.0115007805 -0.009074601
000030 ab 59 83 3a f7 05 05 bd 41 6c 89 3b b4 73 9a 3b
       0.001002123 -0.03247639 0.004193813 0.0047135
000040 ea d7 06 3c a2 25 d7 bb e9 04 85 3a 85 ab 6d bc
       0.008230189 -0.0065657655 0.0010148558 -0.0145062255
000050 b4 04 8c bb 7a 4f ab bb 8b 0b 0a 3b 33 89 01 3c
       -0.0042730216 -0.00522798 0.002106401 0.007906246
000060 77 98 a3 bc 94 32 81 bb 75 58 ec 3b b7 74 d1 bc
       -0.019970162 -0.003942797 0.0072126933 -0.02556835
000070 aa ce 43 3b 11 5c d8 3b 41 35 83 bc c7 58 df bc
       0.002987782 0.006602772 -0.016016604 -0.027264012
000080 04 79 02 3c d3 e5 9c 3b d4 b6 91 3c c5 dd 2e 3c
       0.007963423 0.0047881394 0.017787375 0.010672991
000090 19 cd a7 3a 7a 65 ab 3a 14 69 83 3c 0d 45 02 bc
       0.0012802213 0.0013076507 0.016041316 -0.007951033
0000a0 3b 07 5e bc c5 07 6a bc 85 96 f2 bb 34 dc 91 bb
       -0.013551529 -0.014284079 -0.007403197 -0.004451299
0000b0 00 36 a8 bb c9 43 0a 3c 14 7c 2f ba a0 50 0b bc
       -0.0051333904 0.008439013 -0.00066942093 -0.008503109
0000c0 49 8a 7e 3c 9f 86 0e 3b a1 dd 21 bb e1 72 08 bc
       0.015535899 0.002174772 -0.0024698752 -0.0083281705
0000d0 59 85 29 3b 61 12 a7 3a b5 5f 2e 3c c9 10 81 ba
       0.0025866835 0.0012746566 0.0106429355 -0.0009846921
0000e0 84 4b e2 3b 3a 8f 28 3b 83 b9 2b bc ec b4 26 bc
       0.006905975 0.0025720135 -0.010481241 -0.010174971
0000f0 f0 de fa bb b7 af 09 bc 89 89 d9 bc aa 1c 69 bc
       -0.0076559708 -0.00840371 -0.02655484 -0.014228025
000100 16 86 c9 3a b1 c0 0b bc 7d e3 62 bc 94 02 97 ba
       0.0015375044 -0.008529828 -0.013848183 -0.0011521154
000110 8f 6f 5d bb 33 ec 57 ba 30 b0 32 bc 74 10 88 3a
       -0.0033788418 -0.00082367955 -0.010906264 0.001038088
000120 9b 2c 30 3a 0c f6 b4 3a 8d 0a 15 bc 05 5c 1e bc
       0.0006720514 0.0013806238 -0.009096754 -0.009665494
000130 49 e0 49 bb 80 ef cc 3b d8 0a 84 bb f1 15 49 bc
       -0.003080385 0.0062541366 -0.004029613 -0.012273298
000140 dc 53 38 bc 0e b2 29 bc 9a 3c 93 bb 5b 31 43 3a
       -0.011250462 -0.010357393 -0.0044933083 0.0007446014
000150 46 72 0c bc 38 7a ef 3c 69 df 2e bc a7 c0 f0 3a
       -0.008572167 0.029233083 -0.010673382 0.0018367962
000160 9e b5 82 3a 9f 4f 06 bc 59 83 34 bc 8d 54 af 3a
       0.0009972339 -0.008197694 -0.011017644 0.0013376639
000170 64 25 b4 bb 02 63 fd bb 02 f0 b4 3b e5 0d de 3a
       -0.0054976214 -0.00773275 0.005521775 0.0016941397
000180 0a ef e2 bc 45 eb cb ba 4f 47 8f bb 9f f3 7f bc
       -0.027701873 -0.0015557787 -0.0043725143 -0.015622049
000190 d8 13 63 bb b9 0b 49 bb 96 8b 25 bb 53 0a da bb
       -0.003464928 -0.0030677153 -0.0025260202 -0.006654063
0001a0 e9 62 cf bc ca 71 0c bd c5 6d 3c bc a3 ad 14 bc
       -0.025315719 -0.034288205 -0.0115007805 -0.009074601
0001b0 ab 59 83 3a f7 05 05 bd 41 6c 89 3b b4 73 9a 3b
       0.001002123 -0.03247639 0.004193813 0.0047135
0001c0 ea d7 06 3c a2 25 d7 bb e9 04 85 3a 85 ab 6d bc
       0.008230189 -0.0065657655 0.0010148558 -0.0145062255
0001d0 b4 04 8c bb 7a 4f ab bb 8b 0b 0a 3b 33 89 01 3c
       -0.0042730216 -0.00522798 0.002106401 0.007906246
0001e0 77 98 a3 bc 94 32 81 bb 75 58 ec 3b b7 74 d1 bc
       -0.019970162 -0.003942797 0.0072126933 -0.02556835
0001f0 aa ce 43 3b 11 5c d8 3b 41 35 83 bc c7 58 df bc
       0.002987782 0.006602772 -0.016016604 -0.027264012
000200 04 79 02 3c d3 e5 9c 3b d4 b6 91 3c c5 dd 2e 3c
       0.007963423 0.0047881394 0.017787375 0.010672991
000210 19 cd a7 3a 7a 65 ab 3a 14 69 83 3c 0d 45 02 bc
       0.0012802213 0.0013076507 0.016041316 -0.007951033
000220 3b 07 5e bc c5 07 6a bc 85 96 f2 bb 34 dc 91 bb
       -0.013551529 -0.014284079 -0.007403197 -0.004451299
000230 00 36 a8 bb c9 43 0a 3c 14 7c 2f ba a0 50 0b bc
       -0.0051333904 0.008439013 -0.00066942093 -0.008503109
000240 49 8a 7e 3c 9f 86 0e 3b a1 dd 21 bb e1 72 08 bc
       0.015535899 0.002174772 -0.0024698752 -0.0083281705
000250 59 85 29 3b 61 12 a7 3a b5 5f 2e 3c c9 10 81 ba
       0.0025866835 0.0012746566 0.0106429355 -0.0009846921
000260 84 4b e2 3b 3a 8f 28 3b 83 b9 2b bc ec b4 26 bc
       0.006905975 0.0025720135 -0.010481241 -0.010174971
000270 f0 de fa bb b7 af 09 bc 89 89 d9 bc aa 1c 69 bc
       -0.0076559708 -0.00840371 -0.02655484 -0.014228025
000280 7b ad c0 3a df ae 0b bc 81 89 62 bc c3 93 0f ba
       0.0014700139 -0.008525579 -0.013826729 -0.00054770353
000290 84 6b 42 bb dc 98 53 ba f1 8a 34 bc d3 e5 68 3a
       -0.0029666135 -0.0008071789 -0.011019454 0.0008884344
0002a0 0b 05 8d 3a e3 4a d3 3a 71 6c 17 bc 79 f4 24 bc
       0.0010758949 0.001612034 -0.009242163 -0.010068052
0002b0 4e 13 53 bb f6 a7 ca 3b 90 bb 86 bb 6c 76 4a bc
       -0.0032207551 0.0061845733 -0.0041117147 -0.012357336
0002c0 04 62 38 bc 37 be 27 bc 51 77 97 bb 14 af 60 3a
       -0.0112538375 -0.010238222 -0.004622378 0.00085710105
0002d0 3f 34 0c bc 1e 15 ef 3c 98 a3 2e bc ad 21 e5 3a
       -0.008557378 0.029184874 -0.010659121 0.001748135
0002e0 49 1e 90 3a dd c6 04 bc a8 60 34 bc 9a f7 cb 3a
       0.0010995354 -0.008104053 -0.011009373 0.0015561462
0002f0 b8 b7 b3 bb 61 fd fd bb 2b 50 bd 3b 00 80 d6 3a
       -0.0054845475 -0.0077511524 0.005777379 0.0016365051

model/gru_2/gru_cell/MatMul_1/ReadVariableOp/resource:0 f4 [32, 96]
000000 fb 11 22 3d 09 c2 be 3c 81 49 24 be f8 04 cc bd
       0.03956793 0.023285883 -0.16043665 -0.09961885
000010 74 62 47 be 71 4b 69 bd 85 df a1 bc 9e fe 01 be
       -0.1947115 -0.056956712 -0.019759903 -0.12694785
000020 88 e4 fb bd 7b 8f 76 bc f6 7c 24 bc 4b 65 0d 3d
       -0.12299448 -0.015048857 -0.010039559 0.03452043
000030 4e a7 89 bd e3 37 cd bd 6d 28 81 3b 6e 99 08 3e
       -0.06721364 -0.10020425 0.0039415867 0.13339779
000040 9d 7d 87 bd 32 08 27 3e a0 ae 4d ba 2d 16 78 be
       -0.06615756 0.1631172 -0.00078461505 -0.2422721
000050 3a aa 65 bc b6 ce f7 bd d4 10 bf bd ed f5 ee bd
       -0.014017636 -0.12099974 -0.093293816 -0.11668
000060 d9 a5 fa 3d 48 04 1d be 6a 63 b6 bd b5 f7 ae bd
       0.12238664 -0.15333664 -0.089056805 -0.0854334
000070 8b ff fb bd 0c 43 23 be 30 51 14 be a2 b2 60 bd
       -0.123046 -0.15943545 -0.14484096 -0.054857858
000080 10 42 77 bd fa 99 1c bc a9 26 08 3d 18 bf 79 3d
       -0.060365736 -0.009558195 0.033239994 0.060973257
000090 72 59 21 3d a3 e6 23 bd 2b 55 77 3d 3f f6 0a 3e
       0.039391942 -0.040014874 0.060383957 0.13570498
0000a0 0a 3b d3 3d 3d 1f 1d bd c9 b4 83 3c f6 69 85 3c
       0.10313995 -0.03835987 0.016077416 0.016285878
0000b0 fe 91 a0 3d c1 37 85 3d eb 00 42 3e 24 8a 2c bd
       0.07840346 0.06504775 0.18945663 -0.04212393
0000c0 67 31 0f bd 44 a9 b8 3d 6a 8c 16 bb fb 62 e0 3d
       -0.034959223 0.0901666 -0.0022971877 0.10956379
0000d0 ad 35 59 be 4b 79 80 3d 88 42 9f bd c2 60 b4 3d
       -0.21211882 0.06273135 -0.07776362 0.088075176
0000e0 e3 bd fc bc ce de ae bd eb 1e 9f 3b 80 d7 10 be
       -0.030852264 -0.0853859 0.0048559806 -0.14144707
0000f0 46 61 dc bd d3 be 27 3c 65 8b c0 bd 6d 42 0a 3e
       -0.10760741 0.010238367 -0.094015874 0.13501902
000100 d9 4b 26 be b5 d8 66 3d e7 70 9a bd e4 29 25 3e
       -0.16239871 0.05635901 -0.07541066 0.16129261
000110 59 8c dd 3d 65 2f 46 bc d7 9f 5d be 99 7b 2e be
       0.10817785 -0.012096261 -0.21643005 -0.17039336
000120 4f 6c a5 bd 8a 2e 01 be ca 3c d4 3b e9 83 68 3d
       -0.08077299 -0.1261541 0.006476973 0.056766424
000130 42 14 9a bd d7 50 97 3d 5b 5b 91 bc 74 4f 50 bd
       -0.07523395 0.07388466 -0.017743757 -0.050857022
000140 1e 3d f1 bd cd a4 42 bd 62 e7 fb 3d cd c8 47 bd
       -0.11779235 -0.047520448 0.12299992 -0.048775483
000150 f9 8f 37 3c 6f e6 c9 bc 48 6e ee 3c 67 ff b4 3d
       0.011203759 -0.024646012 0.02910532 0.08837777
000160 80 c4 44 3d 82 55 83 3c 1d 19 d1 3d db da a1 be
       0.04803896 0.016031984 0.10209868 -0.31612286
000170 f5 5e 8f 3d 73 72 39 3d 23 24 6f 3c 01 28 2a be
       0.070005335 0.045275163 0.014596018 -0.16616823
000180 9c f4 2a be 5a 2f 86 bd bb 70 98 bd eb 3f bf 3d
       -0.16694874 -0.06552 -0.07443377 0.09338363
000190 4b 42 01 3e 17 9e a9 3d 8e d7 35 3d bc 97 a2 bc
       0.12622945 0.08282106 0.044395022 -0.019847743
0001a0 00 b9 26 bd 6a 86 ba bd 17 90 bb 3d d7 ec 08 be
       -0.040703773 -0.09107669 0.09158342 -0.13371597
0001b0 cd fb 45 3e 3a 77 67 bd dc e2 20 3e b0 b0 62 3e
       0.19334336 -0.056510188 0.1571154 0.22137713
0001c0 55 5f ee bd a5 54 37 3e 0f 4a cd 3d 67 97 98 3c
       -0.11639277 0.17903383 0.10023891 0.018626882
0001d0 3f 45 97 bd e1 a7 19 bd d2 ae 40 3d bb 98 56 3e
       -0.073862545 -0.037513617 0.04704172 0.209567
0001e0 b0 7f f5 bd 9f 7b 3f 3c 52 8a f6 3d b7 51 cb bd
       -0.11987245 0.011687188 0.12038101 -0.09927695
0001f0 1a 2c ac bc 55 07 c3 bd f9 fe c4 3d 91 6e 20 be
       -0.021017123 -0.09522883 0.09618945 -0.15667178
000200 67 eb 38 3e be 3b 81 bd 00 5c cd 3d 7b a0 2e 3a
       0.18058549 -0.06310223 0.10027313 0.00066614867
000210 4f 67 db 3d 39 55 41 bc 51 42 1b 3d a4 9e b4 bc
       0.10713064 -0.011800104 0.03790504 -0.022048302
000220 c1 fc 12 3d 80 c0 80 3d 3b 2b d0 3d dd 22 0c 3e
       0.035885576 0.062867165 0.101644956 0.13685174
000230 0b 7f 34 3e 83 a3 d2 bd d0 ea f5 3b 7a 6a f7 3c
       0.17626588 -0.10285094 0.0075047985 0.03020214
000240 b9 18 69 bc fb b3 db bd 5e 22 db bd 90 bf f4 3d
       -0.014227086 -0.10727688 -0.106999144 0.119506
000250 58 a3 3c 3d ed fc 0c 3d 57 d8 20 bb 1e 73 c1 3d
       0.046054214 0.034420896 -0.002454301 0.09445785
000260 9d ca e0 3d 51 ce ba 3d 1d d0 18 be 76 bf 86 3c
       0.109761454 0.09121383 -0.14923139 0.016448718
000270 3c 40 aa bd 79 72 a4 3d d1 a1 05 3e c4 01 09 3e
       -0.08313033 0.080296464 0.1305001 0.1337958
000280 91 af c2 3d a0 c7 31 be 97 1d d5 bd a2 e9 7f bd
       0.09506143 -0.17361307 -0.104060344 -0.06247867
000290 9f ee e9 bb 80 8f 51 3e dd 4e d6 bc 62 d0 94 bd
       -0.0071390416 0.20464897 -0.026160652 -0.07266308
0002a0 06 80 21 bd 27 46 ed 3c dd 15 f1 bd f8 9c 5e bd
       -0.039428733 0.028964115 -0.11771748 -0.054348916
0002b0 77 37 40 bd 38 dc e3 bd 23 55 b6 bd 44 33 4f 3d
       -0.046927895 -0.11125988 -0.08902957 0.050586
0002c0 91 aa d1 bd c4 9f 0b 3e 82 17 de bc 23 3d 28 3d
       -0.10237611 0.13635164 -0.027110819 0.04107393
0002d0 20 8d d2 bc 6f fd d8 3c df a3 3b 3e 7c 89 3c be
       -0.02570206 0.026488034 0.1832423 -0.18411821
0002e0 53 ec 66 3d e5 c7 94 3c 3b 4f 0a 3e 55 af e6 bd
       0.05637772 0.018161723 0.13506787 -0.11263911
0002f0 eb a7 e9 3c 59 ec 10 be a3 4f bd 3c 42 60 ab 3d
       0.028522452 -0.1415266 0.023109263 0.08367969
000300 b0 a8 30 be 56 c8 be 3b 59 d0 9d 3c 17 1b ec 3c
       -0.17251849 0.0058222217 0.019264387 0.028821511
000310 95 10 22 3c ec ac ca bc 8f e2 7d 3e fc ef 18 3e
       0.009891649 -0.024740659 0.24793456 0.14935297
000320 a0 a3 84 bd f4 cb fc 3d 16 bf d1 3d 9c 72 89 bd
       -0.064765215 0.123435885 0.10241525 -0.06711313
000330 5c 2c 3c be 43 90 03 be c1 89 97 be 37 c2 01 3d
       -0.18376297 -0.12848 -0.29597285 0.03167936
000340 4c a4 01 be 68 d9 06 be 16 42 b3 bd 95 ff c0 bc
       -0.1266033 -0.13168871 -0.08752839 -0.023559371
000350 fa 8b de bc 16 8b 9d bd 21 72 c6 3d 1c ae 4a 3d
       -0.027166355 -0.07692544 0.09689737 0.04948245
000360 a9 c7 6d bc 65 54 af 3c d6 bf a2 bd b7 25 cb 3d
       -0.014512935 0.021402547 -0.07946746 0.09919303
000370 76 25 aa bc 85 c8 85 3c bf 5f 03 3e 77 4f 2b 3e
       -0.020769816 0.016330967 0.12829493 0.16729532
000380 20 05 4f bd a8 24 ba bd 8d 9d 19 3e 9e 76 8b bc
       -0.050541997 -0.09089023 0.15001507 -0.017024335
000390 4c 72 2c 3e 1b ef ae bd d0 83 b5 3d 77 71 f6 bd
       0.16840476 -0.085416995 0.08863032 -0.120333605
0003a0 59 4a 25 3e a9 08 85 3d 3c 89 52 3e ef eb cb bd
       0.16141643 0.064957924 0.20560163 -0.0995711
0003b0 0e d6 02 be ac 0d 3d 3e bc f2 b8 3d 54 7f 17 3e
       -0.12776968 0.18462247 0.09030673 0.14794666
0003c0 44 4f 20 bd a2 10 90 bd 7f 52 82 bd bb 8f 9f bc
       -0.039138094 -0.070344225 -0.06363391 -0.019477716
0003d0 d9 85 00 3e a4 9d 38 bd 03 f1 8e bc 6d c1 44 3c
       0.12551059 -0.045072213 -0.017448908 0.012009007
0003e0 27 d6 51 be d0 f3 45 3c 89 29 53 3d 2e 2d 24 3d
       -0.20491849 0.012082055 0.051553283 0.04008215
0003f0 44 89 8b ba 64 c8 01 3d 8b de 3d be ec 35 7c 3c
       -0.0010645767 0.031685248 -0.18541925 0.015393715
