models/daily/model.onnx (onnx, 471909 bytes, 17 tensors)

model/quant_dense_2/LastValueQuant/FakeQuantWithMinMaxVars__56 f4 [32, 1]
0.026263392 -0.2724827 0.08535602 0.39723378 0.0 -0.25606808 0.41693133 0.21010713
-0.40708256 0.07879017 -0.036112163 0.3676875 0.38738504 0.26591685 0.3709704 -0.15758035
0.19369252 -0.07550725 -0.11161941 0.3841021 -0.09192187 -0.039395086 0.09848772 -0.36440456
0.2757656 -0.20025836 0.10177064 0.21667299 0.259351 0.24293637 -0.3545558 0.20682421
00000000: 5326 d73c da82 8bbe 23cf ae3d 3a62 cb3e
00000010: 0000 0000 5b1b 83be 0678 d53e 5326 573e
00000020: 206d d0be be5c a13d 59ea 13bd 8941 bc3e
00000030: 5557 c63e 4126 883e d5ef bd3e be5c 21be
00000040: 5557 463e 8ca3 9abd b898 e4bd 08a9 c43e
00000050: 8941 bcbd be5c 21bd eeb3 c93d 3c93 babe
00000060: 2631 8d3e 8710 4dbe 206d d03d 86df 5d3e
00000070: a7c9 843e 50c4 783e 5688 b5be bac9 533e

model/quant_dense_1/LastValueQuant/FakeQuantWithMinMaxVars__55 f4 [64, 32]
0.07343907 -0.06898821 0.16245611 0.115722165 -0.17358325 0.08901705 -0.14020185 -0.109045886
-0.120173015 -0.093467906 0.21586634 0.20251378 -0.20028837 0.04895938 -0.053410232 0.24702232
0.028930541 -0.19583751 -0.17135783 -0.03560682 0.16468154 -0.2203172 0.22699347 0.2203172
0.013352558 -0.15800527 -0.14910355 0.08234077 -0.093467906 -0.21364093 -0.060086507 0.09569333
0.1268493 0.22476806 0.1780341 0.008901705 0.2292189 0.09791876 0.16468154 0.015577984
0.24479689 -0.21364093 0.22254263 0.0422831 0.055635657 0.24924774 0.033381395 0.09124248
-0.2203172 0.24034603 0.15800527 0.24034603 0.15800527 -0.15355441 0.12239844 -0.17358325
-0.028930541 0.033381395 0.06676279 -0.06898821 -0.057861082 -0.1691324 -0.115722165 0.24702232
-0.06676279 -0.13352558 0.12907472 -0.06676279 -0.0022254263 0.040057674 0.09569333 0.18025953
-0.051184803 0.2292189 0.20473921 -0.23144433 -0.22476806 -0.062311936 -0.053410232 -0.21586634
0.008901705 -0.13130015 0.053410232 0.07566449 0.011127131 -0.18471038 0.17580867 -0.10236961
-0.14465271 -0.16690697 0.026705116 -0.1602307 -0.15800527 -0.20028837 0.120173015 -0.07788992
-0.022254262 0.07566449 -0.24479689 0.14020185 -0.17580867 -0.16468154 -0.10236961 0.0
0.21809177 0.19138665 -0.23366976 -0.06898821 -0.01780341 0.02447969 0.020028837 -0.104595035
-0.11794759 0.13575101 0.20473921 0.07343907 0.106820464 -0.033381395 0.0 -0.055635657
0.06898821 0.18916123 0.18916123 0.26482573 0.21809177 0.10236961 -0.14020185 -0.051184803
-0.08679163 0.022254262 -0.0044508525 -0.013352558 -0.020028837 0.04895938 0.062311936 0.011127131
0.0022254263 0.06898821 -0.16468154 -0.21364093 -0.2203172 0.106820464 -0.17358325 -0.08234077
-0.23812062 0.031155968 0.09569333 -0.22254263 0.006676279 -0.2203172 -0.16245611 -0.08679163
0.07121364 -0.14020185 0.113496736 0.008901705 0.24034603 -0.093467906 0.20251378 0.20473921
0.2536986 -0.06453736 0.21586634 0.07566449 -0.18025953 -0.08679163 -0.12462387 0.14020185
-0.1268493 0.24924774 -0.033381395 0.15132898 0.16245611 0.16245611 0.24479689 -0.1268493
0.011127131 0.18025953 -0.14020185 -0.040057674 0.13797642 0.07788992 0.09124248 0.12907472
0.06453736 -0.18471038 -0.2114155 -0.2203172 0.23366976 -0.07788992 0.15355441 -0.057861082
0.11794759 0.120173015 0.10236961 0.10236961 0.051184803 -0.2292189 0.022254262 -0.23589519
0.13130015 -0.04895938 -0.060086507 -0.03560682 -0.18471038 0.09124248 -0.113496736 0.12239844
0.106820464 -0.2292189 0.1691324 -0.08901705 -0.115722165 -0.044508524 0.20251378 -0.13575101
0.07788992 0.09124248 0.06676279 -0.19361208 0.040057674 0.01780341 0.22476806 0.1268493
0.03560682 -0.026705116 -0.113496736 -0.08901705 -0.15132898 0.20473921 -0.046733953 0.057861082
-0.23812062 -0.14687814 -0.15355441 0.113496736 0.18471038 -0.01780341 0.04895938 0.062311936
0.0044508525 0.15355441 -0.08679163 0.09569333 0.044508524 0.113496736 0.2203172 0.18248495
0.1602307 0.18471038 -0.18916123 -0.113496736 -0.0422831 0.19361208 0.013352558 0.25147316
00000000: 3967 963d b149 8dbd e55a 263e beff ec3d
00000010: cfbf 31be 924e b63d 1391 0fbe 7353 dfbd
00000020: 451d f6bd 1a6c bfbd 110c 5d3e c65f 4f3e
00000030: 6518 4dbe a189 483d b0c4 5abd 6bf3 7c3e
00000040: beff ec3c a189 48be 6d78 2fbe 75d8 11bd
00000050: 47a2 283e d59a 61be fa70 683e d59a 613e
00000060: b0c4 5a3c 22cc 21be 9aae 18be 47a2 a83d
00000070: 1a6c bfbd b0c4 5abe 451d 76bd ddfa c33d
00000080: c8e4 013e 9929 663e 924e 363e 75d8 113c
00000090: 5cb8 6a3e a189 c83d 47a2 283e cd3a 7f3c
000000a0: 09ac 7a3e b0c4 5abe 37e2 633e 0b31 2d3d
000000b0: 37e2 633d cd3a 7f3e eeba 083d 56dd ba3d
000000c0: d59a 61be 451d 763e 22cc 213e 451d 763e
000000d0: 22cc 213e 5e3d 1dbe 09ac fa3d cfbf 31be
000000e0: beff ecbc eeba 083d eeba 883d b149 8dbd
000000f0: beff 6cbd 0b31 2dbe beff ecbd 6bf3 7c3e
00000100: eeba 88bd eeba 08be 2a2c 043e eeba 88bd
00000110: 75d8 11bb 8413 243d ddfa c33d f495 383e
00000120: 28a7 51bd 5cb8 6a3e 28a7 513e beff 6cbe
00000130: 9929 66be cd3a 7fbd b0c4 5abd 110c 5dbe
00000140: 75d8 113c 8c73 06be b0c4 5a3d fcf5 9a3d
00000150: 924e 363c b824 3dbe 3007 343e 28a7 d1bd
00000160: d71f 14be a9e9 2abe b0c4 da3c 8413 24be
00000170: 22cc 21be 6518 4dbe 451d f63d c084 9fbd
00000180: 924e b6bc fcf5 9a3d 09ac 7abe 1391 0f3e
00000190: 3007 34be 47a2 28be 28a7 d1bd 0000 0000
000001a0: 7353 5f3e ddfa 433e 2047 6fbe b149 8dbd
000001b0: 75d8 91bc a189 c83c 8413 a43c ec35 d6bd
000001c0: 828e f1bd 5002 0b3e 28a7 513e 3967 963d
000001d0: b0c4 da3d eeba 08bd 0000 0000 37e2 63bd
000001e0: b149 8d3d 7bb3 413e 7bb3 413e 3d97 873e
000001f0: 7353 5f3e 28a7 d13d 1391 0fbe 28a7 51bd
00000200: cfbf b1bd 924e b63c 75d8 91bb b0c4 5abc
00000210: 8413 a4bc a189 483d cd3a 7f3d 924e 363c
00000220: 75d8 113b b149 8d3d 47a2 28be b0c4 5abe
00000230: d59a 61be b0c4 da3d cfbf 31be 47a2 a8bd
00000240: e4d5 73be cd3a ff3c ddfa c33d 37e2 63be
00000250: b0c4 da3b d59a 61be e55a 26be cfbf b1bd
00000260: 75d8 913d 1391 0fbe fa70 e83d 75d8 113c
00000270: 451d 763e 1a6c bfbd c65f 4f3e 28a7 513e
00000280: c8e4 813e 2a2c 84bd 110c 5d3e fcf5 9a3d
00000290: f495 38be cfbf b1bd cd3a ffbd 1391 0f3e
000002a0: c8e4 01be cd3a 7f3e eeba 08bd fcf5 1a3e
000002b0: e55a 263e e55a 263e 09ac 7a3e c8e4 01be
000002c0: 924e 363c f495 383e 1391 0fbe 8413 24bd
000002d0: b149 0d3e c084 9f3d 56dd ba3d 2a2c 043e
000002e0: 2a2c 843d b824 3dbe 4e7d 58be d59a 61be
000002f0: 2047 6f3e c084 9fbd 5e3d 1d3e beff 6cbd
00000300: 828e f13d 451d f63d 28a7 d13d 28a7 d13d
00000310: 28a7 513d 5cb8 6abe 924e b63c 828e 71be
00000320: 8c73 063e a189 48bd 451d 76bd 75d8 11bd
00000330: b824 3dbe 56dd ba3d fa70 e8bd 09ac fa3d
00000340: b0c4 da3d 5cb8 6abe 0b31 2d3e 924e b6bd
00000350: beff ecbd 924e 36bd c65f 4f3e 5002 0bbe
00000360: c084 9f3d 56dd ba3d eeba 883d 3f42 46be
00000370: 8413 243d 75d8 913c 9929 663e c8e4 013e
00000380: 75d8 113d b0c4 dabc fa70 e8bd 924e b6bd
00000390: fcf5 1abe 28a7 513e 1a6c 3fbd beff 6c3d
000003a0: e4d5 73be 3967 16be 5e3d 1dbe fa70 e83d
000003b0: b824 3d3e 75d8 91bc a189 483d cd3a 7f3d
000003c0: 75d8 913b 5e3d 1d3e cfbf b1bd ddfa c33d
000003d0: 924e 363d fa70 e83d d59a 613e 56dd 3a3e
000003e0: 8413 243e b824 3d3e 7bb3 41be fa70 e8bd
000003f0: 0b31 2dbd 3f42 463e b0c4 5a3c 17c1 803e

model/quant_dense_1/BiasAdd/ReadVariableOp:0 f4 [32]
0.029436091 -0.02192238 0.008348852 0.02903382 -0.016429061 -0.018327985 0.010537828 0.015525988
-0.014768292 0.020501353 -0.019853303 0.0129118 0.012292059 0.018134378 0.008471707 -0.011500531
0.0049724886 -0.01781358 -0.018436138 0.011862416 -0.014809799 -0.020814758 0.017126203 -0.018724881
0.017899226 -0.02368722 0.014060943 0.01604145 0.017997103 0.016016481 -0.010316914 0.017076235
00000000: f523 f13c 9096 b3bc a0c9 083c 55d8 ed3c
00000010: 3d96 86bc 9224 96bc dba6 2c3c b760 7e3c
00000020: b5f6 71bc 74f2 a73c 65a3 a2bc 048c 533c
00000030: a264 493c 8c8e 943c eacc 0a3c b96c 3cbc
00000040: 42f0 a23b c9ed 91bc 6207 97bc 945a 423c
00000050: cda4 72bc b683 aabc 404c 8c3c ec64 99bc
00000060: 66a1 923c b30b c2bc df5f 663c 5c69 833c
00000070: a96e 933c ff34 833c 4608 29bc 76e3 8b3c

model/quant_dense/LastValueQuant/FakeQuantWithMinMaxVars__54 f4 [32, 64]
0.015236612 -0.20025262 -0.07182974 0.1588961 0.026119906 0.18719266 0.06094645 0.10012631
0.15018947 -0.17848603 0.2590224 -0.052239813 0.2546691 0.22854918 -0.07182974 -0.01958993
0.10883295 0.16542608 -0.091419674 -0.20025262 0.17630938 -0.10230297 0.1327762 0.08924302
-0.050063156 -0.10883295 -0.1697794 0.12624621 -0.002176659 0.0848897 0.18283935 -0.02394325
-0.21331258 0.2503158 0.21984255 0.12842287 -0.07835972 -0.23943248 0.19807597 -0.091419674
-0.23725583 -0.15018947 -0.06094645 0.18283935 -0.2437858 0.25684574 0.12624621 -0.030473225
0.10883295 -0.076183066 0.20895925 -0.15018947 -0.16542608 -0.15671945 0.017413272 -0.095773
0.14583614 0.1588961 -0.032649886 -0.13059954 -0.24813911 -0.19372265 0.17195606 -0.20895925
-0.21113592 -0.0740064 -0.11536293 -0.104479626 -0.18066269 -0.08924302 -0.050063156 0.2503158
0.14365949 0.091419674 0.058769792 0.19807597 -0.10883295 -0.17413272 -0.13930617 0.010883295
0.24813911 -0.004353318 -0.22419587 0.111009605 -0.14148283 0.11536293 0.191546 -0.22419587
-0.111009605 0.14583614 -0.004353318 -0.16107276 0.117539585 -0.08706636 0.12842287 0.004353318
-0.10230297 0.20460594 -0.23290251 -0.25684574 0.095773 -0.20242928 0.15236613 0.23943248
0.07182974 0.0740064 0.1697794 0.1480128 -0.16542608 0.0 -0.2067826 -0.22637253
0.18283935 -0.095773 -0.02394325 -0.07835972 0.15236613 -0.23725583 0.14148283 0.19807597
0.13930617 -0.15236613 -0.13059954 0.013059953 -0.013059953 0.13930617 -0.17630938 -0.091419674
0.028296566 0.111009605 -0.20242928 -0.1218929 0.2067826 -0.07182974 0.045709837 -0.08271304
-0.17413272 0.14148283 -0.06529977 0.191546 0.028296566 -0.028296566 0.097949654 -0.08053638
0.034826543 0.04135652 0.20025262 0.18283935 -0.15236613 0.2590224 0.117539585 0.22637253
-0.1218929 -0.20242928 -0.21984255 -0.06529977 -0.10883295 0.104479626 0.15018947 0.15454279
0.10665629 -0.052239813 -0.028296566 -0.2503158 0.20025262 0.030473225 0.095773 0.032649886
-0.21113592 0.1327762 -0.013059953 -0.0370032 -0.091419674 -0.117539585 0.034826543 -0.1588961
-0.017413272 0.16542608 -0.0370032 0.16760273 -0.14365949 -0.22854918 0.15671945 -0.22854918
0.17195606 -0.23725583 -0.19372265 -0.010883295 0.18066269 0.17630938 -0.11536293 0.22201921
-0.11318626 0.076183066 -0.06312311 -0.111009605 -0.04135652 0.045709837 -0.06312311 0.1327762
-0.21548924 0.02176659 -0.18283935 -0.017413272 -0.08271304 0.12842287 0.21548924 0.052239813
-0.20242928 0.06529977 0.12624621 0.21331258 0.076183066 -0.08271304 -0.06747643 0.11971624
-0.076183066 -0.02394325 -0.16107276 -0.0848897 -0.0478865 0.26772904 0.26337573 0.25684574
0.06094645 -0.20460594 -0.030473225 0.0065299766 0.1697794 -0.1588961 0.13712952 0.14148283
-0.028296566 0.14583614 -0.02394325 0.04353318 0.11536293 -0.15018947 0.1697794 -0.08271304
0.0848897 0.091419674 0.20242928 0.16324942 -0.0065299766 0.191546 -0.2611991 -0.191546
-0.18283935 0.18719266 0.10883295 0.02394325 -0.06312311 0.14148283 0.054416474 0.22637253
00000000: fca2 793c 060f 4dbe 791b 93bd a9b5 223e
00000010: 6af9 d53c 6faf 3f3e fca2 793d 060f cd3d
00000020: 45cb 193e 0bc5 36be 969e 843e 6af9 55bd
00000030: fd63 823e cc08 6a3e 791b 93bd 107b a0bc
00000040: cfe3 de3d 7465 293e 3d3a bbbd 060f 4dbe
00000050: 728a 343e 3884 d1bd 7cf6 073e 0bc5 b63d
00000060: 060f 4dbd cfe3 debd a7da 2dbe b046 013e
00000070: 47a6 0ebb a7da ad3d 3d3a 3b3e a224 c4bc
00000080: 9d6e 5abe 6429 803e 681e 613e 4981 033e
00000090: 107b a0bd ca2d 75be 6dd4 4a3e 3d3a bbbd
000000a0: 31f3 72be 45cb 19be fca2 79bd 3d3a 3b3e
000000b0: fca2 79be 4981 833e b046 013e fca2 f9bc
000000c0: cfe3 de3d de05 9cbd 6af9 553e 45cb 19be
000000d0: 7465 29be 107b 20be 47a6 8e3c a224 c4bd
000000e0: 1256 153e a9b5 223e e3bb 05bd e3bb 05be
000000f0: 2e18 7ebe 3b5f 46be 4015 303e 6af9 55be
00000100: 0434 58be ab90 97bd 6643 ecbd 6af9 d5bd
00000110: a4ff 38be 0bc5 b6bd 060f 4dbd 6429 803e
00000120: 791b 133e 3d3a bb3d 98b8 703d 6dd4 4a3e
00000130: cfe3 debd d94f 32be 47a6 0ebe d94f 323c
00000140: 2e18 7e3e 47a6 8ebb 9a93 65be 0159 e33d
00000150: e0e0 10be 6643 ec3d a224 443e 9a93 65be
00000160: 0159 e3bd 1256 153e 47a6 8ebb 42f0 24be
00000170: 98b8 f03d d94f b2bd 4981 033e 47a6 8e3b
00000180: 3884 d1bd 3884 513e ff7d 6ebe 4981 83be
00000190: a224 c43d 9f49 4fbe de05 1c3e ca2d 753e
000001a0: 791b 933d ab90 973d a7da 2d3e ab90 173e
000001b0: 7465 29be 0000 0000 d1be 53be 33ce 67be
000001c0: 3d3a 3b3e a224 c4bd a224 c4bc 107b a0bd
000001d0: de05 1c3e 31f3 72be e0e0 103e 6dd4 4a3e
000001e0: 47a6 0e3e de05 1cbe e3bb 05be 6af9 553c
000001f0: 6af9 55bc 47a6 0e3e 728a 34be 3d3a bbbd
00000200: 33ce e73c 0159 e33d 9f49 4fbe fca2 f9bd
00000210: d1be 533e 791b 93bd 3d3a 3b3d 7465 a9bd
00000220: d94f 32be e0e0 103e e3bb 85bd a224 443e
00000230: 33ce e73c 33ce e7bc d499 c83d 42f0 a4bd
00000240: 47a6 0e3d 7465 293d 060f 4d3e 3d3a 3b3e
00000250: de05 1cbe 969e 843e 98b8 f03d 33ce 673e
00000260: fca2 f9bd 9f49 4fbe 681e 61be e3bb 85bd
00000270: cfe3 debd 6af9 d53d 45cb 193e 7740 1e3e
00000280: 9d6e da3d 6af9 55bd 33ce e7bc 6429 80be
00000290: 060f 4d3e fca2 f93c a224 c43d e3bb 053d
000002a0: 0434 58be 7cf6 073e 6af9 55bc ab90 17bd
000002b0: 3d3a bbbd 98b8 f0bd 47a6 0e3d a9b5 22be
000002c0: 47a6 8ebc 7465 293e ab90 17bd 0da0 2b3e
000002d0: 791b 13be cc08 6abe 107b 203e cc08 6abe
000002e0: 4015 303e 31f3 72be 3b5f 46be d94f 32bc
000002f0: a4ff 383e 728a 343e 6643 ecbd 0159 633e
00000300: 33ce e7bd de05 9c3d b046 81bd 0159 e3bd
00000310: 7465 29bd 3d3a 3b3d b046 81bd 7cf6 073e
00000320: 36a9 5cbe d94f b23c 3d3a 3bbe 47a6 8ebc
00000330: 7465 a9bd 4981 033e 36a9 5c3e 6af9 553d
00000340: 9f49 4fbe e3bb 853d b046 013e 9d6e 5a3e
00000350: de05 9c3d 7465 a9bd 1531 8abd ca2d f53d
00000360: de05 9cbd a224 c4bc 42f0 24be a7da adbd
00000370: a224 44bd c813 893e 2fd9 863e 4981 833e
00000380: fca2 793d 3884 51be fca2 f9bc 6af9 d53b
00000390: a7da 2d3e a9b5 22be ae6b 0c3e e0e0 103e
000003a0: 33ce e7bc 1256 153e a224 c4bc d94f 323d
000003b0: 6643 ec3d 45cb 19be a7da 2d3e 7465 a9bd
000003c0: a7da ad3d 3d3a bb3d 9f49 4f3e db2a 273e
000003d0: 6af9 d5bb a224 443e e3bb 85be a224 44be
000003e0: 3d3a 3bbe 6faf 3f3e cfe3 de3d a224 c43c
000003f0: b046 81bd e0e0 103e cfe3 5e3d 33ce 673e

model/quant_dense/BiasAdd/ReadVariableOp:0 f4 [64]
-0.005692683 0.004345163 0.0 0.00828401 -0.01612234 0.007988001 0.0 0.0057980744
-0.007859953 -0.0077002496 0.018290417 -0.004127988 0.0072683003 0.0048996005 0.0 0.0059422506
0.011895033 0.008328275 0.00945505 -0.012359585 0.014381595 -0.010727588 -0.013216964 -0.0069669834
0.00029157865 -0.014674557 0.0 -0.025329443 -0.00919865 -0.010998417 0.0008660044 0.0015800691
-0.012911867 0.010346486 -0.0040415926 -0.015754558 0.004944425 -0.003885044 0.003483857 -0.011691105
-0.008687997 0.000184279 0.010141822 0.013168638 0.011476768 0.007866332 -0.017668184 0.0
-0.015736252 0.0 0.00731383 0.005309824 0.0 -0.007580882 -0.01991379 -0.0023244044
-0.014804036 -0.0057527763 -0.011012744 -0.0025857007 0.0 0.0015342141 -0.020078562 -0.0055507724
00000000: b089 babb de61 8e3b 0000 0000 a8b9 073c
00000010: ff12 84bc 1be0 023c 0000 0000 c6fd bd3b
00000020: 08c7 00bc 6052 fcbb c9d5 953c 1344 87bb
00000030: ec2a ee3b d48c a03b 0000 0000 36b7 c23b
00000040: 62e3 423c 5173 083c 5be9 1a3c db7f 4abc
00000050: c8a0 6b3c c4c2 2fbc f78b 58bc 4b4b e4bb
00000060: 06df 9839 8e6d 70bc 0000 0000 b17f cfbc
00000070: efb5 16bc b432 34bc 9204 633a 521a cf3a
00000080: 4c8c 53bc 4f84 293c 566f 84bb b40f 81bc
00000090: d804 a23b 399c 7ebb 6c51 643b 0c8c 3fbc
000000a0: 1a58 0ebc 043b 4139 e229 263c 45c1 573c
000000b0: 0e09 3c3c cae1 003c debc 90bc 0000 0000
000000c0: 50e9 80bc 0000 0000 daa8 ef3b 08fe ad3b
000000d0: 0000 0000 0c69 f8bb 3f22 a3bc 0955 18bb
000000e0: a18c 72bc c981 bcbb cc6e 34bc dc74 29bb
000000f0: 0000 0000 af17 c93a cc7b a4bc 41e3 b5bb

model/gru_3/gru_cell/ReadVariableOp/resource:0 f4 [2, 96]
0.016159318 -0.0008023794 0.020848718 -0.0053444877 -0.005267292 0.014741468 0.0024627948 0.012399867
0.0016813314 -0.0065036775 -0.0117598325 0.013015413 0.041250486 0.001992097 6.604156e-05 0.01715199
0.0054033757 0.027284851 -0.008610897 -0.021571623 0.0048237178 0.0041449624 0.0024140566 0.022286851
0.010513164 -0.0024681122 -0.0140654035 0.021376938 0.0016276337 0.009381223 0.017778309 0.016164675
0.009764825 0.0039897757 0.015265029 -0.0009540698 -0.0026087335 0.016194146 0.0018371393 -0.003700463
0.010399542 0.0048463014 -0.018869828 0.0003965499 0.003585204 -0.017007245 -0.007601992 0.016218325
-0.011957927 -0.019833991 -0.007103546 0.017608592 0.0010572693 -0.001010752 -0.005463099 0.0014466718
0.025708148 -0.010205523 0.006509693 -0.01124069 0.01933183 -0.009530954 -0.009298611 -0.0020998814
0.0060831117 -0.009576042 -0.015037772 -0.009643368 -0.01073623 -0.014970095 -0.0014866532 0.0027826552
-0.016007552 0.001600584 -0.0006191044 -0.0049061556 -0.00083183276 -0.013282207 0.0016306173 -0.01518501
-0.009642161 -0.01928945 0.0056703733 0.0011181036 -0.01404018 0.0065383273 -0.0070912912 -0.001666
0.017301856 -0.011293709 0.01842069 -0.008263761 -0.012296727 0.0009683833 0.0019604405 -0.0015063573
0.016159318 -0.0008023794 0.020848718 -0.0053444877 -0.005267292 0.014741468 0.0024627948 0.012399867
0.0016813314 -0.0065036775 -0.0117598325 0.013015413 0.041250486 0.001992097 6.604156e-05 0.01715199
0.0054033757 0.027284851 -0.008610897 -0.021571623 0.0048237178 0.0041449624 0.0024140566 0.022286851
0.010513164 -0.0024681122 -0.0140654035 0.021376938 0.0016276337 0.009381223 0.017778309 0.016164675
0.009764825 0.0039897757 0.015265029 -0.0009540698 -0.0026087335 0.016194146 0.0018371393 -0.003700463
0.010399542 0.0048463014 -0.018869828 0.0003965499 0.003585204 -0.017007245 -0.007601992 0.016218325
-0.011957927 -0.019833991 -0.007103546 0.017608592 0.0010572693 -0.001010752 -0.005463099 0.0014466718
0.025708148 -0.010205523 0.006509693 -0.01124069 0.01933183 -0.009530954 -0.009298611 -0.0020998814
0.0062288074 -0.009288534 -0.015042217 -0.009273118 -0.010750544 -0.015137599 -0.0011873894 0.002866913
-0.016002314 0.0014282246 -0.0020457858 -0.005011611 -0.00035769367 -0.0136343455 0.0019263377 -0.015070942
-0.009803133 -0.019203888 0.00579185 0.0013703876 -0.013842197 0.0066948025 -0.00674613 -0.0017182479
0.01802314 -0.011089338 0.01795044 -0.0079364 -0.012338035 0.0015631411 0.0024170906 -0.0015855404
00000000: 8c60 843c c556 52ba eeca aa3c d020 afbb
00000010: 3f99 acbb 3386 713c d766 213b d028 4b3c
00000020: 1f60 dc3a cd1c d5bb 50ac 40bc 993e 553c
00000030: 45f6 283d d78d 023b cb7f 8a38 5582 8c3c
00000040: cd0e b13b 7b84 df3c b814 0dbc f9b6 b0bc
00000050: 4710 9e3b 77d2 873b 2635 1e3b ea92 b63c
00000060: 683f 2c3c 0dc0 21bb 9472 66bc b01e af3c
00000070: 5356 d53a b3b3 193c d1a3 913c c86b 843c
00000080: a5fc 1f3c aabc 823b 2c1a 7a3c 8a1a 7aba
00000090: 49f7 2abb 96a9 843c 2acc f03a 7883 72bb
000000a0: d762 2a3c b9cd 9e3b e694 9abc 07e8 cf39
000000b0: bef5 6a3b c752 8bbc 221a f9bb 4bdc 843c
000000c0: 2eeb 43bc e57a a2bc ddc4 e8bb e53f 903c
000000d0: 1294 8a3a 367b 84ba cc03 b3bb 409e bd3a
000000e0: e599 d23c 1135 27bc 434f d53b df2a 38bc
000000f0: c95d 9e3c b827 1cbc 3459 18bc 2a9e 09bb
00000100: d754 c73b d5e4 1cbc fd60 76bc 38ff 1dbc
00000110: 03e7 2fbc 2145 75bc cedb c2ba 355d 363b
00000120: 4522 83bc b0ca d13a 654b 22ba d1c3 a0bb
00000130: 5a0f 5aba 9d9d 59bc 70ba d53a 8cca 78bc
00000140: 28fa 1dbc e904 9ebc 8ace b93b 558d 923a
00000150: c808 66bc 773f d63b 105e e8bb af5d daba
00000160: 9fbc 8d3c 4009 39bc fde6 963c ba64 07bc
00000170: 3678 49bc 1adb 7d3a bc7a 003b f770 c5ba
00000180: 8c60 843c c556 52ba eeca aa3c d020 afbb
00000190: 3f99 acbb 3386 713c d766 213b d028 4b3c
000001a0: 1f60 dc3a cd1c d5bb 50ac 40bc 993e 553c
000001b0: 45f6 283d d78d 023b cb7f 8a38 5582 8c3c
000001c0: cd0e b13b 7b84 df3c b814 0dbc f9b6 b0bc
000001d0: 4710 9e3b 77d2 873b 2635 1e3b ea92 b63c
000001e0: 683f 2c3c 0dc0 21bb 9472 66bc b01e af3c
000001f0: 5356 d53a b3b3 193c d1a3 913c c86b 843c
00000200: a5fc 1f3c aabc 823b 2c1a 7a3c 8a1a 7aba
00000210: 49f7 2abb 96a9 843c 2acc f03a 7883 72bb
00000220: d762 2a3c b9cd 9e3b e694 9abc 07e8 cf39
00000230: bef5 6a3b c752 8bbc 221a f9bb 4bdc 843c
00000240: 2eeb 43bc e57a a2bc ddc4 e8bb e53f 903c
00000250: 1294 8a3a 367b 84ba cc03 b3bb 409e bd3a
00000260: e599 d23c 1135 27bc 434f d53b df2a 38bc
00000270: c95d 9e3c b827 1cbc 3459 18bc 2a9e 09bb
00000280: 061b cc3b ef2e 18bc a273 76bc 47ee 17bc
00000290: 0d23 30bc b103 78bc 2da2 9bba d2e2 3b3b
000002a0: 4917 83bc 4433 bb3a 9712 06bb 7138 a4bb
000002b0: d588 bbb9 9762 5fbc 2b7d fc3a 1dec 76bc
000002c0: 529d 20bc 7951 9dbc 8fc9 bd3b 949e b33a
000002d0: 62ca 62bc 1360 db3b a40e ddbb d536 e1ba
000002e0: 44a5 933c 0eb0 35bc cd0c 933c ad07 02bc
000002f0: 7825 4abc 50e2 cc3a 0d68 1e3b e8d1 cfba

model/gru_3/gru_cell/MatMul_1/ReadVariableOp/resource:0 f4 [32, 96]
0.019167941 -0.032079123 0.04328366 -0.25203982 0.04463284 0.026359165 0.091918565 0.060100287
0.13052304 -0.01819633 -0.05931347 0.026400207 0.09301956 -0.19985159 -0.11786294 0.010282904
0.18954769 -0.05906669 -0.0054215817 0.055905804 -0.2006312 0.062273175 0.04955701 -0.15017185
0.08383074 -0.16095978 -0.06679852 0.13313448 0.10120731 0.089078024 -0.06123658 0.009809566
-0.05404542 0.18643002 0.089062646 0.06329784 0.071368665 -0.11956237 -0.008149927 -0.061663218
-0.002460667 -0.11124944 0.033226926 -0.05804683 0.04183204 -0.025382146 -0.1384311 0.11048473
0.10908068 0.07349798 -0.23040505 0.18477196 0.093005545 0.00956022 0.04584922 0.07393781
0.09494817 0.12925597 0.1321434 -0.1546925 -0.059525385 -0.0030972175 -0.038198307 -0.06841856
0.15360712 0.091317296 -0.055176586 -0.07520059 -0.045736436 -0.18711233 0.10043484 0.033938568
0.012825794 0.10120753 -0.027848672 -0.08934158 0.16940668 0.04423122 0.113767855 -0.056443036
0.06187927 0.054340642 -0.10199193 0.04505144 -0.04339744 -0.04631211 0.07923898 -0.118969314
0.27111882 0.028182633 -0.20088145 -0.10583254 -0.1087069 -0.17210682 0.023692673 -0.02128722
-0.05668081 -0.0789558 0.01066989 -0.008152276 0.007599499 -0.038405206 0.10497078 0.04069294
0.013513114 -0.092112824 0.008971011 -0.25361708 0.08719977 -0.0166913 0.024719609 0.047050178
0.06358204 0.023671271 -0.1650774 -0.12050741 -0.09064744 -0.09464351 0.027476046 0.084094726
-0.120543316 0.062158335 -0.14314948 0.0231148 0.14456978 -0.116700895 0.099255264 0.13888457
0.15467815 -0.10782923 -0.12544212 -0.15183645 -0.045742825 0.11709721 -0.06741762 -0.08535022
-0.04853096 -0.001650385 0.1646498 0.006917094 -0.0472505 0.2161496 0.067219675 0.21500698
-0.13302006 0.121378064 -0.013405616 0.11371543 0.05608085 -0.06352772 0.019752914 0.00707726
0.025772026 0.111836925 -0.103518896 0.116605975 0.0856999 -0.122713074 0.117382616 0.107661575
-0.0030587816 -0.090786844 0.013639018 -0.0016781746 0.12852259 -0.096638486 -0.26353535 0.12957025
0.034565624 0.06729588 0.014070726 -0.050316893 0.1171013 0.003848626 0.22839466 0.118161604
0.15661313 0.029873824 -0.026569914 -0.13114369 -0.0009300202 0.054665823 -0.107699975 -0.10630651
0.09995412 -0.105473526 -0.045430075 -0.046180084 -0.09455442 0.10237532 -0.19550166 -0.013431747
0.15917927 0.007502175 0.044411056 0.09359333 -0.10523716 -0.13312308 -0.06418579 0.0315087
-0.032379366 -0.08712697 -0.07463835 0.0005391503 0.06344965 0.11624387 0.14593777 -0.018462699
0.15420961 -0.05145649 -0.07100144 0.102257036 0.18723206 0.17673053 -0.008308632 -0.014664859
0.07049045 0.056235466 0.07747337 0.079419866 -0.013397589 -0.0033715058 0.08183929 0.026304374
-0.008051536 -0.04336205 -0.15728226 0.043696303 0.026330322 -0.112106234 -0.19576152 0.092176266
-0.06895688 -0.1566525 0.08674378 0.02543953 0.048886478 0.10274776 -0.050083112 0.058038946
-0.024212858 -0.117169514 -0.06695821 -0.05003981 -0.04573909 0.2223069 0.01815756 0.06736166
0.047153763 -0.048567414 -0.14341548 -0.2250001 0.13368616 0.20084585 -0.10419581 -0.07527765
00000000: 1606 9d3c 6665 03bd 354a 313d 5d0b 81be
00000010: edd0 363d 2def d73c cd3f bc3d b82b 763d
00000020: d5a7 053e 7810 95bc aef2 72bd 3f45 d83c
00000030: 0a81 be3d e5a5 4cbe 2062 f1bd a079 283c
00000040: ca18 423e eaef 71bd 86a7 b1bb 7cfd 643d
00000050: 4472 4dbe 2812 7f3d 4bfc 4a3d a6c6 19be
00000060: 73af ab3d a4d2 24be aacd 88bd 6854 083e
00000070: c745 cf3d 8a6e b63d 35d3 7abd 4db8 203c
00000080: bb5e 5dbd 83e7 3e3e 7a66 b63d 4ca2 813d
00000090: bc29 923d 1edd f4bd 4587 05bc 9292 7cbd
000000a0: 2443 21bb bfd6 e3bd f518 083d 83c2 6dbd
000000b0: 1358 2b3d 38ee cfbc e2c0 0dbe d145 e23d
000000c0: b165 df3d 1c86 963d 4def 6bbe dc34 3d3e
000000d0: b179 be3d 78a2 1c3c 64cc 3b3d b56c 973d
000000e0: 3074 c23d ad5b 043e 9950 073e b667 1ebe
000000f0: e4d0 73bd b0fa 4abb d475 1cbd 081f 8cbd
00000100: 2f4b 1d3e 9004 bb3d d800 62bd c402 9abd
00000110: 2156 3bbd 609a 3fbe c8b0 cd3d 2b03 0b3d
00000120: 4723 523c e545 cf3d e622 e4bc b8f8 b6bd
00000130: f278 2d3e cc2b 353d 1fff e83d d030 67bd
00000140: 1e75 7d3d 4b94 5e3d 25e1 d0bd dc87 383d
00000150: 84c1 31bd c4b1 3dbd 0c48 a23d 2fa6 f3bd
00000160: 16d0 8a3e 44df e63c deb3 4dbe bbbe d8bd
00000170: b9a1 debd c53c 30be 2317 c23c 8962 aebc
00000180: 232a 68bd 94b3 a1bd c3d0 2e3c 2091 05bc
00000190: 3805 f93b c74e 1dbd ecfa d63d a4ad 263d
000001a0: 1c66 5d3c a6a5 bcbd 26fb 123c 19da 81be
000001b0: cb95 b23d 31bc 88bc c780 ca3c b0b7 403d
000001c0: 4d37 823d 41ea c13c 0d0a 29be 97cc f6bd
000001d0: 5da5 b9bd 75d4 c1bd 7215 e13c db39 ac3d
000001e0: 6adf f6bd bd99 7e3d c795 12be 405b bd3c
000001f0: 1a0a 143e e100 efbd 5846 cb3d c237 0e3e
00000200: f363 1e3e 92d5 dcbd e673 00be 047b 1bbe
00000210: d45c 3bbd a9d0 ef3d 4012 8abd 19cc aebd
00000220: 66c8 46bd bb51 d8ba f599 283e caa8 e23b
00000230: be89 41bd 5256 5d3e 78aa 893d ca2a 5c3e
00000240: 6936 08be 1095 f83d 3ba3 5bbc a3e3 e83d
00000250: 09b5 653d d21a 82bd ddd0 a13c 5ce8 e73b
00000260: db1f d33c c20a e53d b701 d4bd 1dcf ee3d
00000270: 6e83 af3d fe50 fbbd 4c66 f03d ac7d dc3d
00000280: d775 48bb 74ee b9bd 3076 5f3c 32f6 dbba
00000290: 6d9b 033e 66ea c5bd 1bee 86be 10ae 043e
000002a0: af94 0d3d 6cd2 893d e788 663c 1619 4ebd
000002b0: ced2 ef3d 3b39 7c3b 4ae0 693e b6fe f13d
000002c0: 315f 203e f3b9 f43c 26a9 d9bc 884a 06be
000002d0: 99cc 73ba 45e9 5f3d ce91 dcbd 3ab7 d9bd
000002e0: bfb4 cc3d 8102 d8bd e314 3abd 5427 3dbd
000002f0: bfa5 c1bd 27aa d13d 9631 48be d510 5cbc
00000300: e4ff 223e ced4 f53b 5ee8 353d dcad bf3d
00000310: 9586 d7bd 6b51 08be d773 83bd 440f 013d
00000320: 3aa0 04bd a06f b2bd fedb 98bd c455 0d3a
00000330: e4f1 813d 4411 ee3d b670 153e 163f 97bc
00000340: 20e9 1d3e 0ac4 52bd 3469 91bd 236c d13d
00000350: c3b9 3f3e d9f8 343e ee20 08bc e044 70bc
00000360: 4c5d 903d 2957 663d 5caa 9e3d e2a6 a23d
00000370: 9081 5bbc 7bf4 5cbb 5c9b a73d 457c d73c
00000380: 97ea 03bc 689c 31bd 9a0e 21be e5fa 323d
00000390: b0b2 d73c f497 e5bd b575 48be e9c6 bc3d
000003a0: 4439 8dbd 8369 20be b9a6 b13d 9066 d03c
000003b0: 303d 483d 6b6d d23d f323 4dbd 3fba 6d3d
000003c0: 0b5a c6bc 92f6 efbd 6321 89bd 8bf6 4cbd
000003d0: e958 3bbd 6ca4 633e 2abf 943c e9f4 893d
000003e0: 4e24 413d a0ee 46bd 82db 12be 6d66 66be
000003f0: 06e5 083e 89aa 4d3e 9d64 d5bd 2b2b 9abd

model/gru_3/gru_cell/MatMul/ReadVariableOp/resource:0 f4 [32, 96]
-0.12207407 0.17672394 -0.03259072 -0.0658047 0.0010894982 -0.057030953 -0.15157308 0.16192803
0.1192734 -0.21079102 0.014586092 -0.020145247 0.07855659 0.080256306 0.0669191 0.09930985
-0.056716744 0.05214607 0.093105964 0.14133105 0.06448134 0.19661245 -0.11243162 -0.1400157
-0.16380884 0.17943688 -0.0034748872 0.18566403 -0.066421896 0.20043273 0.21906778 0.042403292
-0.053673897 0.007286693 -0.07351295 0.04789333 -0.16156907 0.15709345 0.19082311 0.07471357
-0.06755285 0.008441983 -0.05416833 -0.05316281 -0.1738533 -0.02902807 0.08661514 -0.17217727
-0.19944488 -0.0453448 -0.005055814 -0.10237398 -0.11351997 0.123252004 -0.1430319 -0.11573704
0.08267115 0.056146156 -0.1184146 -0.12312944 0.03097193 0.17635106 -0.11657568 -0.13244396
0.090337634 0.12364548 0.024878666 0.18458332 -0.11306514 0.09460193 0.049282223 0.18772702
-0.11093784 -0.096206635 -0.18090847 -0.20888157 -0.19075887 0.049059402 -0.017225651 0.16236928
-0.19999139 0.13801476 0.18648705 0.11156964 -0.12180389 0.13981743 -0.062204495 -0.05081604
0.18746643 0.07528558 0.17223054 -0.17222475 0.08015325 -0.17098896 0.18529212 -0.13706513
0.18124677 -0.19693027 0.019926688 0.03489898 -0.16551548 0.18380941 -0.15213983 0.029353881
0.1461369 -0.058461808 0.17325014 -0.15023978 -0.12835638 -0.04728376 -0.01445571 0.1844903
0.18812248 0.12481527 -0.057750773 0.03621355 -0.05204602 -0.05161613 -0.018021995 0.1910874
-0.18214844 0.13642892 0.17302112 -0.06226949 0.031651817 -0.14801121 0.039590724 0.037746232
-0.115567595 -0.022520838 0.082688965 -0.2057979 -0.18317679 0.18584418 -0.18291329 0.15618314
0.1047648 0.16892172 -0.17279042 -0.21736944 0.21881936 0.13119237 0.005631199 0.20922717
0.12887523 -0.051254615 -0.18437004 -0.14997499 0.117811486 -0.12250382 0.2138238 0.053119283
0.058163736 -0.0005781722 0.13708091 -0.16941945 -0.105923064 -0.0057030353 -0.18445314 0.12323902
-0.16960731 -0.15587898 0.17154095 0.18775323 0.011709929 -0.056131884 0.080159925 0.026311269
0.053126264 0.109762326 -0.16174705 -0.1603546 -0.17066337 -0.016522883 0.09924456 0.13507071
-0.15379089 0.10902155 0.06233954 0.1343966 0.07521492 0.037540607 0.0243778 0.1503806
0.22168146 0.16475438 -0.0046581537 -0.17882745 -0.120822616 -0.14834696 -0.07140951 -0.010741958
-0.044020366 -0.01100516 -0.01109494 -0.18351732 -0.20360543 0.059346285 -0.112055965 -0.15227242
0.18902704 -0.028834585 -0.07056007 -0.16725034 0.005122853 -0.06322921 -0.012878453 0.041375652
0.07662449 0.14835878 -0.014029695 0.020122461 -0.014685607 -0.10216619 0.10467875 0.061599966
0.045571595 0.01682653 0.035139877 0.1586197 0.15622433 0.05932368 0.1711082 0.11377876
-0.20243098 -0.18183787 -0.18429567 0.17439757 0.14542763 0.12228416 -0.1926291 0.027141139
-0.1641085 -0.20856538 -0.16565835 0.13031775 -0.01728113 0.06343949 -0.21564843 -0.20558795
0.014380653 0.05841666 0.19170153 -0.1255603 -0.21367233 -0.13005626 -0.03196718 0.20508127
-0.13043395 -0.11293044 -0.19193882 0.023484115 -0.12781443 0.2095339 -0.12365827 -0.19232151
00000000: f801 fabd 1ff7 343e d97d 05bd 9dc4 86bd
00000010: 7ecd 8e3a 4a99 69bd f935 1bbe 76d0 253e
00000020: 9d45 f43d 9ad9 57be 81fa 6e3c a507 a5bc
00000030: 47e2 a03d 6b5d a43d e20c 893d f662 cb3d
00000040: d14f 68bd 1e97 553d 57ae be3d 16b9 103e
00000050: cb0e 843d c654 493e 8d42 e6bd 4760 0fbe
00000060: 81bd 27be 4dbe 373e efba 63bb b61e 3e3e
00000070: 3408 88bd 3d3e 4d3e 4e53 603e 13af 2d3d
00000080: 29d9 5bbd 36c5 ee3b f58d 96bd cc2b 443d
00000090: 5d72 25be 1bdd 203e 2267 433e 6e03 993d
000000a0: 2659 8abd 3e50 0a3c 9cdf 5dbd 3fc1 59bd
000000b0: 9906 32be 46cc edbc 4763 b13d 3d4f 30be
000000c0: 473b 4cbe 78bb 39bd 3eab a5bb 73a9 d1bd
000000d0: 287d e8bd 8c6b fc3d f476 12be 8b07 edbd
000000e0: 7e4f a93d 83f9 653d 5b83 f2bd 4a2b fcbd
000000f0: d8b8 fd3c 5f95 343e 3bbf eebd 649f 07be
00000100: f002 b93d d739 fd3d 58ce cb3c 6903 3d3e
00000110: b28e e7bd a8be c13d 28dc 493d 833b 403e
00000120: 6133 e3bd fc07 c5bd 1240 39be 0de5 55be
00000130: 4b56 43be 83f2 483d cf1c 8dbc 2244 263e
00000140: 8bca 4cbe be53 0d3e 76f6 3e3e a07e e43d
00000150: 5174 f9bd 4d2c 0f3e 24ca 7ebd 7b24 50bd
00000160: 33f7 3f3e 532f 9a3d 345d 303e af5b 30be
00000170: 6327 a43d bb17 2fbe 38bd 3d3e cd5a 0cbe
00000180: c198 393e 17a8 49be 4b3d a33c 3cf2 0e3d
00000190: e47c 29be 8938 3c3e 8bca 1bbe 8d77 f03c
000001a0: e9a4 153e a675 6fbd 7c68 313e 75d8 19be
000001b0: db6f 03be 9eac 41bd a4d7 6cbc 06eb 3c3e
000001c0: 2ea3 403e 269f ff3d 138c 6cbd a954 143d
000001d0: 352e 55bd 6f6b 53bd dda2 93bc 6aac 433e
000001e0: 1f85 3abe 06b4 0b3e 732c 313e 4b0e 7fbd
000001f0: 56a5 013d 4090 17be e229 223d cb9b 1a3d
00000200: b4ae ecbd 9f7d b8bc d558 a93d afbc 52be
00000210: b292 3bbe f04d 3e3e 9f4d 3bbe 79ee 1f3e
00000220: ed8e d63d d1f9 2c3e f9ef 30be 1896 5ebe
00000230: 2f12 603e 4b57 063e ec85 b83b a63f 563e
00000240: def7 033e 5cf0 51bd 80cb 3cbe 0b93 19be
00000250: 2647 f13d 48e3 fabd a0f4 5a3e 9b93 593d
00000260: 193d 6e3d 7b90 17ba f05e 0c3e 4b7c 2dbe
00000270: 31ee d8bd 87e0 babb 49e1 3cbe bd64 fc3d
00000280: 8aad 2dbe bd9e 1fbe 6ea8 2f3e 6242 403e
00000290: 01db 3f3c 8cea 65bd e32a a43d bb8a d73c
000002a0: ed9a 593d 12cb e03d 05a1 25be ff33 24be
000002b0: 61c2 2ebe ff5a 87bc bb40 cb3d fa4f 0a3e
000002c0: 5c7b 1dbe b146 df3d bf57 7f3d 439f 093e
000002d0: 480a 9a3d 2ec4 193d f4b3 c73c 5ffd 193e
000002e0: 7700 633e 5fb5 283e 6da3 98bb 8b1e 37be
000002f0: d971 f7bd 44e8 17be 263f 92bd 0aff 2fbc
00000300: b34e 34bd fd4e 34bc 8dc7 35bc f7eb 3bbe
00000310: f17d 50be 1715 733d 997d e5bd 4ded 1bbe
00000320: 4e90 413e 8236 ecbc cc81 90bd ac43 2bbe
00000330: 9bdd a73b 517e 81bd 2600 53bc 8479 293d
00000340: 4ded 9c3d 5deb 173e cedc 65bc dcd7 a43c
00000350: e69b 70bc 823c d1bd d061 d63d 3f50 7c3d
00000360: 48a9 3a3d cbd7 893c d5ee 0f3d 346d 223e
00000370: 45f9 1f3e 63fd 723d fd36 2f3e d704 e93d
00000380: 114a 4fbe b533 3abe 01b8 3cbe 4795 323e
00000390: fbea 143e 1e70 fa3d 9040 45be 1857 de3c
000003a0: 0f0c 28be 2a92 55be 58a2 29be 0472 053e
000003b0: 2891 8dbc 90ec 813d f1d2 5cbe a685 52be
000003c0: d59c 6b3c 4f46 6f3d 684d 443e e192 00be
000003d0: ebcc 5abe 782d 05be 05f0 02bd d300 523e
000003e0: 7a90 05be 1348 e7bd 9c8b 44be c261 c03c
000003f0: c9e1 02be 0e90 563e 8c40 fdbd eeef 44be

model/gru_2/gru_cell/ReadVariableOp/resource:0 f4 [2, 96]
-0.0023570228 0.0028268124 0.013043288 -0.0025301075 -0.025079492 -0.03807039 0.0012270381 0.0056034015
-0.021171808 -0.0070890523 -0.002217113 0.00024660153 -0.0029224048 -0.0047869724 -0.008792236 -0.0054686214
-0.01591084 -0.019313335 -0.0008758908 -0.0035913642 -0.004696131 0.0025389614 -0.0062726066 -0.00037841423
-0.030773597 0.0009591764 0.0004745758 0.006389249 -0.018948704 -0.031218996 -0.045917116 0.005504404
-0.024119236 0.012363811 0.00388616 -0.015265802 0.0038854158 0.0027588531 0.01075978 -0.016400876
-0.018169222 -0.011903538 0.0035111469 0.008512443 0.017448744 0.005140478 0.0010131615 0.0032844294
-0.0056868694 -0.024919946 0.0106741525 -0.024389412 -0.009831494 -0.02119736 0.008557605 0.0029594135
0.0039609703 0.00070896535 -0.0028116377 0.018971667 0.0032593932 0.009890315 0.005380822 0.014841356
0.0032343117 -0.010789237 -0.005843471 -0.010053297 0.0045340452 0.0016160806 -0.01634492 -0.013476628
-0.002932763 -0.016561761 -0.0067624706 -0.009458753 0.012498298 -0.006121709 -0.00594986 0.0007081832
-0.0057918546 0.006131833 -0.012812972 -0.009791686 -0.011160535 -0.016166298 -0.009676366 -0.014478731
-0.00062471477 -0.012505931 0.02994374 -0.01532007 0.000966157 0.0046427646 0.0019528065 -0.012111077
-0.0023570228 0.0028268124 0.013043288 -0.0025301075 -0.025079492 -0.03807039 0.0012270381 0.0056034015
-0.021171808 -0.0070890523 -0.002217113 0.00024660153 -0.0029224048 -0.0047869724 -0.008792236 -0.0054686214
-0.01591084 -0.019313335 -0.0008758908 -0.0035913642 -0.004696131 0.0025389614 -0.0062726066 -0.00037841423
-0.030773597 0.0009591764 0.0004745758 0.006389249 -0.018948704 -0.031218996 -0.045917116 0.005504404
-0.024119236 0.012363811 0.00388616 -0.015265802 0.0038854158 0.0027588531 0.01075978 -0.016400876
-0.018169222 -0.011903538 0.0035111469 0.008512443 0.017448744 0.005140478 0.0010131615 0.0032844294
-0.0056868694 -0.024919946 0.0106741525 -0.024389412 -0.009831494 -0.02119736 0.008557605 0.0029594135
0.0039609703 0.00070896535 -0.0028116377 0.018971667 0.0032593932 0.009890315 0.005380822 0.014841356
0.003324266 -0.010969341 -0.005057915 -0.009974439 0.004786355 0.0015150681 -0.016535819 -0.013298441
-0.0027832582 -0.016582724 -0.006716321 -0.009476475 0.012816031 -0.0061995457 -0.0061355676 0.0011358637
-0.0056394874 0.0062233666 -0.012820296 -0.009753799 -0.011288656 -0.016166221 -0.010491457 -0.014147836
-0.00042162993 -0.012255988 0.02962694 -0.015578576 0.0009954729 0.0049234983 0.0014498733 -0.011879602
00000000: 4878 1abb 0b42 393b 84b3 553c 29d0 25bb
00000010: 8273 cdbc b2ef 1bbd 91d4 a03a bd9c b73b
00000020: 8070 adbc 484b e8bb fc4c 11bb 4c4a 8139
00000030: d185 3fbb 09dc 9cbb 500d 10bc 1f32 b3bb
00000040: 7357 82bc 0037 9ebc 099c 65ba 185d 6bbb
00000050: 01e2 99bb b464 263b 708a cdbb e665 c6b9
00000060: e918 fcbc 3d71 7b3a 7cd0 f839 e85c d13b
00000070: 503a 9bbc fbbe ffbc 9613 3cbd 4a5e b43b
00000080: b495 c5bc 9591 4a3c f2ae 7e3b 6a1d 7abc
00000090: 76a2 7e3b e0cd 343b ca49 303c 215b 86bc
000000a0: 9fd7 94bc 0f07 43bc 451b 663b c677 0b3c
000000b0: abf0 8e3c 7471 a83b 0fcc 843a 953f 573b
000000c0: eb58 babb ea24 ccbc a4e2 2e3c 4ecc c7bc
000000d0: 4614 21bc 16a6 adbc 3235 0c3c b8f2 413b
000000e0: 07cb 813b dcd9 393a 7443 38bb 786a 9b3c
000000f0: 8b9b 553b fd0a 223c 9b51 b03b 2929 733c
00000100: bff6 533b 57c5 30bc 967a bfbb 95b6 24bc
00000110: 5492 943b abd2 d33a c8e5 85bc 13cd 5cbc
00000120: 9933 40bb 88ac 87bc b797 ddbb e3f8 1abc
00000130: a9c5 4c3c 9e98 c8bb 0bf7 c2bb 5fa5 393a
00000140: 99c9 bdbb 8bed c83b 80ed 51bc 4f6d 20bc
00000150: adda 36bc 2f6f 84bc 9f89 1ebc 3338 6dbc
00000160: e6c3 23ba ade5 4cbc 934c f53c 0801 7bbc
00000170: b345 7d3a 5522 983b 50f5 ff3a 8a6d 46bc
00000180: 4878 1abb 0b42 393b 84b3 553c 29d0 25bb
00000190: 8273 cdbc b2ef 1bbd 91d4 a03a bd9c b73b
000001a0: 8070 adbc 484b e8bb fc4c 11bb 4c4a 8139
000001b0: d185 3fbb 09dc 9cbb 500d 10bc 1f32 b3bb
000001c0: 7357 82bc 0037 9ebc 099c 65ba 185d 6bbb
000001d0: 01e2 99bb b464 263b 708a cdbb e665 c6b9
000001e0: e918 fcbc 3d71 7b3a 7cd0 f839 e85c d13b
000001f0: 503a 9bbc fbbe ffbc 9613 3cbd 4a5e b43b
00000200: b495 c5bc 9591 4a3c f2ae 7e3b 6a1d 7abc
00000210: 76a2 7e3b e0cd 343b ca49 303c 215b 86bc
00000220: 9fd7 94bc 0f07 43bc 451b 663b c677 0b3c
00000230: abf0 8e3c 7471 a83b 0fcc 843a 953f 573b
00000240: eb58 babb ea24 ccbc a4e2 2e3c 4ecc c7bc
00000250: 4614 21bc 16a6 adbc 3235 0c3c b8f2 413b
00000260: 07cb 813b dcd9 393a 7443 38bb 786a 9b3c
00000270: 8b9b 553b fd0a 223c 9b51 b03b 2929 733c
00000280: eedb 593b c0b8 33bc debc a5bb d46b 23bc
00000290: dbd6 9c3b 4095 c63a 2076 87bc b4e1 59bc
000002a0: 5367 36bb 7ed8 87bc 9614 dcbb 3843 1bbc
000002b0: 55fa 513c 8f25 cbbb df0c c9bb 43e1 943a
000002c0: 73cb b8bb 62ed cb3b 380c 52bc 66ce 1fbc
000002d0: 0ef4 38bc 066f 84bc 5ce4 2bbc 53cc 67bc
000002e0: 360e ddb9 57cd 48bc 32b4 f23c 493d 7fbc
000002f0: 877a 823a 4c55 a13b ad09 be3a aaa2 42bc

model/gru_2/gru_cell/MatMul_1/ReadVariableOp/resource:0 f4 [32, 96]
-0.17547211 -0.14766614 0.1578055 0.047077056 0.09084016 -0.0048431456 -0.11471398 0.1875268
0.09092095 0.12721384 -0.10582221 -0.05009136 0.019061828 -0.029894475 0.048725482 -0.1397986
0.02850898 -0.050913613 -0.15478863 -0.034037042 -0.11873733 0.18536885 -0.034107406 -0.04115468
-0.14442924 0.11925004 0.15012914 -0.11379787 -0.12798083 0.036632225 0.26886904 0.12199768
0.079566896 -0.012562363 -0.05516214 0.07787867 0.08552345 0.053156495 0.09790043 0.14050217
-0.110854834 -0.042418744 0.0036258148 -0.053447593 0.12624365 -0.075031735 0.09506036 0.09957095
-0.07584245 -0.07524558 -0.07650293 0.004181243 0.14523154 0.1566073 0.13399902 0.14502408
0.021725267 0.019194031 -0.06759509 -0.055688296 0.17100875 0.1649371 0.02653283 -0.0017945891
0.059769325 0.043521196 0.119189054 -0.055869684 -0.0068750344 0.03300414 -0.16652258 0.006542504
-0.026705071 0.07499543 0.05711597 0.18162742 -0.15837538 0.029255215 -0.041056577 -0.13318367
0.035894495 0.0049827574 -0.016437123 0.13410714 -0.03750978 0.057623886 0.07944896 -0.16451742
0.09795316 0.16631866 0.019846322 -0.043489575 0.049917504 0.0030063863 -0.022684017 -0.10199322
-0.06931524 0.069789425 0.026780209 0.021169452 0.022560949 0.1067567 -0.082057714 0.073871605
0.0466448 0.11182898 0.09778988 -0.017965361 0.12821673 -0.08954173 -0.090985194 0.027366528
-0.09661552 -0.09423552 -0.034346186 -0.03178045 0.011625536 0.0050118393 0.19949254 -0.1412518
-0.015957274 -0.0060166493 0.05149872 -0.1300752 0.050563756 -0.0628953 -0.3010311 0.086654134
0.17067526 0.024716608 0.023005968 0.03868275 -0.099387825 0.022184635 -0.012266968 -0.12945157
0.080298536 0.08679386 -0.18657325 0.0052221483 0.100649215 0.07721436 -0.005584119 -0.16806874
-0.10619877 -0.106645435 0.04453784 -0.27611536 0.118397094 -0.01754804 -0.07474892 0.19315848
-0.17167205 -0.03029047 0.05346858 -0.043376584 0.015861707 -0.0641538 0.030025488 0.083561644
0.04026297 0.1759749 0.007177142 0.066314295 -0.14699039 -0.072149605 -0.053386778 0.066737935
0.11243688 -0.050744914 0.05354782 -0.07082842 0.03963921 -0.342676 0.06892018 0.018100543
-0.11755377 -0.030562503 -0.09303553 0.09269886 -0.15986292 -0.058632005 -0.03984285 0.05715247
0.011198192 0.1176585 0.10053342 0.018526465 0.022461658 0.091643326 0.046846274 -0.15711576
0.022895254 0.036420137 0.2321875 -0.08483812 0.030992137 0.0019168078 -0.12892081 0.1598613
0.012757671 -0.0829467 0.014729029 0.09062261 -0.18982491 -0.039825335 -0.11490959 -0.12942052
-0.07852539 0.10679064 -0.16627601 -0.1313039 -0.009670178 0.037395123 0.20364746 0.12068222
-0.02354619 -0.015692903 -0.010638131 -0.04588348 -0.019204134 -0.045102 -0.15740189 0.051609833
-0.0705387 0.08904924 0.1029569 -0.03204135 -0.12178098 0.01192384 -0.06907631 -0.053244967
0.2183333 -0.013502982 0.00043536274 -0.019008594 -0.18890652 -0.029267475 -0.0502089 -0.1289318
-0.10678442 -0.107977435 -0.08739155 0.1826505 0.04616713 0.093993664 -0.06288669 -0.16140297
-0.07267541 0.06768965 0.13853963 0.13412723 -0.015643965 0.090035625 0.24514873 0.035560418
00000000: f6ae 33be cb35 17be c497 213e dfd3 403d
00000010: 680a ba3d 40b3 9ebb 2aef eabd 0707 403e
00000020: c334 ba3d 5844 023e 51b9 d8bd 992c 4dbd
00000030: 8d27 9c3c 42e5 f4bc 5f94 473d 5d27 0fbe
00000040: aa8b e93c cb8a 50bd e980 1ebe 6d6a 0bbd
00000050: 8f2c f3bd 55d1 3d3e 35b4 0bbd cf91 28bd
00000060: 42e5 13be 5d39 f43d 74bb 193e dc0e e9bd
00000070: 680d 03be ac0b 163d 34a9 893e ebd9 f93d
00000080: f8f3 a23d 5fd2 4dbc b2f1 61bd da7e 9f3d
00000090: eb26 af3d a0ba 593d 0580 c83d cddf 0f3e
000000a0: dc07 e3bd 47bf 2dbd 149f 6d3b ddeb 5abd
000000b0: 0446 013e 3daa 99bd 02af c23d dbeb cb3d
000000c0: 4953 9bbd 5b1a 9abd 91ad 9cbd cf02 893b
000000d0: 94b7 143e aa5d 203e 0a37 093e 3181 143e
000000e0: 30f9 b13c cd3c 9d3c 4b6f 8abd 6919 64bd
000000f0: eb1c 2f3e 45e5 283e 615b d93c 6b38 ebba
00000100: aed0 743d 4843 323d 6419 f43d 9cd7 64bd
00000110: f847 e1bb 592f 073d e584 2abe 8062 d63b
00000120: 98c4 dabc 3497 993d 6ff2 693d 8afc 393e
00000130: 282d 22be a2a8 ef3c f12a 28bd 4d61 08be
00000140: 1b06 133d 6646 a33b 25a7 86bc 6253 093e
00000150: dba3 19bd 0607 6c3d 23b6 a23d 4177 28be
00000160: ab9b c83d 704f 2a3e c194 a23c 2022 32bd
00000170: 4c76 4c3d cb06 453b d5d3 b9bc d2e1 d0bd
00000180: 26f5 8dbd c2ed 8e3d 2b62 db3c 8f6b ad3c
00000190: bdd1 b83c 42a3 da3d e00d a8bd ff49 973d
000001a0: 9e0e 3f3d 9806 e53d 1046 c83d 182c 93bc
000001b0: 3f4b 033e a861 b7bd 7256 babd c52f e03c
000001c0: 5cde c5bd 8dfe c0bd 96ae 0cbd 382c 02bd
000001d0: 0879 3e3c 5b3a a43b c647 4c3e 50a4 10be
000001e0: d4b8 82bc 5027 c5bb 52f0 523d 6f32 05be
000001f0: f11b 4f3d 40cf 80bd c020 9abe b977 b13d
00000200: 7fc5 2e3e 7c7a ca3c 0377 bc3c ce71 1e3d
00000210: d88b cbbd 8dbc b53c 65fb 48bc f48e 04be
00000220: 8f73 a43d fbc0 b13d 0f0d 3fbe 8e1e ab3b
00000230: 2d21 ce3d 9022 9e3d fcfa b6bb 361a 2cbe
00000240: be7e d9bd ec68 dabd 4f6d 363d fe5e 8dbe
00000250: 2d7a f23d e8c0 8fbc f615 99bd 56cb 453e
00000260: ccca 2fbe b823 f8bc df01 5b3d a5ab 31bd
00000270: 69f0 813c 1163 83bd 03f8 f53c 5e22 ab3d
00000280: c9ea 243d c432 343e 3b2e eb3b cacf 873d
00000290: a684 16be 2cc3 93bd 18ac 5abd e6ad 883d
000002a0: 4f45 e63d e6d9 4fbd f554 5b3d 7e0e 91bd
000002b0: b95c 223d 3b73 afbe 0626 8d3d 9747 943c
000002c0: 08c0 f0bd 375e fabc 6989 bebd e6d8 bd3d
000002d0: 1bb3 23be 1d28 70bd 4232 23bd b518 6a3d
000002e0: 9f78 373c f1f6 f03d 77e4 cd3d d0c4 973c
000002f0: 8301 b83c 7faf bb3d e1e1 3f3d f4e2 20be
00000300: d48e bb3c 482d 153d 8fc2 6d3e 9cbf adbd
00000310: 39e3 fd3c 663d fb3a d103 04be aeb2 233e
00000320: 8d05 513c f6df a9bd 0652 713c 5998 b93d
00000330: 7661 42be e41f 23bd b855 ebbd d086 04be
00000340: ebd1 a0bd 0db5 da3d 4244 2abe 8874 06be
00000350: ab6f 1ebc a12b 193d f688 503e 3d28 f73d
00000360: f0e3 c0bc 678e 80bc 8e4b 2ebc 51f0 3bbd
00000370: fd51 9dbc e0bc 38bd f62d 21be d564 533d
00000380: 9876 90bd 735f b63d 11db d23d ca3d 03bd
00000390: 4e68 f9bd 365c 433c e177 8dbd 6517 5abd
000003a0: c492 5f3e 9d3b 5dbc 6641 e439 e9b7 9bbc
000003b0: b670 41be 58c2 efbc d9a7 4dbd b306 04be
000003c0: cab1 dabd 4623 ddbd 57fa b2bd bc08 3b3e
000003d0: bf19 3d3d c07f c03d bdca 80bd d246 25be
000003e0: d8d6 94bd dfa0 8a3d 55dd 0d3e a658 093e
000003f0: c627 80bc 9964 b83d 4508 7b3e cda7 113d
