models/daily/model.onnx (onnx, 471922 bytes, 17 tensors)

model/quant_dense_2/LastValueQuant/FakeQuantWithMinMaxVars__56 f4 [32, 1]
00000000: 68e4 223d 22b6 18be 6051 953d fed3 c43d
00000010: 0767 d2bd 0ffa 5fbe 2a49 a63e 22b6 983e
00000020: 9c56 743e edad 29be 6051 95bd c103 97be
00000030: 2a7e d73e 33dc 33be 57be 073d 6051 95be
00000040: 8b30 d9bc 57be 873e d229 b2be 0732 a1be
00000050: 3c6f 41be 9c56 f4bc 7177 30be 5628 6a3e
00000060: d25e 633e dbbc bf3e 6051 15be fed3 c4bd
00000070: 7177 b03d 94c3 663d 9c56 743d 57be 87bc
0.039768606 -0.14913228 0.07290912 0.09610747 -0.10273557 -0.21872734 0.32477695 0.29826456
0.23861164 -0.16570254 -0.07290912 -0.29495052 0.42088443 -0.17564468 0.033140507 -0.29163647
-0.026512405 0.26512405 -0.3479753 -0.3148348 -0.18890089 -0.029826455 -0.17233063 0.2286695
0.2220414 0.37448773 -0.14581823 -0.09610747 0.08616532 0.05633886 0.05965291 -0.016570253

model/quant_dense_1/LastValueQuant/FakeQuantWithMinMaxVars__55 f4 [64, 32]
00000000: f544 9d3d cfa4 983d 8564 0fbe ba27 753e
00000010: 3f85 26be 8237 6ebe 24a7 62be 8f26 50be
00000020: da66 59be 8ac5 afbd 0795 1f3e f544 1dbd
00000030: aa04 943c 8f26 503e 44e6 46be f544 9dbd
00000040: 3a24 86bd 27d4 033e 8237 6ebe 1ae5 a13d
00000050: af65 34be 4d74 08be 8f26 503e dfc7 79be
00000060: 1584 013e b4c6 543e b4c6 543e 8564 8f3d
00000070: d405 393d 9487 f0bc e2f4 1a3e 8564 8f3d
00000080: 0cf6 3f3e a7d7 72be 0cf6 3f3e 5fc4 0a3e
00000090: 9d15 323e c2b5 36be 3296 44be 3296 44be
000000a0: 3a24 863e 1f46 423e 8564 8fbd 8ac5 2fbd
000000b0: af65 b4bd 3296 443e da66 d9bd 3f85 26be
000000c0: d405 39bd 0468 7e3e 5c97 69be f544 1d3e
000000d0: af65 34be e755 3b3e 8ac5 2fbd 0468 7e3e
000000e0: 3f85 a63c ff06 de3d da66 593e c2b5 36be
000000f0: dfc7 79bd 3f85 a6bc cfa4 98bd 9487 f0bd
00000100: e755 3bbe 1ae5 21be aa04 143c ff06 de3b
00000110: d405 b9bc 0468 febd 8f26 50be 6a86 4bbd
00000120: f544 1dbd 24a7 623e faa5 3d3e 7214 0d3e
00000130: 0cf6 3f3e 44e6 c63d 97b4 11be b4c6 543d
00000140: f544 1dbd 8564 8fbd dfc7 793d ff06 de3d
00000150: a7d7 723e 6525 ab3d c716 57be ff06 5ebd
00000160: c2b5 363e 9487 f0bd faa5 3d3e f217 7cbe
00000170: ff06 5ebe b4c6 d43d ff06 5ebe 7775 2dbe
00000180: 97b4 11be 1ae5 a1bd 6525 abbd ff06 de3c
00000190: b4c6 d4bd 0468 febd ff06 5ebc faa5 bd3d
000001a0: ba27 f53d d405 393d aa04 943c 1584 01be
000001b0: 0468 7ebe 24a7 e23d aa04 94bd 24a7 62be
000001c0: d405 39bc 7214 0dbe ba27 f53d ba27 f5bd
000001d0: da66 593e cfa4 983d 4a47 e7bd 6a86 4b3d
000001e0: 1584 81be 8ac5 afbd 9487 f03d d405 393d
000001f0: d405 393e 6a86 4b3e ff06 debb 5c97 693e
00000200: 6fe7 6b3e ff06 5ebd 8f26 d0bd da66 59be
00000210: 9487 703d 97b4 11be f544 9dbd d405 b93d
00000220: 24a7 e23d 2d35 243e faa5 bd3d 44e6 46be
00000230: b4c6 543d 0468 fe3d dfc7 79bd faa5 bdbd
00000240: 6fe7 6b3e 4a47 e7bd dfc7 f9bd 27d4 033e
00000250: 8ac5 af3d ff06 debd 6a86 cb3c dfc7 f9bd
00000260: 1f46 42bd 6a86 4bbd 4d74 08be aa04 14bb
00000270: 97b4 11be 8ac5 af3d 5736 49be dfc7 f9bd
00000280: faa5 3dbe aa04 943b a7d7 72be 3f85 263e
00000290: 4a47 67bd e2f4 1a3e d405 39bd d405 b9bd
000002a0: 9487 f03c 24a7 e23d aa04 943d 4d74 083e
000002b0: 0468 fe3d ba27 753e 44e6 c63d f544 1dbe
000002c0: 24a7 62be 0468 fe3d ecb6 5b3e 8f26 d03d
000002d0: 6a86 cb3c 1ae5 213e 8ac5 2fbe d405 39be
000002e0: 7775 2dbe e755 3bbe cc77 77be 5fc4 0a3e
000002f0: faa5 3dbe f217 7c3e e755 3bbe 5c97 693e
00000300: 6a86 4b3d c2b5 363e 0468 7e3e 6a86 cb3d
00000310: 3a24 86bd 9487 70bd faa5 bd3d 1f46 c2bd
00000320: 8564 0f3e 6fe7 6b3e ff06 5ebc d405 39be
00000330: 3f85 26be cfa4 983d af65 343e 8f26 d03d
00000340: 5736 49be 4a47 e73d 3f85 a6bd 1f46 423e
00000350: da66 593e d405 b93c 44e6 463e 6525 2bbe
00000360: 3f85 a63c 3296 443e 5736 49be 37f7 643e
00000370: bd54 163e aa04 943b d405 b9bd 52d5 283e
00000380: 9487 f03d ba27 f5bd 31fc 843e f544 1d3d
00000390: aa04 14be c716 573e faa5 bdbd ff06 debd
000003a0: cc77 773e 97b4 113e 4a47 e7bd 6a86 cb3c
000003b0: 0468 fe3d 5fc4 8a3d ff06 5ebc 8ac5 2f3d
000003c0: f544 1dbd 1584 01be ba27 f53d 8ac5 2fbd
000003d0: 3f85 a63c bd54 16be aa04 94bd 4a47 e73d
000003e0: aa04 143c 7cd6 4dbe 97b4 113e d405 393e
000003f0: ff06 debd d405 393e 27d4 833e 8ac5 2f3e
0.07679168 0.0745331 -0.14003189 0.23940936 -0.16261767 -0.23263362 -0.22134072 -0.20327209
-0.21230641 -0.085825995 0.15584193 -0.03839584 0.01806863 0.20327209 -0.19423777 -0.07679168
-0.065498784 0.12873898 -0.23263362 0.07905026 -0.17616914 -0.13325615 0.20327209 -0.24392651
0.12648042 0.20778924 0.20778924 0.070015945 0.045171574 -0.029361524 0.15132478 0.070015945
0.18746203 -0.23715077 0.18746203 0.13551472 0.17391057 -0.17842773 -0.1919792 -0.1919792
0.26199514 0.18972062 -0.070015945 -0.042912997 -0.08808457 0.1919792 -0.106153205 -0.16261767
-0.045171574 0.24844366 -0.22811645 0.15358336 -0.17616914 0.18294488 -0.042912997 0.24844366
0.020327209 0.10841178 0.21230641 -0.17842773 -0.060981628 -0.020327209 -0.0745331 -0.117446095
-0.18294488 -0.15810052 0.009034315 0.0067757363 -0.022585787 -0.12422183 -0.20327209 -0.049688734
-0.03839584 0.22134072 0.18520346 0.1377733 0.18746203 0.097118884 -0.14229046 0.05194731
-0.03839584 -0.070015945 0.060981628 0.10841178 0.23715077 0.08356742 -0.21004783 -0.05420589
0.17842773 -0.117446095 0.18520346 -0.2461851 -0.21682356 0.10389462 -0.21682356 -0.1693934
-0.14229046 -0.07905026 -0.08356742 0.027102945 -0.10389462 -0.12422183 -0.013551473 0.09260173
0.11970468 0.045171574 0.01806863 -0.12648042 -0.24844366 0.11067036 -0.07227452 -0.22134072
-0.011292893 -0.1377733 0.11970468 -0.11970468 0.21230641 0.0745331 -0.11292894 0.049688734
-0.25296083 -0.085825995 0.117446095 0.045171574 0.1806863 0.19875494 -0.0067757363 0.22811645
0.23037504 -0.05420589 -0.101636045 -0.21230641 0.058723047 -0.14229046 -0.07679168 0.09034315
0.11067036 0.1603591 0.09260173 -0.19423777 0.05194731 0.12422183 -0.060981628 -0.09260173
0.23037504 -0.11292894 -0.121963255 0.12873898 0.085825995 -0.10841178 0.024844367 -0.121963255
-0.047430154 -0.049688734 -0.13325615 -0.0022585788 -0.14229046 0.085825995 -0.19649635 -0.121963255
-0.18520346 0.0045171576 -0.23715077 0.16261767 -0.05646447 0.15132478 -0.045171574 -0.09034315
0.029361524 0.11067036 0.07227452 0.13325615 0.12422183 0.23940936 0.097118884 -0.15358336
-0.22134072 0.12422183 0.21456498 0.101636045 0.024844367 0.15810052 -0.17165199 -0.1806863
-0.1693934 -0.18294488 -0.24166793 0.13551472 -0.18520346 0.2461851 -0.18294488 0.22811645
0.049688734 0.17842773 0.24844366 0.09937747 -0.065498784 -0.058723047 0.09260173 -0.09486031
0.14003189 0.23037504 -0.013551473 -0.1806863 -0.16261767 0.0745331 0.17616914 0.101636045
-0.19649635 0.11292894 -0.081308834 0.18972062 0.21230641 0.022585787 0.19423777 -0.16713484
0.020327209 0.1919792 -0.19649635 0.2235993 0.14680763 0.0045171576 -0.09034315 0.16487625
0.117446095 -0.11970468 0.25973657 0.03839584 -0.14454904 0.21004783 -0.09260173 -0.10841178
0.24166793 0.14229046 -0.11292894 0.024844367 0.12422183 0.06775736 -0.013551473 0.042912997
-0.03839584 -0.12648042 0.11970468 -0.042912997 0.020327209 -0.14680763 -0.07227452 0.11292894
0.009034315 -0.2010135 0.14229046 0.1806863 -0.10841178 0.1806863 0.25747797 0.17165199

model/quant_dense_1/BiasAdd/ReadVariableOp:0 f4 [32]
00000000: 9f1f 233d c317 a9bc 9042 ba3c d69c c83c
00000010: 5c64 92bc a577 8fbc 3554 943c 0850 853c
00000020: a24c 9e3c a655 b4bc 781a 91bc 81cb a9bc
00000030: 1d0e 463c d3f6 c6bc 14aa 0a3d 744d cebc
00000040: a704 5bbc 5339 9e3c fa9a 99bc 341d bdbc
00000050: 8b88 86bc 4efd a5bc 1937 62bc 26f3 8d3c
00000060: 24a9 9e3c 9904 3b3c 6b59 92bc d5f0 61bc
00000070: c220 c73c 5cda df3c e54a fa3c a1b4 a4bc
0.039825078 -0.020641213 0.022736818 0.024488848 -0.01787012 -0.017513106 0.01810656 0.016273513
0.01932365 -0.022013497 -0.017712817 -0.020726921 0.012088326 -0.024287617 0.033853605 -0.025183417
-0.013367808 0.019314444 -0.018750656 -0.023085214 -0.01642253 -0.020262387 -0.013807082 0.017327856
0.019367762 0.01141467 -0.017864903 -0.013790329 0.024307612 0.027325802 0.03055329 -0.020105662

model/quant_dense/LastValueQuant/FakeQuantWithMinMaxVars__54 f4 [32, 64]
00000000: b491 c4bd 4dd4 a03d 7798 1e3e c15f 5f3d
00000010: 7031 113e f7f1 77be 1a4f e8bd 4dd4 a03c
00000020: c15f 5fbd fa4b 253e 1a4f 68be 2410 23be
00000030: 00b3 32be 5aa2 bbbd 1a4f e83c 743e 713e
00000040: 9af5 8ebd 14e8 5a3e 4006 06bd d087 27be
00000050: f4e4 97bd 7031 113e 4006 06be 6109 493e
00000060: 00b3 32bd ce2d 7abc 4dd4 a03d ea23 5d3e
00000070: 2410 233e ce2d fabd 071a c03d 9af5 0ebc
00000080: d7ee 34be ed7d 8abd 0d81 4dbd f4e4 97bd
00000090: 00b3 32bc f18a 6abe 9af5 0ebb 6770 56be
000000a0: 00b3 32bc 0d81 4dbd b491 44be ed7d 8abd
000000b0: 6109 49be a05c 9c3d 5aa2 3bbe 6dd7 e33d
000000c0: 6109 49be 476d 133e d7ee 34be 7aa5 febd
000000d0: ed7d 0abe c15f 5f3d 8466 39be 1a4f 683d
000000e0: 7031 113e 071a 40be 948e 813e 6dd7 633e
000000f0: c7c6 ec3d 00b3 32bd 4dd4 20be b491 c4bc
00000100: f7f1 773e 0d81 4dbd c15f df3d c7c6 ecbd
00000110: a7c3 29bd 1a4f e8bc f4e4 17bd b491 c4bd
00000120: f4e4 173d 00b3 323e 476d 133e a7c3 29bd
00000130: 6770 563c 5aa2 3bbd 7031 11be f4e4 17bd
00000140: 476d 93bd ed7d 0a3e 9af5 8e3b 8466 39be
00000150: 7aa5 fe3d 9af5 0ebd 6109 c9bd 6109 49be
00000160: 1da9 15be f4e4 173e 00b3 b23c 14e8 5abe
00000170: 9af5 8ebc 9af5 0e3e 3dac 583e 6109 493e
00000180: 9af5 0ebb 14e8 dabd 00b3 323c 7aa5 fe3d
00000190: 4dd4 20bd c15f 5f3d 1a4f 683d 14e8 5abe
000001a0: b491 c43d 6aca 033e ad2a 373e baf8 d13d
000001b0: f18a 6abe 071a 40be f7f1 77be ad2a 37be
000001c0: 21b6 f53d 4dd4 a03c 21b6 f53d 1a4f 683d
000001d0: a7c3 29be ce2d fa3c 1da9 153e 1a4f 68bd
000001e0: c15f 5fbe 00b3 323d c4b9 0cbe 543b 2ebe
000001f0: 1a4f 683e 948e 81bd 14e8 da3d ed7d 8a3d
00000200: 1a4f 68be d7ee 34be 4006 86bd 00b3 323d
00000210: baf8 d1bd c15f 5f3d 4dd4 203e 4dd4 a03c
00000220: 6770 d63b c7c6 6c3e 8acd 463e 6770 d63d
00000230: 476d 933d c4b9 0cbe 6770 56bd 14e8 dabd
00000240: 4dd4 a03d 7031 113e 6dd7 e33d 6109 c93d
00000250: 00b3 323c 6dd7 633e 6770 d6bc 1742 08be
00000260: 9af5 8ebd 979b 61be 2a77 303e 00b3 b2bd
00000270: 0d81 4dbe ce2d 7a3d 8466 39be 743e 713d
00000280: 8466 39be ed7d 0abe ce2d fabd 00b3 32bd
00000290: 2a77 30be 0000 0000 948e 01be 6aca 03be
000002a0: c7c6 6c3e ce2d 7abc 0d81 cdbd 5aa2 bb3d
000002b0: 6109 493e ce2d 7a3e d7ee 343e 6770 56bd
000002c0: ed7d 0a3e 00b3 32bd ea23 5dbe ce2d fa3c
000002d0: 1a4f 68bd 2a77 303e d7ee 343e 31de 3d3e
000002e0: ca20 1a3e 6770 563e c7c6 6cbe 9134 543e
000002f0: dd55 423e 00b3 323d 476d 933d 1a4f 683e
00000300: 9d02 6fbe 6770 d63c dd55 42be c15f 5fbe
00000310: 5aa2 bb3d 476d 13be e4bc 4f3e 1a4f e8bc
00000320: 9af5 0e3e 1a4f 68be 4dd4 20bd ce2d 7a3c
00000330: 6109 c93d ed7d 0a3e 9af5 8ebd ed7d 8abd
00000340: f4e4 173d f4e4 173d ce2d 7abc a05c 9cbd
00000350: 1da9 153e 071a c03d 1a4f 683d ce2d fabc
00000360: ce2d fa3d 6aca 03be 743e f13d c4b9 0cbe
00000370: 6aca 03be ce2d 7abe 543b 2e3e 3745 4b3e
00000380: 948e 813d c15f 5fbe 948e 81be 3745 4b3e
00000390: f4e4 17be b491 c4bd 0d81 cdbd 1a4f e8bc
000003a0: ce2d 7a3c 979b 613e 0000 0000 f18a 6abe
000003b0: a7c3 29be 6770 d6bc 21b6 f53d 5aa2 3b3d
000003c0: 6770 d63c 6770 563c 543b ae3d 9af5 0e3d
000003d0: 7031 113e a7c3 293d a7c3 293d 0d81 4dbd
000003e0: 2a77 30be c15f dfbd f7f1 773e 4dd4 203e
000003f0: 7aa5 febd 7031 11be 476d 13be ad2a 37be
-0.09598103 0.07852993 0.15487848 0.054534677 0.14179015 -0.24213396 -0.113432124 0.019632483
-0.054534677 0.16142264 -0.22686425 -0.15924126 -0.17451096 -0.091618255 0.028358031 0.2355898
-0.069804385 0.21377593 -0.032720804 -0.16360402 -0.07416716 0.14179015 -0.13088322 0.19632484
-0.04362774 -0.01526971 0.07852993 0.21595731 0.15924126 -0.12215768 0.09379964 -0.008725548
-0.17669235 -0.067623 -0.0501719 -0.07416716 -0.010906935 -0.22904564 -0.002181387 -0.20941316
-0.010906935 -0.0501719 -0.19196206 -0.067623 -0.19632484 0.07634854 -0.18323651 0.111250736
-0.19632484 0.14397155 -0.17669235 -0.12433906 -0.135246 0.054534677 -0.18105513 0.056716062
0.14179015 -0.18759929 0.2530409 0.22250147 0.11561351 -0.04362774 -0.15705986 -0.023995258
0.24213396 -0.0501719 0.109069355 -0.11561351 -0.041446354 -0.028358031 -0.03708358 -0.09598103
0.03708358 0.17451096 0.14397155 -0.041446354 0.013088322 -0.045809127 -0.14179015 -0.03708358
-0.071985774 0.135246 0.004362774 -0.18105513 0.12433906 -0.034902193 -0.09816242 -0.19632484
-0.14615293 0.14833432 0.02181387 -0.21377593 -0.017451096 0.13960877 0.21159454 0.19632484
-0.002181387 -0.10688797 0.010906935 0.12433906 -0.039264966 0.054534677 0.056716062 -0.21377593
0.09598103 0.12870184 0.17887373 0.10252519 -0.22904564 -0.18759929 -0.24213396 -0.17887373
0.11997629 0.019632483 0.11997629 0.056716062 -0.16578542 0.03053942 0.14615293 -0.056716062
-0.21813871 0.04362774 -0.13742739 -0.1701482 0.22686425 -0.06326023 0.10688797 0.067623
-0.22686425 -0.17669235 -0.06544161 0.04362774 -0.10252519 0.054534677 0.15705986 0.019632483
0.006544161 0.23122703 0.19414344 0.10470658 0.071985774 -0.13742739 -0.05235329 -0.10688797
0.07852993 0.14179015 0.111250736 0.09816242 0.010906935 0.22250147 -0.026176644 -0.13306461
-0.069804385 -0.22032009 0.17232957 -0.08725548 -0.2006876 0.06107884 -0.18105513 0.05889745
-0.18105513 -0.135246 -0.12215768 -0.04362774 -0.17232957 0.0 -0.12652045 -0.12870184
0.23122703 -0.01526971 -0.1003438 0.091618255 0.19632484 0.24431536 0.17669235 -0.05235329
0.135246 -0.04362774 -0.21595731 0.03053942 -0.056716062 0.17232957 0.17669235 0.1854179
0.1505157 0.20941316 -0.23122703 0.20723177 0.18978067 0.04362774 0.071985774 0.22686425
-0.2334084 0.026176644 -0.18978067 -0.21813871 0.091618255 -0.14397155 0.202869 -0.028358031
0.13960877 -0.22686425 -0.039264966 0.01526971 0.09816242 0.135246 -0.069804385 -0.067623
0.03708358 0.03708358 -0.01526971 -0.07634854 0.14615293 0.09379964 0.056716062 -0.03053942
0.12215768 -0.12870184 0.1177949 -0.13742739 -0.12870184 -0.24431536 0.1701482 0.19850622
0.06326023 -0.21813871 -0.2530409 0.19850622 -0.14833432 -0.09598103 -0.1003438 -0.028358031
0.01526971 0.22032009 0.0 -0.22904564 -0.16578542 -0.026176644 0.11997629 0.045809127
0.026176644 0.013088322 0.0850741 0.034902193 0.14179015 0.041446354 0.041446354 -0.0501719
-0.17232957 -0.109069355 0.24213396 0.15705986 -0.12433906 -0.14179015 -0.14397155 -0.17887373

model/quant_dense/BiasAdd/ReadVariableOp:0 f4 [64]
00000000: 0000 0000 729f 713b b99f c4bb 51d7 3abc
00000010: 9d32 a4bb 4c0e 32bc 2d53 0abc a2b4 86bc
00000020: 1323 813b e924 8b3a ba45 393c a6e0 edbb
00000030: 9ddb 10bc 0a87 3f3c 0000 0000 0000 0000
00000040: 49b5 e53b 9eeb 0ebc bd53 363c f52c 2d3c
00000050: d6f8 09bb d4ff 3aba c99c 8ebc 8c32 163c
00000060: c5ba 503c 912a c4bb a4cb 17bc 0121 e33b
00000070: 2362 d3bb 8afc 11bc 56bf a43b 6410 d73b
00000080: e944 52bc 250d 82bc f002 2abc 5d77 91bc
00000090: 0000 0000 5e2a dcbb 6a40 303c d2fe c2bb
000000a0: 01db a2ba 1bd4 193b 0000 0000 b58c babb
000000b0: 3118 0bbc 8237 7f3b 3c16 8fbc 0000 0000
000000c0: 5c6d d73b ef8a 8ebc b0cb 26bb a8c4 05bc
000000d0: ce30 7cbb 1d71 f03b 74b2 efba bc7b 77bb
000000e0: ba69 c73c 527e 9d3b c420 243b 4d66 0a3c
000000f0: 3439 d23c 296c 553c 0000 0000 31da 9abc
0.0 0.0036868718 -0.0060004857 -0.0114038745 -0.0050109164 -0.010867666 -0.008442682 -0.016443554
0.0039409488 0.0010615858 0.011308128 -0.007259446 -0.008841422 0.011689911 0.0 0.0
0.0070101363 -0.008723168 0.011128363 0.010569801 -0.0021052859 -0.0007133458 -0.017408745 0.009167325
0.012739842 -0.0059865196 -0.00926486 0.0069314246 -0.006450908 -0.008910308 0.005027692 0.006563233
-0.012833812 -0.015875408 -0.010376677 -0.017757112 0.0 -0.0067189177 0.010757545 -0.005950787
-0.0012424887 0.0023472372 0.0 -0.005693043 -0.008489654 0.0038942997 -0.017466657 0.0
0.006574316 -0.017400233 -0.0025450997 -0.008164562 -0.0038481238 0.007337703 -0.0018287436 -0.003776296
0.024342407 0.0048063183 0.0025043944 0.008447242 0.025662042 0.013026276 0.0 -0.01890287

model/gru_3/gru_cell/ReadVariableOp/resource:0 f4 [2, 96]
00000000: 8025 8abc 2635 8c3a 31c0 873c 293c 353c
00000010: 4bc4 ffbb ba4e a4bb b6eb 873c 1eb1 783b
00000020: beee 253c a3c5 06bc 1911 69bc 59b7 083b
00000030: 1858 13bc 112b 393d 2087 cf3a 35bf 293d
00000040: 0658 2d3c 0c48 743b 5b16 453c ec02 9fbb
00000050: d151 913b ae11 0d3d f124 5b3c 23c9 153c
00000060: ae29 15bc 28d6 043d a3a3 7f3a 12d0 95bc
00000070: 1645 f5bc c770 99bc 88c9 8a3b 4bc0 f83c
00000080: a11c 043c d3e4 153c 08b1 0f3a fa9a 543c
00000090: 2522 afbb 493a ba3a e444 a0bc f3d5 c93b
000000a0: 9d56 e93c d9b9 8ebc 0d27 093b 36e6 e03c
000000b0: 9f36 383c bfda 4b3b 6e4d a5bb 8478 f7bb
000000c0: f35a b4bc 6e6b 4b3d 5f5e 52bc 6215 b5bc
000000d0: 0651 08bb b5ef 4dbb f722 913b b482 79bc
000000e0: d748 183c 8b03 cc3b 816e dcbb 503d 353c
000000f0: b07e 8e3c f53d 62bb 9640 4eba fb20 20bc
00000100: 3ac2 083c 0d1b e5bb 61f8 833b 3f81 34bc
00000110: 8a8d 6f3a 0661 f2bb ce9b 83bc af02 ba3a
00000120: d4a6 95bb 9ca0 37bb 6fd2 47bb f0e2 cf3c
00000130: 4c11 32bc 9428 8b3b c904 4cbc f377 1bbc
00000140: 9d9e 8bbc 0776 a13c 07d4 8ebc 4bb6 433b
00000150: 4c91 43bb d7f2 b03a 30d3 ba3b eae9 9e3b
00000160: cd31 03bc 6135 193c f91a afbb 8dd5 d53b
00000170: a90f f33c acf6 5fba 3c24 37bc d5d0 84bc
00000180: 8025 8abc 2635 8c3a 31c0 873c 293c 353c
00000190: 4bc4 ffbb ba4e a4bb b6eb 873c 1eb1 783b
000001a0: beee 253c a3c5 06bc 1911 69bc 59b7 083b
000001b0: 1858 13bc 112b 393d 2087 cf3a 35bf 293d
000001c0: 0658 2d3c 0c48 743b 5b16 453c ec02 9fbb
000001d0: d151 913b ae11 0d3d f124 5b3c 23c9 153c
000001e0: ae29 15bc 28d6 043d a3a3 7f3a 12d0 95bc
000001f0: 1645 f5bc c770 99bc 88c9 8a3b 4bc0 f83c
00000200: a11c 043c d3e4 153c 08b1 0f3a fa9a 543c
00000210: 2522 afbb 493a ba3a e444 a0bc f3d5 c93b
00000220: 9d56 e93c d9b9 8ebc 0d27 093b 36e6 e03c
00000230: 9f36 383c bfda 4b3b 6e4d a5bb 8478 f7bb
00000240: f35a b4bc 6e6b 4b3d 5f5e 52bc 6215 b5bc
00000250: 0651 08bb b5ef 4dbb f722 913b b482 79bc
00000260: d748 183c 8b03 cc3b 816e dcbb 503d 353c
00000270: b07e 8e3c f53d 62bb 9640 4eba fb20 20bc
00000280: bb8b 073c 2613 d7bb 1271 7d3b 86ba 3cbc
00000290: dc90 9f3a 7af4 f3bb d8a2 82bc 6fc4 b73a
000002a0: 8ae5 7dbb 98cc 10bb 576a 50bb 34a6 d43c
000002b0: 0f99 31bc 4eb6 983b 3465 4dbc 8fac 18bc
000002c0: eb24 8bbc f3c5 af3c e769 8fbc 5233 593b
000002d0: 0a98 43bb 3d53 9a3a 5168 b93b 5b30 993b
000002e0: 8a5c 0abc 3bd5 193c 27fb a6bb 21fd db3b
000002f0: ce27 ec3c be84 55ba 9132 34bc aafc 84bc
-0.016863585 0.0010696992 0.016571136 0.011061707 -0.0078053824 -0.0050142678 0.016591888 0.0037947367
0.010127721 -0.008225831 -0.014225268 0.0020861237 -0.008993171 0.045207087 0.0015833117 0.041442115
0.010580068 0.0037274389 0.012029256 -0.0048526432 0.004434802 0.03444069 0.013375507 0.009142193
-0.0091041755 0.032430798 0.0009751862 -0.018287692 -0.02994017 -0.018730534 0.00423545 0.03036513
0.008063466 0.009148794 0.0005481397 0.012976402 -0.0053446465 0.0014208044 -0.0195641 0.006159538
0.028483683 -0.017422603 0.0020927817 0.027453523 0.011243491 0.0031105725 -0.0050446307 -0.0075522084
-0.022016024 0.049663 -0.012839883 -0.022104923 -0.0020800247 -0.0031423394 0.004429217 -0.015228916
0.00929471 0.0062260083 -0.0067270403 0.011061981 0.017394394 -0.0034521793 -0.00078679004 -0.009773488
0.0083470885 -0.00699175 0.004027412 -0.011017143 0.00091382174 -0.00739682 -0.016065504 0.0014191474
-0.0045670066 -0.0028019315 -0.0030490418 0.025376767 -0.010868382 0.0042467806 -0.012452313 -0.009489047
-0.017043406 0.0197096 -0.017435087 0.0029863294 -0.0029841242 0.0013500106 0.005701445 0.004849662
-0.008007479 0.009351105 -0.0053437916 0.0065257014 0.029670553 -0.0008543532 -0.011178073 -0.01621286
-0.016863585 0.0010696992 0.016571136 0.011061707 -0.0078053824 -0.0050142678 0.016591888 0.0037947367
0.010127721 -0.008225831 -0.014225268 0.0020861237 -0.008993171 0.045207087 0.0015833117 0.041442115
0.010580068 0.0037274389 0.012029256 -0.0048526432 0.004434802 0.03444069 0.013375507 0.009142193
-0.0091041755 0.032430798 0.0009751862 -0.018287692 -0.02994017 -0.018730534 0.00423545 0.03036513
0.008063466 0.009148794 0.0005481397 0.012976402 -0.0053446465 0.0014208044 -0.0195641 0.006159538
0.028483683 -0.017422603 0.0020927817 0.027453523 0.011243491 0.0031105725 -0.0050446307 -0.0075522084
-0.022016024 0.049663 -0.012839883 -0.022104923 -0.0020800247 -0.0031423394 0.004429217 -0.015228916
0.00929471 0.0062260083 -0.0067270403 0.011061981 0.017394394 -0.0034521793 -0.00078679004 -0.009773488
0.00827306 -0.006563562 0.0038672131 -0.01151908 0.0012173909 -0.0074449154 -0.01594679 0.0014020334
-0.0038741552 -0.0022094604 -0.0031801665 0.025958158 -0.010839715 0.0046604043 -0.012536336 -0.009318485
-0.016985377 0.021456694 -0.017506553 0.0033142162 -0.002984526 0.0011774075 0.0056581874 0.004674954
-0.008444915 0.009389217 -0.0050958577 0.006713525 0.028827574 -0.00081450853 -0.010998384 -0.01623376

model/gru_3/gru_cell/MatMul_1/ReadVariableOp/resource:0 f4 [32, 96]
00000000: e4ae 2bbe 1c69 23be 305a c23a 6d9c 593e
00000010: 5231 0dbd 86d2 993d 88c3 b0bc e3ab 88bc
00000020: 2d37 09be 8f79 3ebe f7bd 9a3c 4b8c d8bc
00000030: 27c2 473e f587 bc3d cb93 e03d 968a 1a3e
00000040: b5e7 25bc c1fc 41be fc39 27bd ed61 82bd
00000050: 2f27 a63d bb95 a8bd 32f6 f5bb 55ee 41bd
00000060: e169 c13c 1a99 b6bd ae4a 4fbe f00c b13d
00000070: 0d02 123d 9073 da3c f69a 80bc 74bd 083d
00000080: 58a7 14be f380 713c b785 db3c e6b1 203c
00000090: 25be 5c3c 0e0c f0bc d3ec 703c f46c 78bd
000000a0: cab5 7ebd d0b5 14be a91e d7bc 7935 afbd
000000b0: 1209 fdbc fee7 e13d a72a 5cbd 09a8 dbbd
000000c0: 3646 98bd 75d7 143e 981f dd3d b49e 0f3e
000000d0: 83c1 34bc 8e50 dc3d f4b1 f93d cd9a 5f3d
000000e0: cfee debd add6 e4bd 56e0 cc3d 3098 49be
000000f0: bc90 a8bd 2b6b 45bb 47c0 cebd 198f 72bd
00000100: 16a1 8b3d 1a07 47be 3ed9 393e d169 2f3e
00000110: 5ce0 dbbd 0afd adbd 41b2 063d 2095 033c
00000120: c529 95bd dba7 363e a9bd 02be 845a 4f3c
00000130: ed45 b1bc 0ccb 26be 690d ca3d 4263 bebd
00000140: 1ee1 9a3b 13c9 063e 4866 843d b01f 603c
00000150: a60c 593e bbad 973d 1d78 b63d d1c8 823d
00000160: 32f7 aa3c af40 2fbe 4bdd 1dbe ed1c 7fbd
00000170: ff36 9f3c 157a 963d 4993 043d 14f5 543d
00000180: a12e 813d 969f 153e b05f 0c3c efd0 323e
00000190: 940a b6bc 378b b3bd a294 acbd b5d7 413d
000001a0: da3a 61bd f76c 2cbe e1ed 883b 96f1 93bc
000001b0: bf1c 493d 0918 3dbd 9429 4e3d 9a8b 3b3e
000001c0: a4ad 2bbc 60dc e83d 2249 bdbd e80d f13a
000001d0: cbfe 93bd 3a05 24be 8795 01be e366 5fbd
000001e0: 5729 22be f7d5 e0bd 1e75 8d3c 182e 98be
000001f0: fea1 313d fc69 81bd 944d 3c3d 723c b6bc
00000200: 0312 f3bd 6ad8 91bd 4717 febd 99f3 063d
00000210: bd9b 9bbe 97a5 6a3e 3f7e fb3d 9f58 84bd
00000220: ce03 11bc 20b8 153d 17fc 913e 2bed 6d3d
00000230: dad8 203d db05 ea3d 65c6 23be 50f5 c23d
00000240: fd94 2c3c 0118 0a3d 8c04 953d acbf c73d
00000250: 6c68 8e3d 6495 bdbb 48f5 62bd 51bc 44bd
00000260: 3518 acbd 8ef9 77bc 2570 cc3b 3520 953d
00000270: da16 cabd 1f0c 393d 7a5c 4f3d dbb5 263e
00000280: 4d71 223d 17c6 0f3d c415 babd bfde 82bd
00000290: b88b c33d e992 57bc d07c ee3d c9df d93d
000002a0: f2b5 3f3d 914b fb3d 0e4b 8cbd d304 6d3d
000002b0: 547e 3c3d 6a45 183c 1b32 8ebd dd7e eabc
000002c0: b9ae c03c e91f 2abd d375 e93d 6601 cd3d
000002d0: 83df 43bd 5fbf ff3d 327e 1cbe eaf1 a23d
000002e0: e2ae 263d edff fb3d 2c64 313d 16f4 503c
000002f0: bcfa a6bd 612f 803c b835 273e 8411 35be
00000300: 52cc ebbd 9c19 4ebe 57d6 1a3e 8223 803d
00000310: ae88 18bd e337 42bd affe f1bd 108d efbd
00000320: c8b2 cfbd 6135 2f3e 1d2f c53d 03e0 573d
00000330: eabb bfbd c3ef d1bc 6efc 8d3d a32b d63d
00000340: 3378 a53d 1682 203b fd14 efbd 219d ec3d
00000350: f757 1c3e 94a9 943d d303 9c3c 1021 dcbd
00000360: 7d64 5ebe 9315 1e3d 61d2 81bd f5d1 d3bb
00000370: 4a57 f93b b357 29be fbd1 103d e02e 0a3e
00000380: 093b 8ebd a7d6 15be 6a52 03be a613 463c
00000390: 9281 da3d f060 543d 5202 c43c 0b84 8a3d
000003a0: c1dc 7bbd f26b 70bd 8f97 e6bd 838c a43d
000003b0: efe8 043e 7410 29be b083 623e 700d 623e
000003c0: 034b 0cbe 3b9f 8bbc 316a 143e 52ab 913d
000003d0: b71c 01bd 9728 02bd 99a1 5bbd 4629 5abe
000003e0: c039 a4bd 26e5 3abd a21e c8bd 643d f23d
000003f0: c981 173d 648c 883d 04df 013e 68fa 8a3d
-0.16765934 -0.15958065 0.0014827903 0.21251078 -0.034470864 0.07510857 -0.021577612 -0.016683524
-0.13399954 -0.18601058 0.01888941 -0.026434084 0.19507657 0.09205619 0.10965689 0.15091929
-0.010126044 -0.18944074 -0.040826783 -0.06366334 0.081129424 -0.08231684 -0.0075061554 -0.04734643
0.023610057 -0.089159206 -0.20243332 0.08645046 0.035646487 0.026666433 -0.015698891 0.0333838
-0.14516962 0.014740217 0.026797159 0.009808039 0.013473068 -0.029302623 0.014704901 -0.06065078
-0.062185086 -0.14522481 -0.026259737 -0.08555121 -0.030888114 0.11030577 -0.053751614 -0.107254095
-0.07435267 0.14535315 0.10797042 0.14025384 -0.011032465 0.10757552 0.12192145 0.05459099
-0.10885393 -0.11173759 0.10003726 -0.19686961 -0.08230731 -0.0030123692 -0.10095268 -0.0592185
0.06817834 -0.19436303 0.18149278 0.1713021 -0.107361525 -0.08495529 0.03288484 0.00803116
-0.072833575 0.1783747 -0.12767662 0.012655858 -0.021639789 -0.16288394 0.09865839 -0.09296276
0.004726543 0.13162641 0.06464821 0.01367943 0.21196231 0.07406183 0.089096285 0.06385959
0.020869825 -0.17114519 -0.15416448 -0.062283445 0.019435404 0.07347504 0.032367025 0.051991537
0.06307722 0.14611658 0.008567736 0.17462514 -0.02222184 -0.087667875 -0.08426787 0.047324855
-0.054987766 -0.16838442 0.004178748 -0.018059533 0.04909968 -0.0461655 0.05033262 0.18314973
-0.010478411 0.11370158 -0.092424646 0.0018390985 -0.07226332 -0.16017619 -0.12654696 -0.05454148
-0.15836082 -0.109783106 0.01726776 -0.29722667 0.04336738 -0.06319043 0.04597242 -0.02224562
-0.1186867 -0.07121356 -0.124067836 0.032947157 -0.30392256 0.2291473 0.12279939 -0.06462216
-0.008851005 0.03655255 0.28512642 0.05808751 0.039269306 0.11426898 -0.1599365 0.09519446
0.010533568 0.0337143 0.07276258 0.097533554 0.06953511 -0.005785631 -0.0554097 -0.048031155
-0.084030546 -0.015135182 0.0062389546 0.07281534 -0.0986764 0.045177575 0.050625302 0.1628031
0.039658833 0.035101023 -0.09086183 -0.06390142 0.095481336 -0.013157585 0.116449 0.10638387
0.046804376 0.122702725 -0.06850253 0.05786593 0.046018913 0.009293893 -0.069431506 -0.028624946
0.023520814 -0.04153434 0.11399426 0.10010032 -0.04782058 0.12487673 -0.15282515 0.07956298
0.040694125 0.12304673 0.043308422 0.012753507 -0.081532925 0.015647592 0.16329086 -0.17682463
-0.115135804 -0.20126957 0.15120827 0.062567726 -0.037239723 -0.04741658 -0.11816155 -0.116968274
-0.10141522 0.17110206 0.09628127 0.05270387 -0.09362014 -0.025627023 0.06932913 0.10457542
0.08079567 0.00244916 -0.11673925 0.115534075 0.15267931 0.07258907 0.019044792 -0.10748494
-0.2171802 0.038594794 -0.06338955 -0.006464238 0.0076092826 -0.16537361 0.035356503 0.13494444
-0.06944854 -0.14632665 -0.12824407 0.0120896455 0.10669245 0.05185026 0.023926888 0.067634664
-0.061489824 -0.058696695 -0.11259376 0.08034613 0.12979482 -0.16510183 0.22120547 0.22075438
-0.1370049 -0.0170437 0.14493634 0.07112755 -0.031521525 -0.03177699 -0.05362091 -0.21304807
-0.080188274 -0.04562869 -0.09771468 0.118281156 0.036989007 0.066674024 0.1268273 0.067860425

model/gru_3/gru_cell/MatMul/ReadVariableOp/resource:0 f4 [32, 96]
00000000: 36ef 05be 1a07 263d f08b 80bc d03d c9bd
00000010: 7a68 953d 7e85 ab3d 867b 55be e208 53bd
00000020: 90d1 1d3e bfb6 023e 7ced 373e eb65 16bd
00000030: 5b01 593e 534b c03d 6673 1e3e 9d50 1a3d
00000040: 7e5f 993d 901d 48bd 66a9 283e 4ded 9dbd
00000050: 6534 1f3e 22a5 a0bd 77ef eb3d d1f0 cf3c
00000060: 2746 99bb f50b 313e b431 58be 6ca6 7b3d
00000070: 077f f43d f5fa 0b3e 7eb6 dd3d 197b 4f3d
00000080: 2806 983d 7f91 fb3d 9754 a3bd d0bd b03d
00000090: be95 913d a725 02be 4a7f 0c3e 1fcc 4dbe
000000a0: ed96 1abd 10a5 c7bd e527 8a3d 8f4d 2a3e
000000b0: fbcc 443e c1e0 e23d 46c0 903c 8f1e b6bd
000000c0: d573 b4bd f277 3e3e f4fb c73d 5506 5dbe
000000d0: 6bea 093e b52a 163e 0d64 57bc 392b 253e
000000e0: 8f2f 2c3e e608 d7bd 87e9 59be 6a35 36bd
000000f0: 60bc 2c3e 9e33 f4bd d368 43bd 594c d03d
00000100: 6135 1dbe 2459 053e 857e 29be 6ec3 63be
00000110: b5b1 8dbc 4973 31be 1140 ac38 8d6c fe3d
00000120: 7957 823d b243 e2bd 0f59 53be 414e 643e
00000130: cc22 42be 116f 2d3e 1627 363d 57bc c73c
00000140: 0197 42be 6143 573e 2d08 183e b1f1 113e
00000150: d463 c7bd c57d 03be a2ff 1bbe 7a07 543d
00000160: 3eee 1f3e 1d39 2d3e 1e4a 02be 37ba fcbd
00000170: 7dd5 84bd 78eb 193e fadd febd 72fb 323e
00000180: b81f 843c 1638 253e c1ac 0f3d fa54 1c3d
00000190: 7435 2c3e 1557 04bd 13dc 6cbd 4bfe c2bd
000001a0: 2287 51be d067 913d ec8c 563e 064e 45be
000001b0: 84a4 523e 25ee 923d dccb 71bd 846d 5e3e
000001c0: b864 983d 8dda 423e c3ae fbbd 5320 51be
000001d0: 1957 a8bd 9070 583d d364 0abe 5511 6abd
000001e0: 85ce c7bd d030 5cbe b2c9 9f3d 28fa 51be
000001f0: ac47 1abd 1c9f e53d f18d 3a3e 9cae 6bbc
00000200: 7105 5d3e bb21 1cbd 1015 43be d439 3abd
00000210: 26bd 21be 75ba a9bd 54f2 c33d 6d6a ec3c
00000220: 5cf4 11be 7be7 3f3e dca2 543d 745a c9bd
00000230: 3aca 1abe db9e 823d d758 d5bb 75ce 96bd
00000240: 11b0 24be 01ec ac3d 0c9f a93d 68b6 cd3d
00000250: 59da 7e3d 91ca 4dbe 8026 373e d02b c53c
00000260: c2c1 65bd 6c70 56be c935 99bd f044 10bd
00000270: 2f66 f33d da8e 4abe c015 903d a27d ab3d
00000280: 20e0 0cbe fa4d 00be 216d 08be c0f1 41be
00000290: 65d3 97bd e41d 743d 88a6 433e 2b8f e23b
000002a0: 3b2d 65bd 302a 7ebd 273b c13d f2a7 453e
000002b0: d847 3a3e 94fc 2bbe d988 273e 49ef d9bd
000002c0: 8e28 cbbd 7d00 01be 7ca0 fbbd 4c6b 18be
000002d0: 0ea0 853d 22ab 0c3e dc1c c7bd 9eab 3c3e
000002e0: b92c 3e3e 81aa 103d 49f0 57be cf15 11bd
000002f0: e167 04bd 7e9b e43d 14cf b3bd c2fa 3b3e
00000300: 2f5c a63d 9b3e 8ebc 5b32 193e 57e9 acbd
00000310: b4c4 913a 68c2 5ebe 80fd ae3d fb3d 97bc
00000320: 8831 de3d ba22 0abe a154 b5bd 48a7 3cbe
00000330: e898 473e 5a67 053e c9a1 0c3e f0e1 823d
00000340: 6ce7 de3c 9cb5 813c a77b e5bd 9c75 2dbe
00000350: bcaf 0d3e 1c75 30be 9477 f33d a2f1 dcbc
00000360: f6f3 9c3d e745 c93d f2f7 2ebe e6dd 303e
00000370: d78b f23d d9a0 b03d 8ede 83bd 77d7 3ebe
00000380: 8536 f3bd 1cb3 f13c 0345 71bd 5871 273e
00000390: 95c8 1ebe d87f 8cbd 10c0 5fbe 8660 4c3c
000003a0: 9bdc 56bd 610e 423e de8b 06be f5ff a03d
000003b0: 8cfb 3abe 9a10 3d3e 4267 40be 5712 1e3e
000003c0: d7ed 94bd 1e22 fabd c692 1abe 777c 66bb
000003d0: 37fd 613d 1b53 9fb9 16b4 a7bb d341 f3bd
000003e0: c506 41be 9259 34be 2363 c33d 985c 8b3d
000003f0: 6621 7e3c f4cf 173d 37f3 003d 0469 c3bb
-0.13079533 0.040534116 -0.015691727 -0.09826243 0.07295318 0.08375071 -0.20847902 -0.051522143
0.15411973 0.12765025 0.17961687 -0.03671829 0.21191923 0.09389367 0.15473709 0.037674535
0.07488917 -0.048856318 0.1647087 -0.07711277 0.1554733 -0.078439966 0.11520284 0.025383385
-0.0046775523 0.17289717 -0.2111271 0.06143801 0.11938291 0.13669951 0.10825823 0.050654504
0.07423049 0.122836106 -0.079751186 0.08629954 0.07108639 -0.12709676 0.13720432 -0.20097397
-0.03774159 -0.0974828 0.067458905 0.16631149 0.19218819 0.11078025 0.017669808 -0.08892547
-0.08811156 0.18600443 0.09764853 -0.21584447 0.1346833 0.14664729 -0.013146413 0.1612977
0.16815017 -0.10499744 -0.2128049 -0.044484533 0.16868734 -0.11923908 -0.04770739 0.10170812
-0.15352394 0.13022286 -0.1655217 -0.2224252 -0.017296651 -0.17329134 8.2135324e-05 0.12423048
0.0636434 -0.11048068 -0.20639442 0.22295476 -0.18958586 0.169369 0.04447087 0.0243818
-0.19002916 0.21021797 0.14846869 0.14252354 -0.097358376 -0.12840946 -0.15234235 0.051764943
0.15618226 0.16916318 -0.12723586 -0.12340205 -0.06486032 0.1503123 -0.124446824 0.17478731
0.016128406 0.16134676 0.03507686 0.038166977 0.16817266 -0.03230961 -0.057827067 -0.09521159
-0.20461705 0.07099879 0.20952195 -0.19268045 0.2057057 0.07174329 -0.059032306 0.21721464
0.074410856 0.19028683 -0.122891925 -0.20422487 -0.082197376 0.052841723 -0.13515024 -0.057145435
-0.09756187 -0.21502995 0.07802142 -0.20505583 -0.037666008 0.11211988 0.18218209 -0.014384892
0.21584107 -0.038118105 -0.19051003 -0.045465305 -0.1579481 -0.08287517 0.09567705 0.028859342
-0.14253372 0.18740647 0.051913127 -0.09831706 -0.15116206 0.063779555 -0.0065108347 -0.07363597
-0.16082789 0.08443452 0.08282289 0.10044557 0.06221995 -0.20096804 0.1788578 0.024068743
-0.056092985 -0.20941323 -0.07480962 -0.035221994 0.11884724 -0.19781056 0.070353985 0.08373572
-0.13757372 -0.12529746 -0.1332288 -0.18939877 -0.07413367 0.05959882 0.19106495 0.0069140396
-0.05595134 -0.062051952 0.094351105 0.19302347 0.18191469 -0.1679557 0.16360797 -0.10641343
-0.099198446 -0.12597843 -0.12286469 -0.1488468 0.06524669 0.13737157 -0.09722301 0.18424842
0.18571748 0.035318855 -0.21087755 -0.03542119 -0.03232563 0.1116247 -0.087797314 0.18357375
0.081230514 -0.017363837 0.14960615 -0.084429435 0.0011121244 -0.21753848 0.08544445 -0.018462172
0.10849291 -0.1348981 -0.08854032 -0.18423188 0.19491923 0.13027707 0.13733591 0.063907504
0.02720996 0.015833668 -0.112052254 -0.16939396 0.13836569 -0.17232174 0.11888042 -0.026970688
0.07663719 0.09827786 -0.17086771 0.17272148 0.118430786 0.08624429 -0.06438933 -0.18636881
-0.11875633 0.029504351 -0.058903705 0.16351831 -0.15506203 -0.06860322 -0.2185061 0.012474185
-0.05245648 0.18950798 -0.13139293 0.0786132 -0.1826002 0.18463364 -0.1878939 0.15436684
-0.07271927 -0.122135386 -0.15095052 -0.0035169402 0.055173125 -0.00030388762 -0.0051179035 -0.11877789
-0.18850239 -0.17612293 0.09540393 0.0680477 0.0155108925 0.037063554 0.031481948 -0.0059634466

model/gru_2/gru_cell/ReadVariableOp/resource:0 f4 [2, 96]
00000000: bd37 5dbc a355 aaba 8c25 083c 48fa a03a
00000010: 36e3 67bc ef67 0fbb 16ad bdbc dd0d 81bc
00000020: 7b71 3bbd f2e6 acbb 1e7b 49bb e1cc 5cbc
00000030: 4ef7 a5bc e891 27bc c989 2dbd 2c97 daba
00000040: 37c4 02bd a668 90ba e60d edbc 4776 3a3b
00000050: e7f7 f43a 84fe 12bc 35eb 1bbc 280b ecbc
00000060: 9531 3e3b 147d 4dbc 5455 443b d36f f0bc
00000070: 978e 98bc 4052 d9ba ad7e 87bb df8f febc
00000080: f44f a53c 1940 d5bb fee3 21bc b80d 38ba
00000090: d91d 243c dce0 413b f388 81bc a062 363c
000000a0: 158b 223c 0353 163c ed01 cbbb 9593 bebb
000000b0: ad98 04bd 9dd1 94bb aee7 4dbc af4a 0f3b
000000c0: 3397 46bc 6957 4c3b be90 b4bc 0008 34bc
000000d0: 0a93 25bc 4b54 0d3c 6efb 583c d842 e13a
000000e0: 9a9e 933c 3c39 a73c ceed 59bc f8f9 edba
000000f0: fc41 f437 f829 9c3b a4a0 823b d5df babc
00000100: f49f 5c3c 9ef6 30bc 6d61 19bc 8317 04bc
00000110: c631 14bc bf70 7bbc 3c1a b0bc 3bfd 0ebb
00000120: efb5 233c 6508 7cbc 23e2 38bc 7150 c8ba
00000130: 6360 993a 1117 bebb d74c 273a 5a1a 2fbc
00000140: ca02 943b 79fb 89bc 4d99 b33b a9c7 13bc
00000150: 7091 43bb d1b7 ce3b 85ec 64bc fdd9 ba3b
00000160: 62c8 993c 74e0 2dbc 19c3 89bc 8f50 ab3a
00000170: d569 c4bb 4501 1fbc a1ec 083b df50 8b3b
00000180: bd37 5dbc a355 aaba 8c25 083c 48fa a03a
00000190: 36e3 67bc ef67 0fbb 16ad bdbc dd0d 81bc
000001a0: 7b71 3bbd f2e6 acbb 1e7b 49bb e1cc 5cbc
000001b0: 4ef7 a5bc e891 27bc c989 2dbd 2c97 daba
000001c0: 37c4 02bd a668 90ba e60d edbc 4776 3a3b
000001d0: e7f7 f43a 84fe 12bc 35eb 1bbc 280b ecbc
000001e0: 9531 3e3b 147d 4dbc 5455 443b d36f f0bc
000001f0: 978e 98bc 4052 d9ba ad7e 87bb df8f febc
00000200: f44f a53c 1940 d5bb fee3 21bc b80d 38ba
00000210: d91d 243c dce0 413b f388 81bc a062 363c
00000220: 158b 223c 0353 163c ed01 cbbb 9593 bebb
00000230: ad98 04bd 9dd1 94bb aee7 4dbc af4a 0f3b
00000240: 3397 46bc 6957 4c3b be90 b4bc 0008 34bc
00000250: 0a93 25bc 4b54 0d3c 6efb 583c d842 e13a
00000260: 9a9e 933c 3c39 a73c ceed 59bc f8f9 edba
00000270: fc41 f437 f829 9c3b a4a0 823b d5df babc
00000280: 6b79 6b3c 15f6 2fbc 2211 1bbc c057 04bc
00000290: 4964 0fbc 9622 7cbc 740a b0bc a13f 98b9
000002a0: 8b7d 283c ffaf 7abc e5cc 39bc c27c dbba
000002b0: a50c cd3a 561a c1bb d627 1839 3faf 2bbc
000002c0: bb53 833b 16e8 8abc b3c7 a63b e5fc 10bc
000002d0: ff4e 4ebb 41d6 d23b 3f41 65bc d20a af3b
000002e0: bd70 9b3c c2b4 2ebc 60fc 87bc 632d aa3a
000002f0: 0406 d4bb 3b26 1fbc bda8 e43a ceb3 7d3b
-0.013502059 -0.0012995492 0.008309733 0.0012281621 -0.014153292 -0.0021882018 -0.023153823 -0.01575368
-0.04576252 -0.0052765543 -0.003074355 -0.013476581 -0.020259526 -0.010227658 -0.04236773 -0.0016677133
-0.031925406 -0.0011017516 -0.028937291 0.0028451846 0.0018689603 -0.008971814 -0.009516527 -0.028813913
0.0029021252 -0.012542028 0.0029958086 -0.029350197 -0.01862268 -0.0016580299 -0.004134974 -0.031074462
0.020179726 -0.006507885 -0.009881018 -0.0007021087 0.010016882 0.002958349 -0.015812373 0.0111319125
0.009920855 0.009175065 -0.006195298 -0.005815933 -0.032372165 -0.0045415894 -0.012567444 0.0021864583
-0.01212101 0.003118003 -0.022041675 -0.0109882355 -0.010105858 0.008626054 0.013243539 0.0017186059
0.018019963 0.020413034 -0.013301326 -0.0018156162 2.9117793e-05 0.0047657453 0.003986435 -0.02281181
0.01346587 -0.010800986 -0.009361607 -0.008062246 -0.00904507 -0.015346705 -0.021496885 -0.0021818418
0.009992107 -0.015382861 -0.011284384 -0.0015282762 0.0011701699 -0.0058010896 0.00063819945 -0.010687435
0.004516934 -0.016843544 0.0054809214 -0.009019771 -0.0029841326 0.0063085337 -0.013972406 0.0057022558
0.018772308 -0.010612596 -0.016816663 0.0013070273 -0.0059940615 -0.0097048925 0.0020892995 0.004251584
-0.013502059 -0.0012995492 0.008309733 0.0012281621 -0.014153292 -0.0021882018 -0.023153823 -0.01575368
-0.04576252 -0.0052765543 -0.003074355 -0.013476581 -0.020259526 -0.010227658 -0.04236773 -0.0016677133
-0.031925406 -0.0011017516 -0.028937291 0.0028451846 0.0018689603 -0.008971814 -0.009516527 -0.028813913
0.0029021252 -0.012542028 0.0029958086 -0.029350197 -0.01862268 -0.0016580299 -0.004134974 -0.031074462
0.020179726 -0.006507885 -0.009881018 -0.0007021087 0.010016882 0.002958349 -0.015812373 0.0111319125
0.009920855 0.009175065 -0.006195298 -0.005815933 -0.032372165 -0.0045415894 -0.012567444 0.0021864583
-0.01212101 0.003118003 -0.022041675 -0.0109882355 -0.010105858 0.008626054 0.013243539 0.0017186059
0.018019963 0.020413034 -0.013301326 -0.0018156162 2.9117793e-05 0.0047657453 0.003986435 -0.02281181
0.01437221 -0.010739823 -0.009464534 -0.008077562 -0.008751937 -0.015389105 -0.02148936 -0.00029039106
0.010283838 -0.01530075 -0.011340355 -0.0016745555 0.0015644027 -0.005893032 0.0001451069 -0.010478794
0.004007784 -0.01695637 0.005089724 -0.008849357 -0.003148019 0.0064342325 -0.013992607 0.005341866
0.018974656 -0.010663213 -0.016599834 0.0012983497 -0.0064704437 -0.009713705 0.0017445307 0.0038711908

model/gru_2/gru_cell/MatMul_1/ReadVariableOp/resource:0 f4 [32, 96]
00000000: 8371 3f3e 6737 8c3c e2a0 703e ed06 01be
00000010: 2f56 1ebe 8a9a 82bd 4f36 0f3e 1813 d13d
00000020: fa59 65bd afbf b3bc 8b61 babd bfc9 9f3b
00000030: 1d56 ad3c 746d 58bd 98c5 ce3a 1dc2 11be
00000040: 9ac1 893d 3b30 b33d 6613 11bd 9a24 efbd
00000050: 5043 e13d aaf6 3dbe 95ac da3d cad8 7abe
00000060: 0015 a0bd 81c2 953d f366 81bb 4fb4 88bd
00000070: b442 90bd c4e5 4a3e 0b7c a8bd 284f bfbd
00000080: 1efa bdbc 528b 9a3c 2722 e3bd 6b2c a8bb
00000090: 2543 ee3d 4cb5 853e 8b06 c23d df44 163d
000000a0: 1bf4 4fbc e4b3 85bd 40ed 043d b2ca 833d
000000b0: 0a08 21ba 868e bc3d 7686 303d 072f e8bd
000000c0: 72df c9bd dd06 08be 7974 80bd 4468 253e
000000d0: 5067 c13d c412 933d 73aa 023e 37e7 243e
000000e0: 49b7 993e 4e8e 49bb dccf 0ebc 3d83 393d
000000f0: c686 a63d 7b1e e6bc 7fbe 97bd 2410 79bd
00000100: a72e 643d 6a27 b3bd 1884 e0bd b93d 9ebd
00000110: 3c5f 3e3e d4d4 aabc 5943 59be b78b 243d
00000120: 7fce 933d 4d82 863b 5a39 91bc 0d6d 87bd
00000130: 3c94 43bd 674a eb3a 01ca 1e3e ed97 babd
00000140: 2325 5dbe 0d8d b63d baf9 94bc d986 0d3c
00000150: e399 883b f96b 993b ba2f 113d 2197 15be
00000160: 3c95 18bb b9fa b4bd 9c3b 823d f4a6 4b3d
00000170: 47a7 bd3d a5da 39bd 422b b63b dbdf c13d
00000180: bb72 c0bd 99e0 6b3c 9a78 6c3e 3704 3abd
00000190: b123 16bb e924 223e 0fbf afbd ef21 f5bd
000001a0: d53c 333b c6a8 173e 3832 1bbe 14bf 0bbe
000001b0: 2254 06be 7cea bfbd 0f28 933d 96e2 953d
000001c0: b63e 83bc 9b10 ef3d 7f72 c63c 1de6 023d
000001d0: 587d a4bc a4c0 573d 05c0 29bd e261 d6bc
000001e0: 4f7b 4c3c 3d2f ffbd e0f0 f5bc a783 dcbd
000001f0: fd7e 84bd 2afd ce3d 91ee 3abd 27b0 f73c
00000200: 2c79 a23e d875 f6bd dbd1 843c 5824 2e3d
00000210: 42e6 f13d d574 9ebd 38c8 cdbd f4f6 a2bd
00000220: d815 a7bd 30f4 7b3b 1715 a33d d98b b03d
00000230: 80a5 a4bd 7ae4 afbd 9669 093e 7563 a7bd
00000240: 6186 a53d f975 91bd 8dab 1d3d 686a 2abe
00000250: 8495 f33d 211f cd3d 0bf2 36bc 0d18 d43d
00000260: 25ff 5d3d baeb fb3b 8152 ba3d b802 76bd
00000270: 6088 2ebd 0714 363e f3fe f63d 3608 21be
00000280: e68c 173d 538d 1bbd 5922 0f3d f3b5 713e
00000290: ef97 1abe 13ff 4a3e 51f1 b0bd a8a9 383d
000002a0: aedb fabc 60cc e43c 0d65 b9bd 4c1f 4b3d
000002b0: 3f31 953d 65e0 243e 8dd6 fd3c 757b 15bd
000002c0: 0f55 51bd 314f db3c 1d5f d0bd c1e8 c6bd
000002d0: 24b7 3c3e 2596 e33d 6c78 993d dcf8 afbc
000002e0: 7b38 433d bfc8 1fbe 8a8b 0fbd 2d48 04be
000002f0: 6d48 febd 5f39 a03d 75ab d3bd f8b2 fe3d
00000300: 3645 b93d 33a9 703d 094f b23d c764 f43d
00000310: 435d 503d 39f8 09be 0f6a 9cbd 1ff8 4a3d
00000320: efff 333e 130d 6b3d ac41 833e f9a9 123d
00000330: 2733 5bbe 123c 373d fab1 69bd 7c42 7dbe
00000340: 7040 cbbd 3da8 c9bd 87aa f2bc 8b25 78bd
00000350: 9f11 e33d 12f3 ddbd cf60 33bd ebfb f4bc
00000360: f3f9 2c3d 0cdb f73c fdd8 a2bd f72b 113e
00000370: 1afb 8c3d fbb9 3d3d d4e3 f73d 4da1 c63d
00000380: cc04 7fbd 6b69 c53d a691 c13d aa9a d1bd
00000390: a1c0 723e 7d18 083e a820 b5bd d9dc 0abd
000003a0: 4071 b43c e869 35be 7dd6 713c d566 aebd
000003b0: 6a4f a9bd 2376 06be ed28 88bd 19e9 183e
000003c0: ecd3 c83d b365 18bb d838 d4bc 4122 11be
000003d0: e468 b23d 5495 5e3d 0775 ef3d def6 49be
000003e0: e7cb d83c 994e c73d 2401 d93b 56ae e33c
000003f0: 23f7 d23c 1ee1 03be cfe8 723e a14b 203d
0.18695645 0.017116262 0.23498872 -0.12600298 -0.15462564 -0.06377132 0.13985561 0.1020872
-0.05599401 -0.021941988 -0.09100636 0.004876345 0.021159226 -0.052838758 0.001577544 -0.14234205
0.0672638 0.087494336 -0.03541889 -0.11676903 0.10999167 -0.18551126 0.10677449 -0.24496761
-0.078165054 0.07312489 -0.00394904 -0.06675016 -0.070439726 0.19814211 -0.08226784 -0.0934127
-0.023190554 0.018865261 -0.110904984 -0.005132248 0.116339006 0.2611488 0.09473904 0.036686774
-0.012692477 -0.06528452 0.03245282 0.064351454 -0.00061428605 0.09206872 0.043096982 -0.11337095
-0.09857072 -0.13283868 -0.062722154 0.16153055 0.094435334 0.07181314 0.12760334 0.16103826
0.30022648 -0.0030754986 -0.00871655 0.045291174 0.08131175 -0.028090706 -0.07409381 -0.06080641
0.055708554 -0.08747752 -0.10962695 -0.077266164 0.18591017 -0.020853437 -0.21217097 0.040172305
0.072171204 0.0041048885 -0.017727543 -0.06612597 -0.04774879 0.0017951251 0.15506746 -0.09111009
-0.21596198 0.08913622 -0.018185485 0.008638107 0.0041687354 0.004682061 0.035445906 -0.14608432
-0.002328231 -0.08836884 0.06359026 0.049719766 0.09260421 -0.04537453 0.005559356 0.09466525
-0.09396883 0.01439681 0.23092881 -0.045414176 -0.0022909457 0.15834393 -0.085813634 -0.11969363
0.002734949 0.14810476 -0.15155876 -0.1364711 -0.13118032 -0.09370896 0.07185375 0.073186085
-0.016021114 0.11673089 0.024224518 0.031957734 -0.0200793 0.05267395 -0.04144289 -0.026169721
0.012480571 -0.12460182 -0.030022085 -0.10767298 -0.064695336 0.10106881 -0.04563767 0.030235363
0.31733072 -0.12034196 0.016213348 0.04251513 0.11811496 -0.07737128 -0.10047954 -0.07957259
-0.08158463 0.0038445108 0.07963007 0.08620424 -0.08039379 -0.085885 0.13419184 -0.08173267
0.08082271 -0.071025796 0.03849368 -0.16642153 0.11893752 0.10015703 -0.011166106 0.1035615
0.054198403 0.007688013 0.090977676 -0.060061187 -0.042610526 0.17781077 0.120603465 -0.15725788
0.036999606 -0.037976574 0.034944866 0.23604564 -0.1509702 0.19823866 -0.086397775 0.04508367
-0.03062233 0.027929485 -0.09052477 0.049590394 0.072847836 0.16101225 0.030986095 -0.03649469
-0.05110651 0.02677116 -0.101743914 -0.09712363 0.18429238 0.11112622 0.07493672 -0.02148097
0.047661286 -0.15603922 -0.035045184 -0.12918158 -0.12416158 0.07823443 -0.10335437 0.12436479
0.09046404 0.05875511 0.08706481 0.11933284 0.05087019 -0.13473596 -0.076374166 0.049553033
0.175781 0.057385515 0.2563604 0.03580663 -0.21406232 0.044735022 -0.057054497 -0.24732393
-0.099244 -0.09846542 -0.02962233 -0.06058268 0.11087345 -0.108373776 -0.043793496 -0.02990528
0.042230558 0.030255817 -0.079515435 0.14176928 0.06883831 0.046319943 0.12104002 0.096987344
-0.062260434 0.096392475 0.09451608 -0.10234578 0.23706295 0.13290592 -0.08844119 -0.033902023
0.022026658 -0.17716181 0.014760611 -0.085157074 -0.082671 -0.13131003 -0.06648431 0.1493267
0.09806046 -0.0023253977 -0.025906011 -0.14173223 0.087114125 0.05434163 0.11692243 -0.19723079
0.026464416 0.09731788 0.0066224504 0.02779309 0.02575261 -0.12878844 0.23721622 0.039134625
