models/daily/staging_model.onnx (onnx, 471936 bytes, 17 tensors)

model/quant_dense_2/LastValueQuant/FakeQuantWithMinMaxVars__56 f4 [32, 1]
00000000: b33c d63e 0917 69bd 5ed3 8a3e d219 b9be
00000010: f960 5bbd ca3e 32be f960 5bbc d219 b93e
00000020: 2765 93be 2019 c5be c363 2b3e abd2 16bd
00000030: 5e62 c33e 208a 0c3e 7dce 5ebe 18af 85be
00000040: 4eac 35be 9441 82bd abd2 963d f960 5b3b
00000050: e91b 95be f9d1 a2be 0917 e93d da65 87be
00000060: 7d3f a63e b3ad 9dbe 37aa d93e a486 c83e
00000070: 18cd f6bc 013c e23d 18cd f63d d219 b93d
0.41843185 -0.056906734 0.27114385 -0.36152512 -0.053559277 -0.17406765 -0.013389819 0.36152512
-0.2878811 -0.3849573 0.16737275 -0.036822002 0.38160986 0.13724566 -0.21758457 -0.26110148
-0.1774151 -0.06360164 0.073644005 0.0033474548 -0.29122856 -0.3180082 0.11381347 -0.26444894
0.32470313 -0.30796584 0.42512676 0.39165223 -0.030127093 0.11046601 0.12050837 0.09038128

model/quant_dense_1/LastValueQuant/FakeQuantWithMinMaxVars__55 f4 [64, 32]
00000000: e2b1 83bd 1ae1 38be f3ee 633e db23 4dbe
00000010: 1ae1 38be a2f4 173d 42d3 8d3d 9a5b 903e
00000020: 7269 bb3d 227a c0bd b226 a73d 0216 a2bb
00000030: 1248 b13d 829b cabd 5ba9 753e 92c2 88bd
00000040: e2b1 83bd c258 36bd 0321 733c f2e3 123e
00000050: e3bc d43d 5310 eebd 829b 4abc 33ac cfbd
00000060: e3bc 54bd 2a13 48be 93cd 593e 7a02 43be
00000070: 33ac cf3d b226 a73d 6237 ac3d 0000 0000
00000080: 8a29 013e ea4a 8bbe 829b 4a3d 0216 a2bc
00000090: 6342 7d3d 43de de3c f2e3 12be c258 b63c
000000a0: bbca 7fbe 42d3 0d3d 42d3 8d3d f2e3 12be
000000b0: 43de 5ebe 43de 5e3d 829b 4a3e e2b1 83bd
000000c0: f2e3 12be e2b1 83bd d6d1 a03e 1248 31be
000000d0: c258 b63c 92c2 88bd 829b cabd 43de debd
000000e0: 7269 3b3e 667e 87be 42d3 0dbe 0216 a23b
000000f0: 93cd d93d 42d3 8dbc 92c2 88bd c258 b63c
00000100: 6237 ac3d f2e3 123e 43de de3c 6237 2cbe
00000110: 3b45 57be 3b45 573e 7269 bbbd 0216 22bb
00000120: 829b ca3d 8a29 01be fb87 6b3e 4b77 663e
00000130: 7269 3b3e d28a 453e 9a5b 10be b226 a7bd
00000140: 42d3 8dbc db23 4dbe c258 36be ea4a 0b3e
00000150: 3b45 57be 5a9e 24be 3b45 573e 0aaf 293e
00000160: b226 27be c258 363e 42d3 8dbc bbca 7f3e
00000170: 7269 3b3e a3ff e83d e2b1 03bd 0216 223d
00000180: d28a 453e f3ee 63be 5310 eebd 0216 22bd
00000190: a2f4 173e 9a5b 103e 0216 223e 33ac 4f3e
000001a0: e3bc d43d 6237 2c3d 829b ca3c 43de 5ebd
000001b0: 829b 4a3d 0aaf 293e 5205 1d3e 829b ca3d
000001c0: 43de de3d 5205 9dbd 7a02 433e 92c2 88bd
000001d0: 0216 a2bb 1248 b1bd 7269 3b3e 0aaf 293e
000001e0: 829b 4abe 42d3 0dbd 43de 5ebd 0216 a2bd
000001f0: 0321 f3bb 4b77 66be 92c2 08be db23 4d3e
00000200: c258 36bd f3ee 633e 0321 733c e2b1 03bd
00000210: 8b34 52be 4b77 663e e3bc 54be 42d3 8dbc
00000220: 1ae1 38be ab98 70be 829b 4a3c 42d3 0d3d
00000230: 7269 bbbd b66d 823e a3ff e8bd 0216 a2bd
00000240: 43de de3d 5205 1d3e 5ba9 75be 227a 40be
00000250: 42d3 0d3e 829b cabd 0216 22bd b226 a73d
00000260: 8b34 523e 93cd 59be 829b cabc 0321 f33d
00000270: e3bc 54be f3ee e3bd fb87 6b3e 0321 733c
00000280: 1248 b13d 829b cabd a3ff 68bd 6237 2cbd
00000290: 6342 7dbe fb87 6bbe 5205 9d3d ab98 703e
000002a0: 0216 223d ab98 70be 43de 5e3d 227a c03d
000002b0: 42d3 8d3c 5310 ee3d a2f4 173d c258 36be
000002c0: 227a 403d eb55 5c3e 829b cabd 3a3a 063e
000002d0: 0216 22be 5310 eebd 0321 73bd 4a6c 15be
000002e0: 227a 40bd 93cd d93d 6237 ac3d e3bc d43d
000002f0: 3b45 573e 43de 5ebe f3ee e3bd f2e3 123e
00000300: f2e3 92bd 42d3 8d3c f2e3 92bd e2b1 83bd
00000310: 1248 b13d 2a13 48be 93cd d9bd 5205 9d3d
00000320: 9b66 61be 0321 733d 43de 5ebe a2f4 173e
00000330: 829b ca3d d28a 45be 42d3 0dbe 6342 7dbe
00000340: f2e3 12be 829b ca3c 6237 2c3d 6ad0 333e
00000350: 0216 22bc 4b77 66be 3a3a 063e 7a02 433e
00000360: 829b ca3c 43de 5e3e e3bc d43d 3b45 573e
00000370: 0216 223e eb55 5c3e 6ad0 333e a3ff e8bd
00000380: d28a c53d e2b1 833d 8b34 52be a2f4 173d
00000390: 829b cabc 6237 acbd 9a5b 10be 0216 a23c
000003a0: 0321 733c f3ee e33d 227a 403e f3ee 633e
000003b0: 5310 6ebe 9b66 61be db23 4d3e 43de debc
000003c0: 829b 4a3c aa8d 1fbe 43de de3c 7269 bbbd
000003d0: 227a 40be 0321 f33d fa7c 1abe 1248 313e
000003e0: 6342 fd3d 3b45 57be 0216 a23c 92c2 08be
000003f0: 0216 a2bd 9b66 61be 829b cabc 93cd d9bd
-0.06430413 -0.1805462 0.2225912 -0.20033209 -0.1805462 0.037098534 0.0692506 0.28194886
0.091509715 -0.09398295 0.081616774 -0.004946471 0.086563244 -0.09892942 0.23990385 -0.06677736
-0.06430413 -0.04451824 0.014839414 0.14344767 0.1038759 -0.11624207 -0.0123661775 -0.10140266
-0.05193795 -0.1953856 0.21269827 -0.19043913 0.10140266 0.081616774 0.08409001 0.0
0.12613502 -0.27205592 0.04946471 -0.019785885 0.06183089 0.027205592 -0.14344767 0.02225912
-0.2497968 0.0346253 0.0692506 -0.14344767 -0.21764474 0.054411184 0.19785884 -0.06430413
-0.14344767 -0.06430413 0.31410092 -0.17312649 0.02225912 -0.06677736 -0.09892942 -0.10882237
0.18301943 -0.26463622 -0.1385012 0.004946471 0.10634913 -0.01731265 -0.06677736 0.02225912
0.08409001 0.14344767 0.027205592 -0.16818002 -0.21022503 0.21022503 -0.091509715 -0.0024732356
0.09892942 -0.12613502 0.23001091 0.22506444 0.18301943 0.19291237 -0.14097443 -0.081616774
-0.01731265 -0.20033209 -0.17807296 0.13602796 -0.21022503 -0.16076031 0.21022503 0.16570678
-0.16323355 0.17807296 -0.01731265 0.2497968 0.18301943 0.11376884 -0.032152064 0.03957177
0.19291237 -0.2225912 -0.11624207 -0.03957177 0.14839414 0.14097443 0.15828708 0.20280533
0.1038759 0.042045005 0.024732355 -0.054411184 0.04946471 0.16570678 0.15334061 0.09892942
0.10882237 -0.076670304 0.19043913 -0.06677736 -0.004946471 -0.086563244 0.18301943 0.16570678
-0.19785884 -0.0346253 -0.054411184 -0.07914354 -0.007419707 -0.22506444 -0.13355473 0.20033209
-0.04451824 0.2225912 0.014839414 -0.032152064 -0.20527856 0.22506444 -0.2077518 -0.01731265
-0.1805462 -0.23495738 0.0123661775 0.0346253 -0.091509715 0.25474328 -0.11376884 -0.07914354
0.10882237 0.15334061 -0.23990385 -0.1879659 0.1385012 -0.09892942 -0.03957177 0.081616774
0.20527856 -0.21269827 -0.024732355 0.11871531 -0.2077518 -0.1112956 0.23001091 0.014839414
0.086563244 -0.09892942 -0.05688442 -0.042045005 -0.24732356 -0.23001091 0.076670304 0.23495738
0.03957177 -0.23495738 0.054411184 0.09398295 0.01731265 0.11624207 0.037098534 -0.17807296
0.046991475 0.2151715 -0.09892942 0.13108149 -0.15828708 -0.11624207 -0.059357654 -0.1459209
-0.046991475 0.10634913 0.08409001 0.1038759 0.21022503 -0.21764474 -0.1112956 0.14344767
-0.07172383 0.01731265 -0.07172383 -0.06430413 0.086563244 -0.1953856 -0.10634913 0.076670304
-0.22011797 0.059357654 -0.21764474 0.14839414 0.09892942 -0.19291237 -0.1385012 -0.24732356
-0.14344767 0.024732355 0.042045005 0.17559972 -0.009892942 -0.22506444 0.13108149 0.19043913
0.024732355 0.21764474 0.1038759 0.21022503 0.15828708 0.2151715 0.17559972 -0.11376884
0.096456185 0.06430413 -0.20527856 0.037098534 -0.024732355 -0.08409001 -0.14097443 0.019785885
0.014839414 0.1112956 0.1879659 0.2225912 -0.23248415 -0.22011797 0.20033209 -0.027205592
0.0123661775 -0.15581384 0.027205592 -0.091509715 -0.1879659 0.11871531 -0.15086737 0.17312649
0.12366178 -0.21022503 0.019785885 -0.13355473 -0.07914354 -0.22011797 -0.024732355 -0.10634913

model/quant_dense_1/BiasAdd/ReadVariableOp:0 f4 [32]
00000000: 52ec 5f3c be04 9ebc c792 d63c a77b b2bc
00000010: a35c 62bc 45e2 a9bc de29 77bc 9e75 863c
00000020: d575 70bc bfae b23c 735a 993c b6a6 8bbc
00000030: 7a01 263c 2137 943c c990 40bc b8b6 aabc
00000040: 6b0f 8abc 2626 96bc 37c9 6b3d 81ec 51bc
00000050: 137b e3ba 2297 60bc b251 a43c 2f61 99bc
00000060: 925b 7a3c 1099 58bc 4fc4 2f3c 2e4f 423c
00000070: 0583 a7bc 6ad4 043c 31bf b93c c02b e23c
0.013667183 -0.01928937 0.026193036 -0.021787478 -0.013816032 -0.020737777 -0.0150856655 0.016413506
-0.014676531 0.021811841 0.018719887 -0.017047267 0.010132188 0.018092694 -0.0117532695 -0.02083908
-0.016853055 -0.018328737 0.05756494 -0.012812735 -0.0017355405 -0.013707908 0.020058487 -0.018723099
0.015280621 -0.013220087 0.010727956 0.011859698 -0.020448217 0.008107284 0.022674175 0.027608752

model/quant_dense/LastValueQuant/FakeQuantWithMinMaxVars__54 f4 [32, 64]
00000000: 8656 93bd 3919 713e 5e73 44bd 081b 11be
00000010: 8adf 8ebd 6c97 323d 8adf 0e3c f66d 27be
00000020: 3da2 ec3d 83cd 17be 7f44 1c3e d59c 4fbe
00000030: 4f4f 563c 7020 ae3d 7bbb 20be 3590 753e
00000040: 690e b73d 7bbb 20bd 957a 01be 44b4 e3bd
00000050: 690e b7bd 6c97 b23d 483d 5f3d 3590 753e
00000060: 3919 f13d 8adf 8ebd 91f1 85be 3da2 6cbe
00000070: 5661 4dbd 102d 883e 7832 25be 5661 cdbd
00000080: 4f4f 56bc f2e4 2bbe 6585 3bbe 74a9 29be
00000090: 6585 bbbd 5498 82be 44b4 e33d 690e 37be
000000a0: b042 7c3e 83cd 173e 957a 01be 483d dfbd
000000b0: 5aea 48be 4f4f d63d e3c0 3d3e d113 543e
000000c0: b3cb 77be 4f4f 563c 8adf 0ebe e749 39be
000000d0: 8adf 0e3d 83cd 17bd 5e73 44be 4f4f d6bc
000000e0: 7832 a5bd 7f44 1cbe 8e68 8abd ee5b 303e
000000f0: 3da2 ec3d bbdd 6ebe 4f4f 563d 0ca4 0c3e
00000100: 3590 f5bd 3590 f53d 5e73 c4bd 3da2 ec3d
00000110: 3919 f1bd 4d86 8b3e 61fc 3f3e 3207 fa3c
00000120: 83cd 17be 7832 a5bd 44b4 633e 4f4f 56bc
00000130: 61fc 3f3e d59c 4f3e 83cd 97bd 91f1 05bd
00000140: 91f1 05bd ee5b 303e 7832 a5bd 8e68 0abe
00000150: ee5b 303e 957a 813d 0109 1abe 7bbb a03c
00000160: cd8a 58be 7020 ae3d 6585 bbbd 61fc 3f3e
00000170: 0492 15be dcae 463e 61fc 3fbe b754 733e
00000180: 957a 81bd 5661 4dbe 6585 3bbd cd8a 58be
00000190: 4f4f 563e 3207 7a3c 7bbb a03c 8adf 0ebb
000001a0: 3207 fa3c 8e68 8a3e 3207 fabc 483d 5fbd
000001b0: 690e b7bd 7bbb 20bd 6c97 32bc 8adf 8ebb
000001c0: 91f1 05be 5e73 c4bd 4f4f 563d 5661 cd3d
000001d0: 74a9 293e 483d df3d 7bbb a03d 4bc6 5abe
000001e0: 402b e83d 402b 68bd 7bbb 203e 2e7e 7ebe
000001f0: d825 4bbe 957a 013e 74a9 29bd b754 733e
00000200: dcae 46be 83cd 97bd 13b6 033e 483d df3d
00000210: 61fc bfbd 402b 68bd 3919 71bd 3207 fabc
00000220: 3590 753e 83cd 97bd 7832 a53d 4f4f d6bc
00000230: 61fc bf3d 3919 713d 6c97 323e 5661 cdbd
00000240: 7832 253e 5e73 44bd fd7f 1e3e 4bc6 5abe
00000250: 957a 013e 8adf 8e3b d59c 4fbe 5e73 c4bd
00000260: 5e73 443d 3590 753e dcae 463e 7020 2e3e
00000270: 5aea c8bd 61fc 3fbe 5aea c8bd 402b 683e
00000280: ee5b 30be 6c97 32be 6585 3bbd 13b6 033e
00000290: 3590 f5bd 53d8 d13d 3da2 6cbe 8adf 8e3b
000002a0: 74a9 293e cd8a 583e 5aea c83d 3919 71be
000002b0: 7020 2ebe 3590 f5bd 483d 5f3d 44b4 63be
000002c0: b042 7cbe 402b e83d 8adf 8e3d 0ca4 0c3e
000002d0: 483d df3d 6585 3b3e 3919 713e 13b6 033e
000002e0: 402b e8bd 6c97 b2bc 4f4f 56be 8e68 8abd
000002f0: 5aea 48be 4f4f d6bd 5661 4dbe e3c0 3dbe
00000300: 0109 1a3e 6c97 b23c 5e73 44be d59c 4f3e
00000310: 957a 01be 3da2 ecbd 3919 71be 402b e8bc
00000320: 2e7e 7e3e bbdd 6ebe 5661 cdbd 3207 7abe
00000330: 74a9 29bd 5aea 483e c2ef 653e 6585 3bbd
00000340: 8adf 0e3b 74a9 29bd 83cd 97bd 6585 bb3d
00000350: 8adf 8e3b 0109 1abe 5aea c8bd d113 54be
00000360: 91f1 853d c901 5dbe 8adf 8e3d 8adf 8e3b
00000370: 7020 2ebe 8adf 0ebe d113 543e 5e73 443e
00000380: f2e4 2bbe 7832 253e 4bc6 dabd 8adf 0ebd
00000390: 7f44 1c3e 44b4 63be 7f44 1cbe 3919 f1bd
000003a0: 91f1 05be c2ef 65be 3590 f5bd f9f6 22be
000003b0: 0109 1abe 7f44 9c3d 402b 68be 53d8 d1bd
000003c0: 74a9 a9bd 4f4f 56be 7f44 1cbe 0ca4 0cbe
000003d0: 7832 253e 483d df3d 6c97 32bd e037 423e
000003e0: 7832 a53d b042 7c3e 8656 93bd 483d dfbd
000003f0: ee5b 30be 4f4f 563d 53d8 513e 6585 bbbd
-0.071942374 0.23544778 -0.047961585 -0.14170468 -0.069762304 0.04360144 0.008720288 -0.1635054
0.11554382 -0.1482449 0.15260504 -0.2027467 0.013080432 0.08502281 -0.15696518 0.23980792
0.089382954 -0.039241295 -0.12644418 -0.11118367 -0.089382954 0.08720288 0.0545018 0.23980792
0.11772389 -0.069762304 -0.26160863 -0.23108764 -0.050141655 0.2659688 -0.16132534 -0.10028331
-0.013080432 -0.16786554 -0.18312605 -0.16568547 -0.09156302 -0.25506842 0.11118367 -0.17876591
0.24634814 0.1482449 -0.12644418 -0.1090036 -0.19620648 0.10464346 0.18530612 0.20710684
-0.24198799 0.013080432 -0.13952461 -0.18094598 0.034881152 -0.037061226 -0.19184634 -0.026160864
-0.08066267 -0.15260504 -0.067582235 0.17222568 0.11554382 -0.23326771 0.05232173 0.13734454
-0.11990396 0.11990396 -0.09592317 0.11554382 -0.11772389 0.272509 0.18748619 0.03052101
-0.1482449 -0.08066267 0.22236735 -0.013080432 0.18748619 0.2027467 -0.07412245 -0.03270108
-0.03270108 0.17222568 -0.08066267 -0.13516447 0.17222568 0.06322209 -0.15042497 0.019620648
-0.21146698 0.08502281 -0.09156302 0.18748619 -0.14606482 0.19402641 -0.18748619 0.23762785
-0.06322209 -0.20056662 -0.04578151 -0.21146698 0.20928691 0.015260505 0.019620648 -0.002180072
0.03052101 0.27032894 -0.03052101 -0.0545018 -0.089382954 -0.039241295 -0.01090036 -0.004360144
-0.13080432 -0.09592317 0.05232173 0.10028331 0.16568547 0.1090036 0.07848259 -0.21364705
0.11336374 -0.05668187 0.15696518 -0.24852821 -0.19838655 0.12644418 -0.04142137 0.23762785
-0.19402641 -0.07412245 0.12862425 0.1090036 -0.09374309 -0.05668187 -0.058861945 -0.03052101
0.23980792 -0.07412245 0.08066267 -0.026160864 0.09374309 0.058861945 0.17440575 -0.10028331
0.16132534 -0.047961585 0.15478511 -0.21364705 0.12644418 0.004360144 -0.2027467 -0.09592317
0.047961585 0.23980792 0.19402641 0.17004561 -0.09810324 -0.18748619 -0.09810324 0.22672749
-0.17222568 -0.17440575 -0.04578151 0.12862425 -0.11990396 0.10246339 -0.23108764 0.004360144
0.16568547 0.21146698 0.09810324 -0.23544778 -0.17004561 -0.11990396 0.0545018 -0.22236735
-0.24634814 0.11336374 0.069762304 0.13734454 0.1090036 0.18312605 0.23544778 0.12862425
-0.11336374 -0.02180072 -0.20928691 -0.067582235 -0.19620648 -0.10464346 -0.20056662 -0.18530612
0.15042497 0.02180072 -0.19184634 0.2027467 -0.12644418 -0.11554382 -0.23544778 -0.028340936
0.24852821 -0.23326771 -0.10028331 -0.24416807 -0.04142137 0.19620648 0.22454742 -0.04578151
0.002180072 -0.04142137 -0.07412245 0.09156302 0.004360144 -0.15042497 -0.09810324 -0.20710684
0.06540216 -0.21582712 0.069762304 0.004360144 -0.17004561 -0.13952461 0.20710684 0.19184634
-0.16786554 0.16132534 -0.10682353 -0.034881152 0.15260504 -0.22236735 -0.15260504 -0.11772389
-0.13080432 -0.22454742 -0.11990396 -0.15914525 -0.15042497 0.07630252 -0.22672749 -0.10246339
-0.08284274 -0.20928691 -0.15260504 -0.13734454 0.16132534 0.1090036 -0.04360144 0.18966627
0.08066267 0.24634814 -0.071942374 -0.1090036 -0.17222568 0.05232173 0.20492677 -0.09156302

model/quant_dense/BiasAdd/ReadVariableOp:0 f4 [64]
00000000: bf3d cd3b a454 1f3c 4261 453b 365f abbb
00000010: e3fd 563b 0e24 a13a 5dba 7abb e77d 16bc
00000020: 9cb4 173c 0000 0000 134d dbba 9b2b 5cbc
00000030: 96bd a8bb 377c 0b3c 5480 3a3c 636e 553b
00000040: 964c 213c 51c4 60bc c2d6 6ebb 0000 0000
00000050: 77cd 1cbc 43f9 b63b fd87 c83b e6be 463c
00000060: 1264 94bc 9072 073c 1e36 60bc 7037 04bb
00000070: 8e19 b6bb b657 cb3b 6cb6 3abc 1167 16bc
00000080: 0000 0000 0000 0000 d744 03bb 4e1d 8e3b
00000090: cb91 80bb 61a4 39bc 630a 3abc d0a3 d4bb
000000a0: 48c5 cf3a e7cc 863b ab12 093c 7249 04bc
000000b0: abfa 913c 00f0 fe3a 8034 cfbb 4153 45bc
000000c0: 79df 39bc 0a42 8f3c 0000 0000 2fd8 973c
000000d0: e5e0 99bc 0866 e6bb eee9 39bb 711e dc3b
000000e0: 812a e1bb c3f9 03bc 7d02 74bc 6df5 b13c
000000f0: 6bd0 013c 0000 0000 0000 0000 0a4c 87bb
0.006263464 0.00972477 0.0030117785 -0.005229856 0.0032805137 0.001229407 -0.0038258054 -0.009185291
0.009259369 0.0 -0.0016731344 -0.013438131 -0.0051495535 0.008513502 0.011383135 0.0032567016
0.00984492 -0.0137186805 -0.0036443924 0.0 -0.009570471 0.0055839135 0.0061197267 0.012130475
-0.018114123 0.00826706 -0.013684778 -0.0020174645 -0.0055572456 0.0062055243 -0.011396032 -0.009179846
0.0 0.0 -0.0020030045 0.0043369895 -0.00392363 -0.011330695 -0.011355015 -0.0064892545
0.0015851641 0.0041137817 0.008366267 -0.008074151 0.017819723 0.0019450188 -0.006323397 -0.012043775
-0.011344784 0.017487545 0.0 0.018535702 -0.018783996 -0.007031206 -0.0028368193 0.006717496
-0.006871522 -0.008055153 -0.014893171 0.021723473 0.007923226 0.0 0.0 -0.0041289376

model/gru_3/gru_cell/ReadVariableOp/resource:0 f4 [2, 96]
00000000: 1159 043d 4b47 ebba 5a6a f03c 6d14 3ebc
00000010: 8dcb e73b b859 8bbc a00a dc3b 923b 81bb
00000020: cc82 f03b 2cca f5ba ec9a 0a3c 18ea 3fbb
00000030: 051c 603b 85cf 16bb 64eb bebb 1324 393c
00000040: 52ce 523c c7f8 ea38 4281 e93b d09c 1d3c
00000050: fffe 60bb 0e25 e43b c372 b73a 320d d4bb
00000060: 041b 873c 95d5 b13b 350a d83a 6127 3c3c
00000070: 06b1 573b fb9c 243c 3f7c e23b d7fb e43c
00000080: ef5c 39bc e4ce 903c be20 953a 79ea be3c
00000090: c82c 91bc 3566 523b 6162 693c 7508 103c
000000a0: aa0b 843c 3afe 953b 0bdf 9b3b ac82 e03c
000000b0: 4960 63bc 8f25 393b 11ca 2b3c f3ea 163c
000000c0: c105 883c 6521 8c39 57c3 67bc 0e0b a939
000000d0: 2029 01bc 5f78 46bc 38c1 2fbc aa66 e03a
000000e0: 65d6 06bd 33c1 dc39 7591 e23b d6c7 0ebd
000000f0: b6b8 f3bc 4a15 66bc c278 ea3b 1884 fd3b
00000100: 1d03 953b a10a 6fbc 9709 783b 5c2e 6bbc
00000110: 0d36 b6bb aecb c5ba c253 69bc 70d8 1bbc
00000120: 7d5d 6cbc 8696 f83c 1cc9 923b 0d87 7dbc
00000130: 2eb3 43bc bb6c 853b 2e87 72bc dc0e 4b3c
00000140: 837d 51bc 8161 febb 959b 95bc f273 a4b9
00000150: 0c3d babb 4798 35bc 9907 62bc e675 02bc
00000160: abe7 113c dec4 55bc 5673 2dbc 26df 6f3a
00000170: de8f 273c b742 d6bb 18f9 643b c18b cf3b
00000180: 1159 043d 4b47 ebba 5a6a f03c 6d14 3ebc
00000190: 8dcb e73b b859 8bbc a00a dc3b 923b 81bb
000001a0: cc82 f03b 2cca f5ba ec9a 0a3c 18ea 3fbb
000001b0: 051c 603b 85cf 16bb 64eb bebb 1324 393c
000001c0: 52ce 523c c7f8 ea38 4281 e93b d09c 1d3c
000001d0: fffe 60bb 0e25 e43b c372 b73a 320d d4bb
000001e0: 041b 873c 95d5 b13b 350a d83a 6127 3c3c
000001f0: 06b1 573b fb9c 243c 3f7c e23b d7fb e43c
00000200: ef5c 39bc e4ce 903c be20 953a 79ea be3c
00000210: c82c 91bc 3566 523b 6162 693c 7508 103c
00000220: aa0b 843c 3afe 953b 0bdf 9b3b ac82 e03c
00000230: 4960 63bc 8f25 393b 11ca 2b3c f3ea 163c
00000240: c105 883c 6521 8c39 57c3 67bc 0e0b a939
00000250: 2029 01bc 5f78 46bc 38c1 2fbc aa66 e03a
00000260: 65d6 06bd 33c1 dc39 7591 e23b d6c7 0ebd
00000270: b6b8 f3bc 4a15 66bc c278 ea3b 1884 fd3b
00000280: e8b8 9e3b 4f23 6fbc eccf 703b 8190 6dbc
00000290: 6a09 b8bb e4d1 b4ba 8093 6abc 1185 1cbc
000002a0: f227 6bbc 58fe f93c 8d84 873b 3c92 82bc
000002b0: 2ee6 3fbc 72a3 7f3b 3513 75bc 97cc 4b3c
000002c0: 884e 50bc b57b e2bb bd61 97bc 306d 8937
000002d0: e6fe b4bb 9d95 35bc 469e 5fbc b0cd ffbb
000002e0: 400e 033c 788c 55bc 3874 2dbc bd2c abba
000002f0: 5398 1e3c 959b debb 81d6 763b e596 bb3b
0.032311503 -0.0017950324 0.029347587 -0.01160155 0.0070738257 -0.017010555 0.006715134 -0.003943869
0.007339811 -0.0018752269 0.008459788 -0.0029283818 0.0034196388 -0.0023011875 -0.0058264006 0.011300105
0.012866573 0.00011204328 0.0071260044 0.009619907 -0.0034331677 0.006962425 0.0013995994 -0.0064712996
0.016492374 0.0054270723 0.0016482534 0.011483998 0.003291191 0.010047193 0.006911784 0.027952118
-0.011313661 0.017676778 0.0011377556 0.023305165 -0.017721549 0.0032104377 0.014244647 0.008791079
0.016118843 0.0045774253 0.0047568134 0.02740606 -0.013877937 0.0028251146 0.010485188 0.00921129
0.016604306 0.00026727762 -0.014145694 0.00032242428 -0.00788334 -0.01211366 -0.010727219 0.001712044
-0.032919306 0.00042105615 0.0069143125 -0.034858547 -0.029751163 -0.014043162 0.0071555087 0.007736694
0.0045474903 -0.0145899365 0.0037847513 -0.014354315 -0.0055606426 -0.0015090609 -0.014241161 -0.009512052
-0.014426586 0.030345213 0.0044795405 -0.015474093 -0.011944575 0.0040717996 -0.014802737 0.0123936795
-0.012786272 -0.007763088 -0.018262664 -0.00031366904 -0.005683547 -0.011083669 -0.013795757 -0.0079626795
0.008905332 -0.013047425 -0.01058658 0.0009150378 0.010227172 -0.0065387147 0.003493851 0.0063337986
0.032311503 -0.0017950324 0.029347587 -0.01160155 0.0070738257 -0.017010555 0.006715134 -0.003943869
0.007339811 -0.0018752269 0.008459788 -0.0029283818 0.0034196388 -0.0023011875 -0.0058264006 0.011300105
0.012866573 0.00011204328 0.0071260044 0.009619907 -0.0034331677 0.006962425 0.0013995994 -0.0064712996
0.016492374 0.0054270723 0.0016482534 0.011483998 0.003291191 0.010047193 0.006911784 0.027952118
-0.011313661 0.017676778 0.0011377556 0.023305165 -0.017721549 0.0032104377 0.014244647 0.008791079
0.016118843 0.0045774253 0.0047568134 0.02740606 -0.013877937 0.0028251146 0.010485188 0.00921129
0.016604306 0.00026727762 -0.014145694 0.00032242428 -0.00788334 -0.01211366 -0.010727219 0.001712044
-0.032919306 0.00042105615 0.0069143125 -0.034858547 -0.029751163 -0.014043162 0.0071555087 0.007736694
0.00484382 -0.014595821 0.0036745025 -0.014499784 -0.0056163566 -0.0013795462 -0.014317393 -0.00955321
-0.014352785 0.030516788 0.0041356743 -0.01593887 -0.011712594 0.0039007333 -0.014958193 0.012438915
-0.012714036 -0.0069117197 -0.018479222 1.6382517e-05 -0.0055235503 -0.011083034 -0.013648575 -0.0078065023
0.007999003 -0.013033979 -0.010586791 -0.0013059598 0.009679872 -0.006793449 0.0037664475 0.005724775

model/gru_3/gru_cell/MatMul_1/ReadVariableOp/resource:0 f4 [32, 96]
00000000: a7bb 3f3d 1538 7abd 957f 07bd 7d02 64bd
00000010: 3e58 543d fc2a 99bd 6423 833d 16ad 893c
00000020: 4e81 073d 093d 6a3d 2786 aa3b ab24 54be
00000030: 713c 2c3e f957 183e 037f 9e3c eb3a d23d
00000040: efe9 0abd bfec 343e 6cda e5bd 623e 08bd
00000050: f4f6 103c 37dc e43d 4a3a 0fbd 0945 1d3e
00000060: 4642 203d ef1b 63be beb1 b93c c7ff 273d
00000070: 91e5 0f3e 5e98 1f3d a4c7 68bc a6d8 dbbc
00000080: 3bb4 87bd 76b4 95bd cdc4 64bd b612 ab3d
00000090: 3375 b23d 0663 38bd bc9f 223e 040a 303d
000000a0: 822f 2bbc 4eed 453d a80f e0bd 7221 6e3c
000000b0: 4ef4 a6bd b667 07b7 0627 d83d 5b20 a93d
000000c0: ea19 2d3e 9496 ad3c 0246 f93c 0e28 e63d
000000d0: 0c43 00bd d0ac 72bd ec91 86bc 6c7b a6bd
000000e0: 7571 67be f090 8f3d cb1a c03d fe52 0abe
000000f0: 5a1d c93c c81a aabc 0861 143e b5b0 503c
00000100: b49f b1bd 4cda 4abe a8b9 dc3a 1922 e5bd
00000110: 7a21 82be d6c5 0ebe 1363 0abe 7d49 f9bd
00000120: e5fa 73bc 14eb a33d 4300 1bbd d6db 3abd
00000130: edd3 583e 02df 103e a3bd 6c3d 0cca ed3d
00000140: fe8c 053d 60ee bdbd f512 abbc dedb dbbd
00000150: d824 8abe 5deb c13d 2ef9 55bc 1895 44be
00000160: afe8 a0bd 1e50 80ba 7385 383d 582d e0bc
00000170: 942c eebd 4913 7c3d f5ac 653e f4c4 483d
00000180: 130f f5bd 8707 58bd 2af9 9ebc d5f8 653c
00000190: 031a 81bd 788e c23d b588 86be 015c 083b
000001a0: c678 b6bd 1c4c a8bd b231 61bd ab72 f9bd
000001b0: 0c27 8bbc 5f91 ba3a 7490 743d 96c1 edbc
000001c0: 7a7d 003d 40d6 50bd 53ec 053e 9241 00be
000001d0: 2977 153e 5bba 8db9 5666 f7bd 9acd 1f3c
000001e0: 6e40 533c 5938 b7bd f180 383c a5af 5d3e
000001f0: c5dd 993d 7423 0a3e 32df cc3d aa57 d83c
00000200: ae02 503d fac4 40be 3449 3cbd 9406 f23d
00000210: ecc4 8bbd 4394 c23c c8bd cd3c 0f6b 573d
00000220: ea5f 0e3e a1d9 32be daea e93c b5ef 91bd
00000230: 2841 303e da2f 5a3d f2d1 d6bc c1cc 133d
00000240: 5c92 313d 30c8 92bd ab0d 633e c02b ce3b
00000250: 9be8 75bd 4126 c0bd c5da 343e fd79 79bc
00000260: dbab 0b3e 04be 2cbd cfdb e03d fd98 16be
00000270: b164 013e 6b7a 28bc a8c7 553d 907d 0e3c
00000280: b0cf 293d 546d 23be 3c25 02be 4274 2bbd
00000290: b029 2eba 3e89 81bd 46b7 c63d 8622 9abd
000002a0: 716f 183e 8e9c c8bd adb4 703e 1a70 a93e
000002b0: c54c 72b9 863d 84bd 3b98 af3d 9bed 803d
000002c0: 5b70 1e3d 1f08 cfbd ed57 03bd 42aa e43c
000002d0: 1f84 173e b4b5 ac3d adca 38bc 5151 75bd
000002e0: b817 933c 8798 a3bd fa12 41bd 9730 4cbd
000002f0: dfef a33d a1ff 08be 755e acbd cae3 883d
00000300: 4d70 f73d 99db cdbd b6b9 293e ff36 22be
00000310: 699e 34be ee16 1f3c 60ac 033d ad2a e93d
00000320: 9767 d13d 1469 433d 562d 11bd a61b e7bd
00000330: 302c 193e bf97 f4bc cce7 57bd 6926 46be
00000340: 32ac 88bd 7c9c 0c3d 914e d9bd e38f 833c
00000350: 900c 62be fe72 3a3d 5a5d d5bb 139c 8ebd
00000360: ea8c c5bc 3691 b43d c5a9 3e3c 8deb adbc
00000370: 7d0d 0ebe 58c3 4fbd 9f2f ff3d e960 babd
00000380: 5b45 e7bc 1a54 f4bd feaf 493e 9992 453e
00000390: 4c6c 3abe 3bfd fbbc f1ed e03c 713a a93c
000003a0: 2418 9f3d 8eab d7bd b731 c43d a021 9ebd
000003b0: 6147 6abd 2c28 9b3c 5154 51bd ac3a f13d
000003c0: b5db 24be 62fa b1bd 1ce0 30be dc5e 0d3d
000003d0: b44a 13bc 081a 403e f418 e33d 674f bdbd
000003e0: 2f86 7b3d e3e6 2e3c a6d3 5e3e 32a1 7cbd
000003f0: 67b7 7abd eeeb cfbd c22d 04bd 8c75 243c
0.04680982 -0.06108864 -0.033080656 -0.055666436 0.051841967 -0.07478902 0.064032346 0.016806167
0.0330823 0.057187114 0.0052039805 -0.20717113 0.16819932 0.14877309 0.019347673 0.10265144
-0.033914503 0.17668436 -0.11223301 -0.033262618 0.008847941 0.11174815 -0.0349677 0.15358366
0.039125703 -0.22178625 0.022667762 0.041015413 0.14052416 0.038963668 -0.014207754 -0.026836704
-0.06626173 -0.07309811 -0.055851746 0.08353178 0.0871376 -0.04501631 0.15881246 0.0429783
-0.010448338 0.048322015 -0.10940486 0.014534341 -0.08152066 -8.070774e-06 0.10554318 0.082581244
0.16904417 0.021189965 0.03042889 0.112381086 -0.03131394 -0.059246838 -0.016427003 -0.081290096
-0.22601874 0.070100665 0.0938011 -0.13508222 0.024550129 -0.020764723 0.1449014 0.012737443
-0.08673039 -0.19809836 0.0016839998 -0.11188144 -0.25416166 -0.13942656 -0.13514356 -0.1217222
-0.014891361 0.08003822 -0.037842046 -0.04561981 0.21174593 0.1414757 0.05779804 0.11610803
0.032605164 -0.09273982 -0.020883063 -0.10735296 -0.26981235 0.0946872 -0.013059897 -0.191975
-0.07856881 -0.0009789502 0.045049142 -0.027365372 -0.11629596 0.06154183 0.22429259 0.049015954
-0.11965766 -0.052741554 -0.01940592 0.014036377 -0.063037895 0.0949983 -0.26276174 0.0020806792
-0.089097545 -0.08217642 -0.054979034 -0.12180074 -0.016986392 0.0014233998 0.059708074 -0.029022973
0.031369664 -0.050985575 0.13078432 -0.12525013 0.14596237 -0.0002703246 -0.12080066 0.009753609
0.012893779 -0.08946294 0.011261211 0.21649034 0.07513002 0.13490087 0.100035086 0.026408989
0.050783806 -0.1882514 -0.04596825 0.11817661 -0.06824669 0.023752337 0.025114909 0.052592333
0.13903776 -0.17465831 0.028554369 -0.071257986 0.17212355 0.05326829 -0.026223157 0.03608394
0.04335247 -0.07167089 0.22173183 0.0062918365 -0.060036283 -0.09382296 0.17661579 -0.015226838
0.13639776 -0.0421734 0.10979425 -0.14706798 0.12636067 -0.010283093 0.05219236 0.008696929
0.04145783 -0.15959674 -0.12709516 -0.04185892 -0.0006643785 -0.06325005 0.097029254 -0.07526116
0.14886262 -0.097954854 0.23506422 0.3309334 -0.00023107517 -0.06457047 0.085739575 0.0629532
0.03868137 -0.10108971 -0.032066274 0.027913217 0.14796494 0.084330946 -0.01127879 -0.059892002
0.017955646 -0.07988077 -0.047137238 -0.049851026 0.08004736 -0.13378765 -0.08416454 0.06684072
0.120819665 -0.100516506 0.1657475 -0.15841292 -0.17638554 0.009710057 0.03214681 0.11385093
0.10224836 0.047707632 -0.035443626 -0.112845704 0.14958262 -0.029857514 -0.052711293 -0.1935059
-0.06673469 0.034328923 -0.106106885 0.016059821 -0.22075105 0.04551982 -0.0065113725 -0.069633625
-0.024115045 0.08816759 0.011637156 -0.021230483 -0.13872333 -0.050723404 0.12460255 -0.091005154
-0.028231313 -0.119301036 0.19696042 0.19294204 -0.18205374 -0.030760398 0.02745721 0.02065775
0.07768276 -0.10530768 0.09579795 -0.07721257 -0.05719698 0.018940054 -0.0511058 0.11778769
-0.16099437 -0.08690335 -0.17272991 0.034514293 -0.008989979 0.1875993 0.11088744 -0.092436604
0.061407264 0.010675165 0.21760425 -0.061677165 -0.061210062 -0.10152422 -0.0322702 0.010037791

model/gru_3/gru_cell/MatMul/ReadVariableOp/resource:0 f4 [32, 96]
00000000: 12df 47bd 4028 22be eb9d 553e e91f 82bd
00000010: c104 b5bd 4d9c e73d 1a2d 5ebc 0e95 2fbe
00000020: 4b3f 453d 0109 853d d0b1 43be 4f9d 543e
00000030: 3fb7 2fbe 1fb3 103e 7dc6 b8bc 64b0 f6bd
00000040: ddb7 2f3e 5f64 efbd 2ae8 a4bd 29db 38be
00000050: d1c1 e9bd 40f7 493d 333b 9cbd 28b7 67bd
00000060: 6c6b 14be 3f77 1c3d d658 c93d a4c4 b8bd
00000070: bd08 c03c 40d2 78bc dabe 98bd dfde 5cbd
00000080: bb65 5ebe e4c2 49be 54e2 8e3d 8028 efbd
00000090: 1968 48bd c8bd 0e3e 7e28 4ebd 4857 3e3d
000000a0: 0cd3 43bd a2f4 383e 7bc0 c2bd 284a 64bd
000000b0: 5a75 323e 2a02 ec3d 9be1 0d3b 883c 5bbd
000000c0: 7f8b 483e cb73 1cbe ed64 273e 3f05 4ebd
000000d0: 4637 6dbc 319e 85bd 325d 2c3e 2cac 323e
000000e0: 3ef6 20bd 42cd 2bbe 451c a8bd a05b 733c
000000f0: 1700 36bd a87e 95bd b1f2 aebd b382 cabd
00000100: 445d 273e 6b83 90bd a13f 7dbd 760d 033e
00000110: e41f fcbd c788 b23c 52cf 31be bc3c 223d
00000120: a56b 093e 4c27 ffbd 41dd a13d 27bc 8a3d
00000130: 065b 0a3d 0d53 cfbd f1b0 a73d c736 21be
00000140: b919 edbd 9d3b 3bbe 121a 263d cbe0 94bd
00000150: 5cec 5cbe 1466 c6bd 48c6 7dbd 712c a33d
00000160: eb82 623d cfaa 7cbd a5a2 aebc f330 e13d
00000170: 51a1 933d 22f5 4fbe b8ba 5ebd 52e8 cb3d
00000180: c6d3 af3d e847 413e 4649 3d3e dd4a 44be
00000190: df06 15be 4970 32be 839c 4b3d 6ace bc3d
000001a0: 2ff2 adbd ffc3 5ebe aef4 ccbd e67e dcbd
000001b0: 75d9 313e 6672 433e d619 36be 154a f63d
000001c0: 066c d2bd 3884 4cbe f573 733d d057 22be
000001d0: f25e 73bc ca6e 573e 0dbd 0dbe b3c4 43be
000001e0: 5410 1dbd 7d10 c0bd 8698 a1bd 9b85 693d
000001f0: fce4 45be db6e e13d 4de1 b93d f75a be3d
00000200: 16cf c03d 8983 163e 7562 273e 3265 4d3e
00000210: 473e 43be dacc 5abe b249 40be c666 3dbd
00000220: a88d 31be fbaf 093c 7f2d 94bd 5f06 5c3e
00000230: 183b 9d3d 210c 413e ba6e b2bc e570 26be
00000240: ac58 be3d 42ce 9bbd 8c22 39be 52ef ee3d
00000250: 63c9 9a3d 5c52 e33d ebae 56be ceea 7bbd
00000260: 5865 b8bd 4a7a 533e bd11 45be d86b 1d3d
00000270: 2916 00be a16c 9b3c 6bc8 453e a3bf e93d
00000280: c9a2 e53d f72f 3dbe fff8 9dbd a667 4fbe
00000290: 609d 32be bdb0 613c 8db5 21be 9150 293e
000002a0: 3518 173e 7e26 c3bd 71c2 873d 1e76 02bd
000002b0: c706 fabc 3201 5dbe 074f ae3d d53e 8cbd
000002c0: bee6 99bd 68e7 1dbe bdee 333e caa0 0cbe
000002d0: ffba 9d3d 76d1 b8bc ba7b 40be 8cc5 db3d
000002e0: dc36 a0bd bbb3 c23d 18c3 29bd 9521 e5bd
000002f0: 0a8a 46bd 5f39 4d3e 3be3 3abe 2c64 13be
00000300: ca2f acbd 227f 50bd 2159 10be 293b 313e
00000310: 62c8 50bc 6526 0c3e da06 c33d f6a5 a33c
00000320: 83a4 37be 229c 2f3e 0882 3d3e 9e5c 683d
00000330: 905b a03b a506 593e d7d9 5c3d 1c97 9e3d
00000340: 2cad 813b a554 0e3e dde5 f03d ed71 483e
00000350: 27a3 193e 6a63 9e3c dfd3 e43d 795a 463d
00000360: d39e 00bd 2946 393e 9691 11be 34ef 103e
00000370: 6941 a0bd cf02 d1bb eb03 3e3e df4e 24be
00000380: 5e3d cf3d 264d 643e 0e02 793d 0dfe d0bd
00000390: 5b2c 7cbc c704 a23d 6c3e ae3d c8e6 053e
000003a0: 4981 f43d 15d8 3d3e ac46 2fbc 4829 02be
000003b0: 95e7 373d 287e b7bd 2fb8 003e 86b3 b7bd
000003c0: 1e1b 21be a645 813d d40b 163c ef9b 273e
000003d0: e3b2 44bd 61ec bcbd 151c fc3d 2e2e 95bd
000003e0: bc47 9b3c e172 89bd 6577 073d d877 78bd
000003f0: 2e65 4dbe d046 7eb9 f46d 113e 0e75 0a3e
-0.04879672 -0.15835667 0.20861022 -0.06353743 -0.08838797 0.11309109 -0.013560558 -0.17146704
0.048156064 0.06495858 -0.19110799 0.20763133 -0.17159747 0.1413083 -0.022555584 -0.120453626
0.17159982 -0.11689066 -0.08052094 -0.18052353 -0.11413921 0.04930806 -0.07628479 -0.056571156
-0.14494103 0.03819966 0.09831397 -0.09021881 0.023441667 -0.015186846 -0.07458277 -0.053923484
-0.21718495 -0.19703251 0.069767624 -0.11677647 -0.0489274 0.13939583 -0.050331585 0.046469957
-0.04780869 0.1806207 -0.09509369 -0.055734783 0.17427579 0.1152385 0.0021649364 -0.053524524
0.19584464 -0.15278547 0.16347094 -0.05029797 -0.01447851 -0.06524313 0.16832426 0.17448491
-0.039297335 -0.16777518 -0.08208517 0.014853388 -0.04443368 -0.072995484 -0.085423835 -0.0988821
0.16344172 -0.07056316 -0.06182826 0.12798104 -0.1231077 0.021793736 -0.17364243 0.039608702
0.1341997 -0.12458667 0.07903529 0.067741685 0.033778213 -0.101232626 0.08188046 -0.15743552
-0.11577172 -0.1828446 0.040552206 -0.07269438 -0.21574539 -0.096874386 -0.061956674 0.07967461
0.055300634 -0.061686333 -0.02131779 0.109956644 0.07208503 -0.20308354 -0.054377288 0.09956421
0.085853145 0.18875086 0.18484983 -0.19169183 -0.14553402 -0.17425646 0.049709808 0.09219058
-0.084934585 -0.21754454 -0.100076064 -0.107663915 0.1736811 0.19086608 -0.17783293 0.12025849
-0.1027451 -0.19972312 0.059436757 -0.1585381 -0.01485418 0.21038356 -0.13841648 -0.19118004
-0.03834565 -0.09378145 -0.0789042 0.05701218 -0.19325632 0.11007472 0.09076176 0.09294694
0.094144985 0.14698614 0.16346152 0.20058134 -0.19066726 -0.21367207 -0.18778113 -0.04624059
-0.17339194 0.008403773 -0.0723524 0.21486805 0.07677287 0.18852283 -0.021781314 -0.16254003
0.092942566 -0.076077 -0.18079585 0.116667405 0.07557943 0.11099693 -0.20965163 -0.061503224
-0.09003705 0.20652118 -0.19245048 0.038432926 -0.12508453 0.018972697 0.19314735 0.11413505
0.112126894 -0.18475328 -0.07713508 -0.20254382 -0.17442846 0.013775048 -0.15791912 0.1653464
0.14755328 -0.09528826 0.06628884 -0.031850927 -0.03052081 -0.21582487 0.08511167 -0.06847922
-0.07514714 -0.15420306 0.1757154 -0.13733211 0.07701682 -0.022560816 -0.18797198 0.107310385
-0.078229636 0.09506937 -0.04144582 -0.11188046 -0.048471488 0.20041417 -0.18250744 -0.14393681
-0.084075525 -0.050902493 -0.140965 0.17307724 -0.0127430875 0.13686521 0.09522791 0.019976597
-0.1793385 0.17149404 0.18506634 0.05672895 0.0048937276 0.21193941 0.053918686 0.077436656
0.0039574113 0.13899477 0.11762593 0.19574709 0.15003644 0.019334514 0.11173224 0.048426125
-0.031401467 0.1809317 -0.14215693 0.14153749 -0.07824976 -0.0063785086 0.18556182 -0.16045712
0.10119127 0.22295055 0.060792975 -0.10204706 -0.015391435 0.079110675 0.08508 0.13076317
0.11938722 0.1853946 -0.010698002 -0.1271106 0.04489859 -0.08959609 0.1257026 -0.08969788
-0.15733 0.063121125 0.0091580935 0.16368078 -0.048022162 -0.09224773 0.12310044 -0.07284199
0.018955104 -0.067113645 0.033072848 -0.060661167 -0.20058128 -0.00024249707 0.142021 0.13521215

model/gru_2/gru_cell/ReadVariableOp/resource:0 f4 [2, 96]
00000000: 13cf 4bbd d157 35bc 1cd0 88bc fe40 fabc
00000010: 1506 5abd 5ab6 63bc 15ed 4b3b c95c 123c
00000020: 0e44 35ba acf6 04bd 2416 173c 7808 e5bc
00000030: 2672 bcbc ce88 c93b 7776 d3bc cac7 13bd
00000040: b6f4 683c 2385 de3a 54e9 49bd 4226 b43b
00000050: 1461 37bb e102 34bd 8969 063b 8d9a 053b
00000060: ebc6 ea3b 4c76 e3bc 020d b1bb af5b e8bc
00000070: fba0 92bc 8a69 613c 586b 2e3c 3b40 ae3a
00000080: b93f 803b 6d6a f0b9 8b7c c43b c6bb c33b
00000090: 0f8d 063c 284f e6b9 0614 1c39 533b 373c
000000a0: 0b21 65bc 9562 753b da22 a3bb 8e4e 6939
000000b0: 9963 9cbc e74a 633c 2020 8fb9 2632 7a3b
000000c0: b40e b4bc 8d09 edbb 00d4 30bc 8f21 d2bb
000000d0: f44c 43bc 8933 213b 373d 9fbc f413 17bc
000000e0: 99ea 563c 9ede eebc 9cb4 49bc ee89 96bc
000000f0: dbd9 d7bb ce3e b2ba 7977 cb3b f538 9d3b
00000100: 41b9 d03b cdf4 b33b 2f2a 72bc 16a3 e53a
00000110: 7edd 6f3b ee02 b0ba 0340 aa3c e616 27bc
00000120: 58e8 06bc be56 7abb 55cb 27bc c621 093c
00000130: 9192 b63b 53b6 41bc b26d 7cbb ac04 a9ba
00000140: f411 97bc 2686 4dbc bf76 b73a 6b8d cfbb
00000150: 37a6 4abb 58d9 bd3a 037d 97bc df72 3bbc
00000160: 0272 49bc 7b98 0abb 3125 60bc acb0 503b
00000170: 80bd 12bc 7495 55bb 1c6d d239 45dc 40bc
00000180: 13cf 4bbd d157 35bc 1cd0 88bc fe40 fabc
00000190: 1506 5abd 5ab6 63bc 15ed 4b3b c95c 123c
000001a0: 0e44 35ba acf6 04bd 2416 173c 7808 e5bc
000001b0: 2672 bcbc ce88 c93b 7776 d3bc cac7 13bd
000001c0: b6f4 683c 2385 de3a 54e9 49bd 4226 b43b
000001d0: 1461 37bb e102 34bd 8969 063b 8d9a 053b
000001e0: ebc6 ea3b 4c76 e3bc 020d b1bb af5b e8bc
000001f0: fba0 92bc 8a69 613c 586b 2e3c 3b40 ae3a
00000200: b93f 803b 6d6a f0b9 8b7c c43b c6bb c33b
00000210: 0f8d 063c 284f e6b9 0614 1c39 533b 373c
00000220: 0b21 65bc 9562 753b da22 a3bb 8e4e 6939
00000230: 9963 9cbc e74a 633c 2020 8fb9 2632 7a3b
00000240: b40e b4bc 8d09 edbb 00d4 30bc 8f21 d2bb
00000250: f44c 43bc 8933 213b 373d 9fbc f413 17bc
00000260: 99ea 563c 9ede eebc 9cb4 49bc ee89 96bc
00000270: dbd9 d7bb ce3e b2ba 7977 cb3b f538 9d3b
00000280: 064b d33b 2e5f ce3b 5302 75bc 81d8 d73a
00000290: bb78 753b d00b a4ba 62ec aa3c d59e 28bc
000002a0: 9766 f1bb 8fd3 8cbb 9f5b 45bc f174 233c
000002b0: 9694 b83b 9977 41bc cfff 82bb d558 8bba
000002c0: 90b1 95bc b0ee 4dbc 350d ae3a ca0f d1bb
000002d0: 3dd3 3fbb 11fb 9b3a 96b9 94bc 4e4b 34bc
000002e0: 098a 49bc 4bf8 2abb 6522 61bc 2e79 493b
000002f0: b6c9 13bc 27f9 5fbb 1c4e 7738 f54a 41bc
-0.04975803 -0.0110683 -0.016700797 -0.030548569 -0.053228457 -0.0138984565 0.0031116654 0.0089332545
-0.0006914743 -0.032461807 0.009221587 -0.02795814 -0.023003649 0.0061503416 -0.025813324 -0.036079206
0.0142185 0.0016976934 -0.049294785 0.0054977247 -0.0027981447 -0.043948058 0.0020509681 0.002038631
0.007164826 -0.02776637 -0.005403162 -0.02836403 -0.017899027 0.013758073 0.01064571 0.0013294289
0.0039138463 -0.0004585566 0.005996292 0.005973312 0.008212342 -0.00043927995 0.00014884779 0.011183578
-0.013984929 0.0037442793 -0.00497852 0.00022249875 -0.01909046 0.013872839 -0.0002729902 0.0038176863
-0.021979667 -0.0072338046 -0.010792732 -0.006412692 -0.0119202025 0.0024597368 -0.01943837 -0.009221066
0.013117456 -0.029158887 -0.012311127 -0.018376317 -0.0065872497 -0.001359904 0.0062093106 0.0047980496
0.0063697402 0.005491829 -0.014780565 0.0017519917 0.0036600525 -0.0013428607 0.020782476 -0.0101983305
-0.008234106 -0.0038198675 -0.010241349 0.008369869 0.0055716713 -0.011823255 -0.0038517532 -0.0012895069
-0.018441178 -0.0125441905 0.0013997181 -0.006333997 -0.0030921826 0.0014484329 -0.018492227 -0.011440962
-0.012295248 -0.0021148014 -0.013680742 0.0031843586 -0.008956313 -0.0032590302 0.00040135614 -0.011771266
-0.04975803 -0.0110683 -0.016700797 -0.030548569 -0.053228457 -0.0138984565 0.0031116654 0.0089332545
-0.0006914743 -0.032461807 0.009221587 -0.02795814 -0.023003649 0.0061503416 -0.025813324 -0.036079206
0.0142185 0.0016976934 -0.049294785 0.0054977247 -0.0027981447 -0.043948058 0.0020509681 0.002038631
0.007164826 -0.02776637 -0.005403162 -0.02836403 -0.017899027 0.013758073 0.01064571 0.0013294289
0.0039138463 -0.0004585566 0.005996292 0.005973312 0.008212342 -0.00043927995 0.00014884779 0.011183578
-0.013984929 0.0037442793 -0.00497852 0.00022249875 -0.01909046 0.013872839 -0.0002729902 0.0038176863
-0.021979667 -0.0072338046 -0.010792732 -0.006412692 -0.0119202025 0.0024597368 -0.01943837 -0.009221066
0.013117456 -0.029158887 -0.012311127 -0.018376317 -0.0065872497 -0.001359904 0.0062093106 0.0047980496
0.0064481525 0.0062979674 -0.014954167 0.0016467721 0.0037455994 -0.0012515727 0.02086467 -0.010291775
-0.007366966 -0.0042976807 -0.01204577 0.0099766115 0.005632947 -0.011808299 -0.00399778 -0.0010631332
-0.018273145 -0.012569115 0.0013279082 -0.006380056 -0.0029270195 0.0011900385 -0.0181549 -0.011004282
-0.012300977 -0.0026087936 -0.01374111 0.0030742395 -0.00902026 -0.0034175606 5.8962134e-05 -0.011797656

model/gru_2/gru_cell/MatMul_1/ReadVariableOp/resource:0 f4 [32, 96]
00000000: 056c 26bd f9d5 0f3e 6f0e 02be 3b45 83bc
00000010: ecd9 dfbd de61 0c3d a872 c0bb 946d f03d
00000020: 4ed7 b2bc e0b2 bebd 55af 4a3e 6382 403e
00000030: e762 c6bd 9da1 5ebd 5c01 eb3d e018 043e
00000040: 4dff 57bb ea51 8e39 f3cd efbd 363f 84bd
00000050: 878f a2bd 4d04 eb3d 3481 343d d48c 1abe
00000060: 9de6 1dbe 5538 9abd 8978 ef3b ddea 9cbd
00000070: 723f 20bd 8476 ea3c de8b aebd ad04 9bbd
00000080: f98c 843e 9f24 33bd 6ff1 d1bc 1597 8e3d
00000090: 7155 a33d 1d3c 49bd 7edf 29be f063 eabc
000000a0: 4f71 a53d 1f7a 283b 22dc 3f3a 5c8e 8a3d
000000b0: 6da3 95bd 2432 3f3c 8efc c93c d0e9 613d
000000c0: 0c3a 0a3e d169 ff3d f608 f3bd 97e3 f83d
000000d0: 4223 4c3e 1b9e 1ebe 6508 243c 2f80 35bd
000000e0: 993b 51bd 8a07 55bd d3b9 aabd 06e1 1b3e
000000f0: 84cb 463e fa37 d63c 37aa 563e e552 73bd
00000100: a30c 42bd 26f3 5bbd 0bad 533c 4d39 bcbd
00000110: bea5 463e 2d1f 40be b50a 6dbd 8522 edbc
00000120: d048 d7bd ab54 213d 0c53 113d af03 36bd
00000130: 4fd1 20bd 88ea 8dbd da01 753d 35de 633e
00000140: 5b14 d43b 5a6b ccbd 0ad5 b2bd 2c9b bdbd
00000150: 360a 113d a180 1f3e bd78 473d 4435 ddbc
00000160: 8484 0c3d 822a 39be 3036 c13d 5a27 333d
00000170: c2d4 a53d 71a7 c7bc 59a1 033e aaf1 02be
00000180: 230f 0e3e 052d a73d 8571 a53d 0a1c 3abb
00000190: 9337 873c 8c08 333e 663f 3dbe 44d8 47bd
000001a0: ff98 a83d 3ddf 043e 5898 953d 2eb3 d1bd
000001b0: da92 1fbe 34d3 30be 4d09 a23d 5ca3 d0bd
000001c0: ae55 eabd a723 b3bd 5d0b 1dbe 3298 5cbc
000001d0: 7147 f33d d41b 903c 037d f5bd 5b55 883d
000001e0: 4a63 ddbd 1874 64bd c964 e93d c31b 16bd
000001f0: e1bf 9ebd 02d1 153c 5b3f 723c 7ac6 cdbc
00000200: 1253 03bd 49d0 573d ecad 82bd c151 423d
00000210: 1430 12be 9199 483e a176 41bd 75c1 753d
00000220: 4afe c93d 351b fc3d 39fa 08bd a6dd 74be
00000230: 8a62 24be 374e 94bd 75aa 513e cc4a 0f3e
00000240: f9c6 6fbe 1de2 3b3b 537e 0cbe 4927 bcbd
00000250: d048 673d dc2a 2f3c d263 85bd 7093 123e
00000260: 8306 8abd 6d99 12bd 2974 cebd 24f7 97bd
00000270: c859 583d 6470 443e a5e0 ddbd 966c d23b
00000280: 9dc7 a63d 912a 21bc d417 aabd 2cd0 bcbc
00000290: 666c 723d 6ee0 05be 17df 68bd 022b 243d
000002a0: b738 61be 7323 22bb 32a0 58bd 2161 e93d
000002b0: 893c 0e3e 1205 bd3c aac9 803c a110 313d
000002c0: 739e 793d 7e1f 85bc 8c38 fa3b 1e5d d3bd
000002d0: 63fa 533d b669 d1bc 91dd 3ebd 2f7d 09be
000002e0: 4a9b 823d 7a04 2e3e f3a7 c83d 03b0 a33d
000002f0: e030 88bb f94b 4cbe 0b02 103a b62f 123e
00000300: eeca e6bd 7ea1 a53d adac 01be cae1 7c3d
00000310: 76bd 363e 3b76 f3bd c87f d1bc eab2 3fbe
00000320: eeff 01be efbc 7fbe e055 aa3d 0859 60bd
00000330: 62f6 f03c c7ed 34bd 6d0c 87be cb31 1fbd
00000340: 2f63 50be 1dff 57be f2d8 28bb 8b35 273d
00000350: 15d2 313d d5dd 97bd 0de3 a7bc 2c90 40be
00000360: 652b 47bb f832 2b3d f1cb 173d 3e01 41be
00000370: b66a 433c 1653 1abe 45a6 94bd 74c2 27bc
00000380: bc8a 1d3c a80b 31bc 05f3 853d cb9f 5cbd
00000390: 3d3b e33d 5ce1 e1bd eefb 2bbe 3234 303e
000003a0: e241 2e3d 5065 ec3d bbcb 1cbe 6e40 4c3d
000003b0: 9b14 23be 6e61 1c3e 3705 c5bd 03b0 8e3d
000003c0: 998f d7bd 1413 ae3d 6007 19be 5af8 39bd
000003d0: 6d78 41be fb57 a53d 2520 0dbe 9b49 bc3d
000003e0: d35c a5ba df91 30bd 5f2e d83d ea31 9f3d
000003f0: 8672 e9bd 27b0 30be d4b8 f2ba 72b2 cabd
-0.04063036 0.14046468 -0.12700818 -0.016024223 -0.10930237 0.03427302 -0.005873043 0.1173965
-0.02183118 -0.093114614 0.19793446 0.18799739 -0.09686833 -0.054353345 0.11474869 0.12900114
-0.0032958568 0.0002714538 -0.117092036 -0.06457369 -0.07937532 0.1147543 0.04406853 -0.15092784
-0.15420003 -0.07530276 0.00730807 -0.07661984 -0.039123006 0.028620966 -0.08522771 -0.07569251
0.25888804 -0.043736096 -0.02562782 0.0696241 0.07975281 -0.049129594 -0.16589162 -0.028612107
0.080782525 0.0025707555 0.0007318874 0.06765434 -0.073065616 0.011669669 0.02465656 0.05515462
0.13498706 0.12471355 -0.118669435 0.12152784 0.19935325 -0.1549 0.010011767 -0.0443117
-0.051082227 -0.052009143 -0.083362244 0.15222558 0.19413573 0.026149739 0.2096337 -0.059405226
-0.047375333 -0.05369868 0.012919675 -0.09190617 0.19399163 -0.18761893 -0.05787154 -0.028947124
-0.10511935 0.039387386 0.03547959 -0.044437107 -0.039262112 -0.06929499 0.05981622 0.22252734
0.006472153 -0.09981413 -0.0873204 -0.09258112 0.03541013 0.15576412 0.04869913 -0.027002938
0.034306064 -0.18082622 0.094341636 0.0437387 0.08097221 -0.024371834 0.12854518 -0.127875
0.13872962 0.08162884 0.08078293 -0.002839806 0.016505992 0.17483729 -0.18481216 -0.04879023
0.08232307 0.12975784 0.07304448 -0.10239254 -0.15583363 -0.17268068 0.0791193 -0.10187408
-0.11442123 -0.087470345 -0.15336366 -0.013464021 0.11878861 0.017591394 -0.11986735 0.06656905
-0.108099535 -0.055774778 0.11396176 -0.03664757 -0.07751442 0.00914407 0.014785613 -0.025119055
-0.032061644 0.05268887 -0.06380829 0.047441248 -0.14276153 0.19589831 -0.047232274 0.059998948
0.09862955 0.12309877 -0.033441756 -0.23912677 -0.16053215 -0.07241481 0.2047518 0.13993376
-0.23415746 0.002866871 -0.13720064 -0.091871805 0.056465924 0.010691371 -0.0651318 0.14314055
-0.06739523 -0.03579085 -0.100807495 -0.07420185 0.052819997 0.19183499 -0.10833863 0.006421636
0.08143542 -0.009836809 -0.08305326 -0.023048483 0.059185408 -0.13073894 -0.05685338 0.040080078
-0.21994291 -0.0024740368 -0.05288715 0.11395479 0.1389028 0.023073707 0.01572116 0.04322875
0.060942125 -0.016250368 0.0076361354 -0.10320495 0.05175246 -0.025563102 -0.04659802 -0.1342666
0.06377275 0.16993895 0.09797659 0.07992556 -0.004156217 -0.19950856 0.00054934685 0.14276013
-0.112691745 0.08087443 -0.12663527 0.061738767 0.17845711 -0.11887785 -0.025573626 -0.18720594
-0.12695286 -0.24974416 0.083171606 -0.054772407 0.02941436 -0.044172075 -0.26376668 -0.038865846
-0.20350336 -0.21093412 -0.0025764075 0.040822547 0.04341324 -0.07415358 -0.020494008 -0.18804997
-0.0030390855 0.041796654 0.037059728 -0.1884813 0.011927297 -0.15070757 -0.07258276 -0.010239232
0.009615596 -0.010806002 0.06540493 -0.053863328 0.11095283 -0.11029312 -0.16795322 0.17207411
0.0425433 0.11542761 -0.15312092 0.049866132 -0.15925829 0.15271541 -0.09620135 0.06967165
-0.10525436 0.084997326 -0.1494422 -0.045402862 -0.18893595 0.080734216 -0.13781793 0.09193727
-0.0012616165 -0.043107864 0.105557196 0.07773192 -0.11398797 -0.17254697 -0.0018518218 -0.09897317
